ai/models/dqn/trained_models/dqn_2048_1000.pth (torch, 78983 bytes, 6 tensors)

fc1.weight f4 [128, 16]
000000 91 c1 fa be 3f e9 da 3e 06 5d 7a 3f 82 59 b2 3e
       -0.48975804 0.42756078 0.9779819 0.34833914
000010 e5 2d 08 3f e1 f3 ab bd ec 9a 5f bd a3 db 4a bd
       0.5319503 -0.083961256 -0.054591104 -0.04952587
000020 9d 6d c7 3b d4 7c fc 3e 26 e5 1e 3f 57 5e a3 3d
       0.006086065 0.49313986 0.620684 0.07976978
000030 51 5e e2 bd ba b1 a6 3c 4b 2c 9a bf ca db 4d bf
       -0.11053146 0.020348419 -1.2044767 -0.80413496
000040 68 d8 34 bf 6f f9 7c 3f 89 3f c2 3f 6a e2 9e 3f
       -0.7064271 0.98818105 1.5175639 1.2412846
000050 34 b8 ee be d0 ba fb 3e 55 85 09 3f bc 91 08 bf
       -0.4662491 0.49165964 0.53719074 -0.53347373
000060 47 43 f2 bf b5 43 0e bf 79 82 49 3f a9 e2 a6 3e
       -1.8926781 -0.5557206 0.7871471 0.32594803
000070 34 e7 26 c0 31 e7 9e 3f 0b b7 2a 3f f9 18 d5 3f
       -2.6078615 1.2414304 0.6668555 1.6648246
000080 b5 a2 9e 3e 74 f6 44 3f 42 51 6e be 15 12 2e 3e
       0.3098351 0.7693856 -0.23273185 0.16999085
000090 82 6c 8a 3e 81 dd 50 3f d7 ba a4 be 6d 0f 3c 3f
       0.2703591 0.8158799 -0.32173797 0.7346104
0000a0 56 f3 be be 42 88 db be b9 98 5e 3e 81 da 32 3f
       -0.37295026 -0.42877394 0.21737947 0.6986466
0000b0 1d 46 5b 3d 15 6d 6a bf 9e a1 7e bf c8 25 2c 3e
       0.053533662 -0.91572696 -0.9946536 0.16811287
0000c0 b5 0a 09 3e 32 cb 79 bf d4 34 e1 3e 2b dd a2 3f
       0.1338299 -0.97575676 0.43985617 1.2723745
0000d0 0c ca 60 be 2c 17 ce bd 51 eb e2 bd 30 9c 8c 3e
       -0.21952075 -0.100630134 -0.11080039 0.27462912
0000e0 9f 5c 07 3f 4b 07 04 bf 11 d7 1a 3f c8 b8 be 3d
       0.52875704 -0.5157363 0.60484415 0.09312588
0000f0 ca 03 30 bf 7c ed 17 3d f0 d5 a1 3e 37 63 4c 3f
       -0.6875578 0.037091717 0.31608534 0.7983889
000100 49 91 ea 3d 5a 49 8c bd f9 60 d3 bd c3 ea d1 3e
       0.11453492 -0.06849928 -0.103212304 0.4099942
000110 45 1f 21 bb 50 9c 12 3e 92 44 65 3c 5f db ae 3d
       -0.0024585288 0.14317441 0.013993399 0.085379355
000120 49 14 c8 3e 81 f0 2a be b5 71 b6 3e 88 2c 99 3d
       0.39077976 -0.16693307 0.35633627 0.07479197
000130 fd 52 cc 3e 81 b3 10 3e 6c 3c 89 3d 6f ec ef 3d
       0.39907065 0.14130975 0.06700978 0.11715018
000140 c7 df 52 3f 35 80 4a 3e 26 a7 28 bf 1f 95 22 bf
       0.8237271 0.1977547 -0.6588005 -0.6350879
000150 00 16 0d 3f 91 03 93 3e 39 60 7a 3e bb 64 80 3e
       0.55111694 0.28713658 0.24450769 0.2507685
000160 c6 8f f0 3d 19 ad 97 3e 20 5e 8c be f6 06 7d be
       0.117461726 0.2962425 -0.27415562 -0.24709687
000170 cc 0d 2a 3e 08 28 ea 3d 1b c7 17 bf 10 86 36 bf
       0.16606826 0.114334166 -0.59288186 -0.71298313
000180 26 b5 6b be fa a2 4f 3f 36 72 5c bf 2c 70 15 3e
       -0.23018321 0.8110806 -0.8611177 0.14593571
000190 22 6f 41 3e 77 5f 71 3d 3c 62 9f bc 54 8a ac 3e
       0.1889005 0.058928933 -0.019456021 0.33699286
0001a0 22 bd 50 3e db ee 98 3d 19 81 21 3f 01 d3 2b be
       0.20384648 0.07467433 0.6308761 -0.1677971
0001b0 5e a9 1a 3e 23 10 bb 3c 97 57 a7 bf db f7 f2 be
       0.15103671 0.022834843 -1.3073605 -0.47454724
0001c0 fa d0 0c 3f 74 69 a1 3f b2 1f 5e 3e 25 df 78 bf
       0.5500637 1.2610307 0.21691778 -0.9721549
0001d0 29 e6 ef bc ad c5 92 3f 1c 29 cc 3e c9 1a 05 3c
       -0.029284554 1.1466576 0.39875114 0.008124062
0001e0 9d 5b 2a bf 3e 92 12 bf cc f6 9b bf 98 3b c8 be
       -0.6654604 -0.572544 -1.2184691 -0.39107966
0001f0 e2 49 9c be 30 fc 60 bd 69 e5 ca 3e c7 95 28 bd
       -0.30525118 -0.054928005 0.3962815 -0.041158464
000200 5e 18 9c be 9b 49 a3 3e 56 25 e6 3e 50 9c f5 bc
       -0.3048734 0.31892094 0.4495036 -0.029981762
000210 59 85 c8 3e 8a bf 3b bf ea ad 01 3f 2b 06 60 3f
       0.39164236 -0.7333914 0.50655997 0.8750941
000220 35 68 8e bf 16 19 a3 bf 08 ce b3 3e 3f 77 36 3f
       -1.1125551 -1.2742031 0.35118127 0.71275705
000230 00 50 e6 bf 91 4e 89 3f 39 2c 01 3f 52 a7 0a be
       -1.7993164 1.0727102 0.50458103 -0.1354039
000240 d6 4a d3 be bc 33 35 bf c0 9e 76 be a5 46 f9 be
       -0.41268033 -0.70782065 -0.24083996 -0.4868671
000250 f2 6d 9e 3f ad db ff be a5 3d 04 bf 8a 6a 56 3f
       1.2377303 -0.49972287 -0.5165656 0.83756316
000260 0a f3 13 3e c0 44 0f 3f 6b df 31 be f3 a4 50 bd
       0.14448181 0.5596428 -0.17370383 -0.050938558
000270 ff 4b 92 3f cc bc 7b 3f 9d 9c 50 3f 66 13 8f 3f
       1.1429442 0.98334956 0.8148897 1.1177795
000280 6c 88 a0 3e 02 d3 06 3e ed 63 90 be 64 32 8a 3e
       0.31354082 0.1316643 -0.28201237 0.2699157
000290 81 bb 6b be 1c 5e a6 3e 09 6b fe 3c 79 8f 6d be
       -0.23020746 0.32493675 0.031056898 -0.23199262
0002a0 38 eb 2d 3e af cf 84 3c 38 87 18 3f 4a 90 91 be
       0.1698426 0.016212313 0.5958133 -0.28430396
0002b0 b1 e4 04 3f 8a 0c 08 3f a5 a4 25 be 28 72 ba 3c
       0.51911455 0.53144133 -0.16176088 0.022759512
0002c0 da c6 31 3e 58 0c 1f 3e 78 26 b9 bd 0b 68 8a bf
       0.17361012 0.15532053 -0.090405405 -1.0813001
0002d0 fa 13 41 3d f8 5e fb 3e 1f 3e 04 3f 58 ff 80 3e
       0.04713819 0.49095893 0.5165729 0.25194812
0002e0 46 43 e6 be 20 14 a8 3e ca fc 8b 3e ac 60 a7 bf
       -0.449732 0.32827854 0.273413 -1.3076377
0002f0 3a a5 1b 3e 28 2e 4e 3f 27 b4 0f c0 71 5d 9f bf
       0.15199748 0.8053918 -2.2453706 -1.2450391
000300 ef c1 f4 3e 30 93 d2 3e 90 78 82 3f 09 e1 d8 3e
       0.4780421 0.4112792 1.0193043 0.42359188
000310 a2 c3 14 3e 9b b5 45 3e 00 2e c1 bd b8 21 ad be
       0.14527753 0.19307558 -0.09432602 -0.33814788
000320 e0 6b 8d be b9 3d ec 3d 73 09 9a 3d a2 91 a6 3a
       -0.27621365 0.1153521 0.075213335 0.0012708197
000330 7c c6 28 bf eb 20 e6 bd b8 a2 15 3f 82 a4 0b bf
       -0.65927863 -0.11236747 0.58451414 -0.54547894
000340 ad f9 82 bf 6f d2 4d 3f a2 8c 37 bf 0e 3d 79 bf
       -1.0232445 0.8039922 -0.71698964 -0.9735879
000350 21 34 99 3e 33 0e cf 3e 42 fb 0d 3f b6 86 0c bf
       0.29922584 0.4044052 0.55461514 -0.5489305
000360 f0 6b 0e 3f 15 44 89 be 33 1d 40 3f 5d 10 15 be
       0.5563345 -0.26809755 0.75044554 -0.14557023
000370 22 82 45 3f 8c 6a 15 3e 4b 3d 1b 3f d4 bf d6 bf
       0.7715169 0.14591426 0.606404 -1.6777291
000380 17 dc 92 bf 1b 33 44 bf ab b9 70 bf 94 13 43 3f
       -1.1473416 -0.7664048 -0.94033307 0.7620175
000390 df 72 0c 3f 77 0e 84 3f fe 3d d8 3c e4 10 3f be
       0.5486278 1.0316914 0.026396748 -0.18658787
0003a0 4a 3e 6a 3e ff 26 15 3e 43 b9 7c 3d 19 c7 5a 3f
       0.22875324 0.14565657 0.061700117 0.8546005
0003b0 37 a6 40 3e ad 0a ca 3e 7d 5b 58 be 05 85 36 3e
       0.18813406 0.3946127 -0.2112865 0.1782418
0003c0 90 fb 47 3f 4c d0 52 3f 26 73 76 3f a5 8a 8f 3f
       0.7811823 0.82349086 0.9626945 1.1214186
0003d0 32 41 11 bd 5a ec 84 be b7 a4 43 bf 8d f1 9f be
       -0.035462566 -0.25961572 -0.7642321 -0.31238976
0003e0 02 c6 46 3f 5d 6d 08 bf f5 f9 9d 3e b6 b0 37 3f
       0.77645886 -0.53291875 0.30854765 0.71754014
0003f0 c7 80 8c 3f e6 66 dd 3f 4e cb 1a 3f 13 ec 88 3f
       1.09768 1.7297027 0.6046647 1.0697044

fc1.bias f4 [128]
000000 da 21 33 c0 d0 47 8f 3f e2 13 33 c0 07 05 24 c0
       -2.7989411 1.119379 -2.7980886 -2.5628068
000010 2c d0 fc 40 3f f7 48 c0 8a 85 1f c0 18 5a 50 c0
       7.9004116 -3.1400907 -2.4925256 -3.255499
000020 d7 9f 5c c0 f5 3a 61 c0 d4 a2 fc 40 37 b7 28 c0
       -3.4472558 -3.5192235 7.8948765 -2.6361825
000030 5c 6b 34 c0 bb 93 2f c0 01 95 42 c0 82 e7 0f 41
       -2.8190527 -2.7433918 -3.0403445 8.99402
000040 b4 17 09 c0 45 12 21 be 16 77 34 c0 72 37 4f c0
       -2.1420717 -0.15729626 -2.8197684 -3.237759
000050 bb c8 e8 40 9f 3b 74 c0 0f 09 27 40 12 6a 28 c0
       7.274503 -3.816139 2.609928 -2.631474
000060 d5 11 27 c0 48 cd 7d c0 41 f6 e0 40 92 69 e8 40
       -2.6104634 -3.9656544 7.0300603 7.262887
000070 77 c2 ee bf 16 b4 0c c0 04 80 5e c0 ea 04 28 c0
       -1.8653096 -2.1984916 -3.4765635 -2.6253
000080 40 ea 16 c0 27 bb 45 c0 e9 d8 f3 40 c7 71 14 c0
       -2.3580475 -3.0895479 7.6202283 -2.3194444
000090 b5 6e 14 c0 38 81 0f c0 27 2b f2 bf e3 c2 0c c0
       -2.319257 -2.242262 -1.8919419 -2.199395
0000a0 64 9a e3 bf 76 df 0f c0 d9 73 12 3e b6 cc 24 c0
       -1.7781491 -2.248014 0.14302005 -2.5749946
0000b0 52 f4 18 c0 f8 30 31 c0 54 3f fe bf 87 1a 22 c0
       -2.3899121 -2.7686138 -1.9863076 -2.532869
0000c0 3a f2 6d c0 ee 63 4c c0 0f 5b 2b c0 52 52 42 c0
       -3.7179093 -3.1935992 -2.6774328 -3.0362744
0000d0 43 8c b6 bf dc 02 19 c0 43 7b ff bf f8 52 6d bf
       -1.4261554 -2.3907995 -1.9959491 -0.92704725
0000e0 cf c4 6f c0 2a de 1e c0 e0 5b 1e c0 7e 0c 97 40
       -3.7463872 -2.4823098 -2.4743576 4.720275
0000f0 e7 6e 1d c0 43 93 33 3e 5a b4 37 c0 59 06 ca bf
       -2.459894 0.17536645 -2.8703828 -1.5783187
000100 6e a9 b4 bf 16 48 83 c0 3e 75 fd bf dd 83 23 c0
       -1.4114206 -4.1025496 -1.9801404 -2.5549233
000110 84 30 44 c0 2a 2e 1c c0 b3 34 0d c0 5d 6e 40 c0
       -3.0654612 -2.4403176 -2.2063415 -3.006736
000120 2e 3c 05 c0 ac 6c 35 c0 cc de 2f c0 9e 12 2e c0
       -2.081798 -2.8347578 -2.7479734 -2.7198863
000130 a7 b7 37 c0 fc d9 2b c0 e6 8b 2c c0 55 f8 1c c0
       -2.8705842 -2.6851797 -2.6960387 -2.452657
000140 8e 0a 21 c0 70 f2 49 c0 2e fe 39 c0 60 9d 47 c0
       -2.5162692 -3.1554222 -2.906139 -3.1189804
000150 2f 9a fa 40 a4 9b 5a c0 0f 30 29 c0 87 97 14 c0
       7.8313212 -3.4157495 -2.6435583 -2.3217485
000160 6a a5 47 c0 ac 1f 38 c0 d7 8c 1f c0 be df 4a c0
       -3.119471 -2.876933 -2.4929712 -3.1699061
000170 bf db 07 c0 ce 69 cd bf 85 c0 5e c0 39 81 9c 3f
       -2.1227872 -1.6047914 -3.4805005 1.2226936
000180 c6 2f 20 c0 d9 7d 41 c0 cd a6 19 c0 2d 41 b0 be
       -2.5029159 -3.0233061 -2.4008057 -0.34424725
000190 5d 39 1b c0 aa b9 43 c0 13 a3 d5 bf ca 0b 37 c0
       -2.4253762 -3.058207 -1.6690391 -2.8600945
0001a0 a8 d0 3d c0 5b fe 1f c0 4d fd 4a c0 38 ab 4d c0
       -2.9658604 -2.4998996 -3.1717103 -3.2135754
0001b0 1b 09 45 c0 5d 6e bb 3f e7 5b 30 c0 53 c3 51 c0
       -3.0786808 1.4643055 -2.7556093 -3.2775466
0001c0 9a 1c 11 c0 1c 2f 12 c0 f8 d2 3b c0 bd 00 26 c0
       -2.2673707 -2.2841253 -2.9347515 -2.593795
0001d0 03 4e 5a 3f 2c f7 b8 40 43 b5 ec 40 97 2f 1c c0
       0.85275286 5.7801723 7.3971267 -2.4404047
0001e0 ec 4d 34 c0 43 37 c2 bf f3 3f 49 c0 23 02 02 c0
       -2.817256 -1.5173115 -3.1445282 -2.0313804
0001f0 23 bc d2 bf 33 43 53 c0 3a 06 37 c0 bd e5 2a c0
       -1.6463665 -3.3009765 -2.859755 -2.670272

fc2.weight f4 [128, 128]
000000 19 14 f5 3f 9c 7e 31 3f 61 7c 21 40 62 f9 2c 40
       1.9146758 0.69333816 2.5232165 2.702721
000010 9f 8a 75 3f 26 29 aa be f5 db aa 3f a4 53 94 40
       0.95914644 -0.3323452 1.3348376 4.63521
000020 75 37 67 40 9a 2e 25 bf 6f e8 95 3f 2c f9 3e 3f
       3.6127598 -0.64524233 1.1711558 0.74598956
000030 6d 73 b8 3f 90 43 a5 40 45 0a 92 40 87 4c b6 3f
       1.4410225 5.1644974 4.5637536 1.4242104
000040 96 45 80 40 d4 9b 8f 40 1a a1 70 40 41 a8 38 40
       4.0084944 4.487772 3.7598329 2.8852694
000050 9f e5 86 3f b3 80 16 bd 37 f7 b9 3f 2d 31 29 40
       1.0538825 -0.03674383 1.4528569 2.6436265
000060 ee 77 80 c0 cb b5 36 3d d5 f1 32 3f f5 08 82 3f
       -4.01464 0.044606965 0.69900256 1.0158983
000070 36 0d 43 40 3f 62 58 40 f8 da a0 be a7 14 7f 40
       3.0476813 3.3809965 -0.3141706 3.9856355
000080 1c c3 d0 40 dc b0 70 bd 76 69 4a 3e 46 e7 aa be
       6.523817 -0.058762416 0.19766793 -0.33379573
000090 d2 cd 98 40 a7 03 a3 3f ad 26 81 40 f2 56 30 bf
       4.7751245 1.273549 4.035971 -0.6888267
0000a0 38 62 63 3f e9 af 44 40 3f 0c 40 40 1d cd 1c 40
       0.88821745 3.0732367 3.0007474 2.4500191
0000b0 08 39 2b c0 af ea 66 40 d3 e0 a7 40 30 aa ff bd
       -2.675356 3.608074 5.2461944 -0.124836326
0000c0 6a 8a c9 be aa e4 60 40 df cf 96 3f f9 04 4f 40
       -0.39363414 3.5139565 1.1782187 3.2346785
0000d0 5f 35 3f 40 30 05 1f 40 34 2b 4f 40 40 4d 31 bf
       2.9876325 2.4846916 3.237012 -0.692585
0000e0 0f 82 1f 40 85 68 4e 40 3c 96 0f 3f 80 21 f6 40
       2.4923131 3.2251294 0.56088614 7.6915894
0000f0 32 4c e3 3f d6 87 2b 40 f2 7b ee 3f a3 2e 5d 40
       1.7757628 2.6801658 1.8631575 3.4559715
000100 9a 86 1f 40 f2 55 9f be d9 a9 3d 40 45 72 31 40
       2.4925904 -0.3112026 2.9634917 2.7725995
000110 81 eb 43 3e ee 8e 67 3f de ac 1c 40 77 8f 5b 40
       0.19132806 0.9045247 2.448051 3.4306314
000120 c1 98 86 3f 62 0f 1d 40 ae d0 14 40 75 4f d6 40
       1.0515367 2.454064 2.3252368 6.6971993
000130 55 03 69 40 8b 6f 73 40 b0 a9 d6 3f 3b 68 8f 3f
       3.6408284 3.803683 1.6770535 1.1203684
000140 f7 5b bc 40 61 df 00 c0 49 9c 9b 40 05 7e dd 40
       5.886226 -2.013634 4.862828 6.9216332
000150 85 0c 85 3f 77 cd da 3b 5a 53 cd 40 c2 42 55 3f
       1.0394446 0.0066773253 6.4164248 0.8330499
000160 9e 57 8b 40 75 27 08 40 df 81 df 40 8f a1 0e 3f
       4.3544455 2.1274083 6.9846034 0.5571527
000170 99 e5 c6 3f 84 be 1a 40 aa 8a b1 40 74 45 68 40
       1.5538818 2.4178782 5.548177 3.629239
000180 64 a4 e1 3f 70 37 b6 3f b8 43 37 40 07 66 be 3f
       1.7628293 1.4235668 2.8635082 1.4874886
000190 3c 25 83 40 b9 50 ed 3f 3e 84 73 40 cb 8f f5 3e
       4.098295 1.854026 3.8049464 0.47961268
0001a0 89 f5 91 3f 71 04 95 40 72 15 9c 40 b7 99 36 3d
       1.1403056 4.656792 4.877618 0.044580188
0001b0 59 73 b7 3f 37 14 1f 3f 60 0d 7e 40 54 3b 83 40
       1.4332076 0.6214022 3.9695663 4.100992
0001c0 b8 60 96 40 fc 4f 32 be c0 2a 29 40 a6 5f 92 3e
       4.6993065 -0.17413324 2.6432343 0.285886
0001d0 23 4e 7f 40 c3 80 48 3f 8f 91 71 3f b1 35 d2 3f
       3.989144 0.78321475 0.9436273 1.6422635
0001e0 5d 0b 48 40 57 70 6f 40 f7 33 b6 3e 9c 45 75 bf
       3.1256936 3.7412317 0.3558652 -0.9580934
0001f0 a1 c3 31 40 10 01 48 40 be a0 0e 40 18 2f f9 bf
       2.7775652 3.1250648 2.228561 -1.9467497
000200 00 cc 93 be ce ad 7b 40 dc d6 ea bf 18 de 92 bf
       -0.28866577 3.9324832 -1.834682 -1.1474028
000210 f2 2c 68 40 bd 54 27 c0 3d 3d 06 bf bc 82 32 c0
       3.6277432 -2.614547 -0.5243719 -2.7892294
000220 dc b4 81 3f bc 78 50 c0 78 fa 5a 40 96 e6 0a c0
       1.0133319 -3.257369 3.4215374 -2.1703238
000230 34 e2 c5 3f ec 95 66 bf 07 2d 2a c0 e1 13 14 40
       1.5459657 -0.9007251 -2.6589983 2.3137133
000240 e3 82 04 3f db 6f 24 40 c1 8a 47 bf 40 41 cb c0
       0.5176222 2.569327 -0.77946097 -6.351715
000250 57 21 78 40 3a 36 25 c0 1f 96 15 3f c7 11 2a 3e
       3.877035 -2.5814347 0.5843219 0.16608344
000260 f6 91 75 c0 01 79 56 c0 1d 22 5d 40 da 02 56 40
       -3.8370337 -3.3511355 3.455207 3.343924
000270 6a 74 2e 40 14 68 9b be 83 86 3c c0 30 54 85 bc
       2.7258554 -0.30352843 -2.94571 -0.016275495
000280 60 c0 ff 3f ec c6 fe bf 54 75 06 41 b2 b8 9d c0
       1.9980583 -1.9904456 8.403645 -4.928796
000290 f1 76 3f c0 97 53 ed bf 01 5a ac 3f ac 45 4b c0
       -2.9916346 -1.8541135 1.3464967 -3.1761274
0002a0 c7 2a 06 c0 37 ac 9c be c3 7a ec bf 45 da 87 bf
       -2.096361 -0.3060014 -1.8474964 -1.0613486
0002b0 33 f2 15 c0 4c b3 22 40 27 7c 14 3f 3d ab bb bf
       -2.3429077 2.5421934 0.5800194 -1.4661633
0002c0 21 51 26 c0 3b c4 15 40 ce f5 91 bf ac 8b da bf
       -2.5987017 2.340102 -1.1403139 -1.7073874
0002d0 c1 4f 1a c0 94 92 e5 bf bb 73 dc bf e9 5a f3 be
       -2.4111178 -1.7935357 -1.7222818 -0.47530296
0002e0 08 3a 24 c0 5f 39 04 3f 4b dd 87 3f 30 48 83 40
       -2.566042 0.5165004 1.0614408 4.102562
0002f0 db 2f c2 bf d3 e5 7f be c0 38 ee bf a8 43 15 3f
       -1.5170854 -0.24990015 -1.8611069 0.5830636
000300 a1 6f 07 c0 a3 77 3a c0 81 61 a3 be dc eb e8 3e
       -2.1161883 -2.913552 -0.31910327 0.45492446
000310 f6 27 4a c0 6e e9 9e bd 67 d7 07 40 8e 4a 04 bf
       -3.158689 -0.07759367 2.122522 -0.5167626
000320 d7 a8 54 c0 5e 9b 99 c0 85 36 e8 bf d8 52 8c 40
       -3.3228052 -4.8002157 -1.8141638 4.385113
000330 40 18 7c 40 e2 54 8c c0 06 f5 3a c0 a6 63 b4 3f
       3.93898 -4.3853617 -2.921205 1.409291
000340 ae 3d 89 40 3f 0c 53 be 78 47 5a 3f f9 a9 7e 40
       4.2887793 -0.2061014 0.852653 3.9791243
000350 b2 43 65 40 27 99 65 c0 e3 f0 41 40 03 95 38 bf
       3.5822568 -3.5874727 3.0303276 -0.72102374
000360 50 2c a6 3f a7 f1 f6 bf 1e cf a1 3f 64 c6 fa bf
       1.2982273 -1.9292496 1.2641332 -1.9591794
000370 cd 14 32 bf ea 9a d1 3f f6 3a 1b c0 64 f0 72 be
       -0.6956299 1.6375401 -2.4254737 -0.23724514
000380 47 30 0d c0 03 66 8c bf 23 16 14 3e f4 2a eb c0
       -2.2060716 -1.0968632 0.1446157 -7.3489933
000390 6e c1 82 bf 88 79 2f c0 2f 74 87 3e e4 80 60 bf
       -1.021528 -2.7417927 0.2645583 -0.8769667
0003a0 8e 1d 2d bf aa 08 44 3f 02 d1 18 c0 8b 0f 1c c0
       -0.6762322 0.7657572 -2.3877568 -2.4384487
0003b0 e0 87 02 c0 0d b3 8c bf 53 9c 84 3e c2 58 e7 bf
       -2.0395432 -1.0992142 0.25900516 -1.8073962
0003c0 a7 4e 12 40 19 c3 f6 bf a8 d0 2d bd dc 98 53 bf
       2.2860506 -1.9278289 -0.04243532 -0.8265512
0003d0 ff b0 13 c0 68 e4 2b 40 a5 30 79 40 06 01 08 bf
       -2.307678 2.6858158 3.893594 -0.5312656
0003e0 a1 1d d7 bf ba 41 9c bf 21 be 30 c0 8f e8 0b c0
       -1.6805917 -1.2207558 -2.7616045 -2.1860693
0003f0 aa bc 02 c0 ac 49 22 c0 ed c2 3d bf ad 56 67 c0
       -2.0427651 -2.5357466 -0.7412556 -3.6146653

fc2.bias f4 [128]
000000 5a 98 1e 40 cc ab 1b 41 9b 9e 01 40 d5 7a 87 c0
       2.4780488 9.729443 2.0253055 -4.233744
000010 90 6e 3f bf 8f 5c 69 c0 25 5a 9c c0 2c f5 09 c0
       -0.7477808 -3.6462743 -4.886004 -2.155589
000020 42 8a ea 3f cb 6c 39 40 d8 f7 9a c0 2a be 0f c0
       1.8323443 2.8972652 -4.8427544 -2.2459817
000030 22 20 fb bf 9f d0 b3 bd 00 07 e8 bd 10 5f 5b c0
       -1.9619181 -0.08780026 -0.1132946 -3.4276772
000040 5c c9 16 40 c9 66 86 bd eb 81 09 40 ce 4c 91 c0
       2.35604 -0.065625735 2.1485546 -4.5406256
000050 fb cc a0 40 37 aa a7 bd e9 6b 0a c0 44 f2 58 40
       5.025022 -0.08186763 -2.1628363 3.3897867
000060 6b cf 15 40 c9 c4 13 40 85 b1 e9 3f 4f 7a 5e c0
       2.3407848 2.3088858 1.82573 -3.4762151
000070 fb e7 e5 bf 1d 70 8a bd fe c6 1f 40 bc 85 78 bc
       -1.796142 -0.06759665 2.4965205 -0.0151686035
000080 f3 27 46 40 58 3c 8a 40 00 d8 24 40 dd 92 1c 40
       3.0961883 4.319866 2.5756836 2.4464638
000090 6a 67 3d 40 52 07 0b c0 88 f4 c1 bd 73 b8 c2 3b
       2.959437 -2.1723218 -0.09470469 0.005942398
0000a0 a6 fa b8 3f 6b 63 09 40 53 b0 1d 40 14 10 85 c0
       1.4451492 2.146693 2.463887 -4.1582127
0000b0 bd 4d 56 3c a0 4c 44 c0 3d 24 c7 be c5 41 62 3d
       0.013080058 -3.0671768 -0.38894835 0.055238504
0000c0 8a 88 35 40 03 40 ef 3f 2a 6c 65 bf 89 80 cf bd
       2.8364587 1.869141 -0.8961817 -0.10131938
0000d0 03 42 8c c0 f7 45 18 40 5c 4e 98 c0 bc 22 4b bd
       -4.383058 2.3792703 -4.7595654 -0.049593672
0000e0 9d 18 1a c0 a0 ce 5a c0 aa 87 74 bc c3 69 15 40
       -2.4077523 -3.4188614 -0.014924923 2.3345802
0000f0 28 fb 83 40 27 8c 94 c0 a8 fd e9 3e 96 bd 84 c0
       4.1244087 -4.6421084 0.45701337 -4.148143
000100 fc 6f 10 40 d1 41 86 c0 2e 7b 72 c0 df 39 59 c0
       2.256835 -4.195534 -3.7887683 -3.3941572
000110 5a 05 08 40 6b b4 1f 40 d1 79 ca 40 41 d0 06 c0
       2.1253266 2.4953868 6.32737 -2.1064608
000120 5a f9 23 40 7f 86 25 40 23 f4 9f bd d4 3b 81 3d
       2.5620942 2.586334 -0.07810237 0.063102394
000130 b1 ab 06 40 7b 4e 99 c0 ad ea 45 c0 7e 50 9d c0
       2.1042292 -4.79083 -3.0924485 -4.9160757
000140 a5 2b 06 be 29 8e 13 bf 41 4d 88 c0 54 9d ae 3f
       -0.13102587 -0.57638794 -4.2594304 1.3641763
000150 ae 77 92 c0 b9 b4 bd bd 4e de 62 c0 7f 1d 26 40
       -4.5771093 -0.09262986 -3.5448184 2.5955503
000160 90 ce dc 3e 14 fb 27 40 49 27 5f 3d da 5a 32 40
       0.43126345 2.6246996 0.054480825 2.7867951
000170 46 40 a1 bf a1 e0 85 c0 52 81 1f 40 7d 92 71 c0
       -1.259774 -4.1836705 2.492268 -3.774566
000180 74 25 61 c0 1e 81 27 40 61 d3 8a c0 3a a7 05 bd
       -3.517911 2.6172557 -4.338303 -0.032630183
000190 63 30 1f c0 df 70 6d c0 7f e5 a9 40 c9 1c 2a 40
       -2.4873283 -3.710014 5.3092647 2.658007
0001a0 d7 68 76 3d dc 16 8a c0 24 55 a9 bc c0 cd 8d bd
       0.060158577 -4.3152905 -0.020670481 -0.06924009
0001b0 fa 29 90 c0 12 b0 a6 3e 19 21 8d c0 df 22 12 c0
       -4.505124 0.32556206 -4.4102902 -2.2833784
0001c0 85 32 24 bd 5a 12 cd bd 33 82 29 40 43 2a 4c 3c
       -0.04008724 -0.10013266 2.6485717 0.012461248
0001d0 1f fa 87 3d 22 af 55 bd f3 a0 74 c0 c0 f1 63 bd
       0.06639504 -0.052168973 -3.8223236 -0.055650473
0001e0 71 87 c9 3f 00 d9 16 40 3a 24 08 40 67 16 91 bc
       1.5744458 2.3569946 2.127211 -0.017710878
0001f0 da 0a 0e 40 4e 1c 19 c0 58 f9 30 40 57 8d 6a c0
       2.2194123 -2.3923526 2.7652187 -3.6648767

fc3.weight f4 [4, 128]
000000 d8 db c1 3f b9 30 ba 41 fd e2 be 3f 0a e6 d0 40
       1.5145216 23.27379 1.4913021 6.528081
000010 a8 15 e5 3f 12 43 25 40 e1 b6 d4 40 8c 01 04 40
       1.7897234 2.5822186 6.647324 2.0625944
000020 9a f7 b4 3f a5 fe b6 3f 4f 39 0e 41 15 0a 15 40
       1.4138062 1.4296461 8.888991 2.3287404
000030 4e a6 87 3f 64 b2 6e bd 0f e9 de bc 0b 9b f8 3f
       1.0597627 -0.058275595 -0.02721074 1.9422315
000040 e3 6f c5 3f d5 c0 d5 b9 49 17 cf 3f c7 37 a7 40
       1.542477 -0.00040770197 1.6178981 5.2255588
000050 65 a7 4b 40 43 3f 9f 3d f5 cc c9 3f e4 35 3a 40
       3.182092 0.07775738 1.5765673 2.9095392
000060 d3 83 bd 3f c1 e4 cb 3f b5 67 c1 3f 36 1e 11 41
       1.4805855 1.5929185 1.5109774 9.069876
000070 19 e7 d7 3f 4f da 0a bd 46 d4 bb 3f 8b b5 43 bd
       1.68674 -0.0338996 1.4674156 -0.047780555
000080 44 26 b9 3f e4 19 d4 40 18 10 cb 3f 40 60 d1 3f
       1.4464803 6.6281605 1.5864286 1.6357498
000090 36 c8 c2 3f 91 99 0b 40 8b 8a 87 3a b9 f0 b0 bc
       1.521735 2.181248 0.0010340972 -0.02159916
0000a0 81 3a cb 3f c2 55 b6 3f 1f 05 b4 3f e1 d1 12 41
       1.5877229 1.4244921 1.4064063 9.17624
0000b0 e4 81 c9 3d a9 3b ab 3f 0e 15 be 3f 94 66 ae bd
       0.09839228 1.3377582 1.4850175 -0.08515659
0000c0 b4 83 bf 3f 5a 22 c5 3f 19 99 99 40 f9 76 15 bd
       1.4962068 1.5401108 4.7999387 -0.036490414
0000d0 7b 11 04 41 db 1b cd 3f 3e 1c 08 41 90 a8 8f 3d
       8.254268 1.6024126 8.506895 0.070145726
0000e0 d8 15 85 40 65 94 df 40 48 e6 2e bd 25 7d c1 3f
       4.1589165 6.9868646 -0.042700082 1.5116316
0000f0 aa 3c 78 3f 05 32 2a 41 a5 10 6e be 1e 9d d6 40
       0.96967566 10.637212 -0.23248537 6.7066793
000100 db 12 ca 3f 0b f8 14 41 a2 d2 39 3e 93 53 b2 40
       1.5787004 9.310557 0.18146756 5.572702
000110 a3 11 c5 3f ac f0 c0 3f d6 7b 01 3f f1 b2 a0 3f
       1.5396007 1.5073447 0.50579584 1.2554609
000120 8c ee bf 3f 93 e7 b8 3f 94 20 89 3c 38 b8 17 3d
       1.4994674 1.4445671 0.016739167 0.03704092
000130 af 42 b1 3f ca 28 f3 40 46 9a a5 40 3b 50 19 41
       1.3848475 7.598729 5.175082 9.5820875
000140 60 db 64 3d be 7e a5 3f d5 2b 24 41 f3 b2 ce 3f
       0.055873275 1.2929304 10.260701 1.6148361
000150 60 f3 c5 40 9b 1a dd bc eb ba 15 40 c4 a9 ca 3f
       6.185959 -0.026990226 2.3395336 1.5833058
000160 73 53 b8 be 45 32 c0 3f 5d 53 9d bb c3 85 bf 3f
       -0.36001167 1.5015341 -0.0048011974 1.4962696
000170 ee 1a b0 3f 5d 1b 04 41 95 73 c5 3f b8 fb 20 41
       1.3758218 8.2566805 1.5425898 10.061455
000180 b9 f0 58 40 a5 7a ca 3f 7f a4 0f 41 0d 1b 0b bd
       3.3896925 1.5818678 8.97766 -0.033961345
000190 27 4a 26 40 96 b8 a2 40 e0 89 9a 3f 33 4f c5 3f
       2.598276 5.0850325 1.2073326 1.5414795
0001a0 26 a2 76 bd 73 b3 33 41 51 01 8c 3d 32 e6 de 3d
       -0.06021323 11.231311 0.068361886 0.1088375
0001b0 db 80 dc 40 8f aa af be b2 49 17 41 54 d5 0a 40
       6.8907294 -0.34309813 9.455492 2.1692705
0001c0 42 61 c3 3b 13 52 66 3d ec 16 c9 3f 35 84 11 bd
       0.005962522 0.056230616 1.571012 -0.035526473
0001d0 99 95 1b 3b 76 97 e4 3b d9 5b 98 40 1a 8c 29 bd
       0.002374029 0.0069760634 4.761212 -0.041393377
0001e0 c4 36 d1 3f 5c a9 cc 3f c0 b1 d2 3f fd cf 06 3b
       1.6344838 1.5989184 1.6460495 0.0020570748
0001f0 d8 e6 c4 3f c6 d2 0a 40 7a 2a b3 3f b0 64 21 40
       1.5382948 2.1691146 1.3997338 2.5217705
000200 39 ce c0 3f a3 9f b8 41 da 3d b2 3f c9 81 a1 40
       1.5062934 23.077948 1.3925126 5.047093
000210 c7 b1 1c 40 3e 7c 69 3f 6b 9c dc 40 fb 7a 84 3f
       2.4483507 0.91205204 6.894094 1.0350031
000220 0f 42 bf 3f 19 19 e0 3f 1c b2 07 41 4e 7c 03 40
       1.4942034 1.7507659 8.480984 2.054462
000230 61 70 ce bd b3 3a 21 bc a0 46 d3 bd 62 9c bf 3f
       -0.10080028 -0.009840655 -0.10316205 1.4969599
000240 71 b3 de 3f 99 7a 95 3d fe 5e a9 3f a5 0b af 40
       1.7398511 0.07298774 1.3232114 5.4701715
000250 9a b3 1e 40 3f 1b 85 3d 72 7c d2 3f 75 05 95 3f
       2.479712 0.064993374 1.6444228 1.164229
000260 61 c6 b0 3f 04 6f e4 3f 1f 5f ae 3f 3a 37 0b 41
       1.381054 1.7846379 1.3622779 8.700983
000270 c7 71 38 3f 40 9f 8f 3d 3f 56 e2 3f fa 42 7d bd
       0.7204861 0.070127964 1.768257 -0.061831452
000280 c5 5a da 3f a3 45 8f 40 d9 6f de 3f eb cb b1 3f
       1.7058951 4.4772506 1.7377883 1.3890356
000290 b1 59 d6 3f c3 fb 06 40 a1 fd 62 bd 92 a1 95 3c
       1.6746122 2.1091163 -0.05541766 0.01826552
0002a0 a4 7c be 3f 33 73 a1 3f f4 f5 96 3f ce 5a f6 40
       1.4881787 1.2613281 1.1793809 7.6985846
0002b0 e3 cf 7e bd 42 05 28 3e 08 27 fb 3f fa e8 7b 3d
       -0.062209975 0.16408256 1.9621286 0.06150148
0002c0 ec eb dc 3f 37 0c b1 3f e8 c8 8c 40 ff 54 45 3d
       1.7259498 1.3831853 4.3995247 0.04817676
0002d0 72 e2 3a 41 fd 01 e6 3f 86 f1 21 41 85 c7 44 bd
       11.6802845 1.7969357 10.121466 -0.04804184
0002e0 e6 81 77 40 67 48 4e bf f1 81 ba 3d 53 92 f5 3f
       3.8673034 -0.8057923 0.091068156 1.918528
0002f0 75 47 9b 3f 2f a0 09 41 46 d1 06 be e0 44 00 41
       1.2131182 8.601607 -0.13165769 8.016815
000300 b9 6d cb 3f 1c d7 d9 40 e7 69 5f 40 4b c6 f2 40
       1.589286 6.8075085 3.4908388 7.5867057
000310 ed e7 a8 3f eb e8 b1 3f 48 9c 0e 40 34 ab 56 3f
       1.3195778 1.3899206 2.2282887 0.83854985
000320 ac 6b c5 3f df 9b cd 3f 27 a7 a8 3d 6f 66 04 bd
       1.5423484 1.6063193 0.08235007 -0.03232425
000330 8e aa ba 3f 90 f5 0d 41 aa 8b 84 c0 7e 53 2a 41
       1.4583299 8.872452 -4.142049 10.645384
000340 14 10 39 3c 78 1d ac 3f a3 03 dd 40 3d c7 ab 3f
       0.011295337 1.3446493 6.906694 1.3420178
000350 66 41 03 41 6a 77 af bd fc a9 58 c0 7d 46 d0 3f
       8.203466 -0.08567698 -3.385375 1.6271511
000360 cf 3f 73 be d2 ad be 3f 0f 68 6c bd 7e d5 03 40
       -0.2375481 1.4896796 -0.057716426 2.0599055
000370 93 8f 0d 40 1a 10 db 40 aa 5d be 3f 36 b8 3c 41
       2.211888 6.8457155 1.4872334 11.794973
000380 ec 6c d1 3f 04 db d8 3f 33 a5 33 41 a2 d3 38 3c
       1.6361365 1.6941838 11.227832 0.011280926
000390 8c 1b fd 3e 54 13 f8 40 40 69 76 3f 5d 19 c5 3f
       0.4943508 7.7523594 0.9625435 1.5398365
0003a0 c6 89 68 ba f5 67 db 40 f4 2a d8 3c cc 2a 1e 3e
       -0.00088706275 6.85644 0.02638767 0.15446013
0003b0 97 d0 eb 40 8a cc ae be 6e ce 09 41 53 52 64 40
       7.3692126 -0.34140426 8.612898 3.5675247
0003c0 91 3c 23 3d 9e a3 27 bd cc dd be 3f 47 cf 07 bd
       0.039852683 -0.040927522 1.4911437 -0.03315666
0003d0 87 4c 42 bc 6e e5 32 bd c7 8b f2 40 36 ea 2a bd
       -0.011859066 -0.043675832 7.5795627 -0.041727267
0003e0 70 c1 de 3f b1 6a dd 3f 7b cb c5 3f 89 45 e2 3c
       1.7402782 1.7298185 1.5452722 0.027621048
0003f0 a7 27 d6 3f 51 5e 15 40 b6 8a b5 3f c6 ad 00 40
       1.6730851 2.3338816 1.4182956 2.0106063

fc3.bias f4 [4]
000000 d0 35 5c 3f fc eb f3 3f 4d a1 cd 40 7e 2a 95 3f
       0.8601961 1.9056392 6.42594 1.1653593
