ai/models/dqn/trained_models/dqn_2048_700.pth (torch, 78975 bytes, 6 tensors)

fc1.weight f4 [128, 16]
0	0xbe40d969	-0.18832935
1	0x3ef14de7	0.47129747
2	0x3f63a35d	0.8892115
3	0xbda2649f	-0.07929348
4	0x3ef27b04	0.47359478
5	0xbe92cb0c	-0.28670537
6	0x3e10dc9c	0.14146656
7	0xbe073070	-0.13202071
8	0x3c8b5c24	0.01701171
9	0x3f1501ca	0.58205855
10	0x3f0f331e	0.55937374
11	0xbe35bc19	-0.17747535
12	0xbefbb770	-0.4916339
13	0x3e8c16db	0.27361187
14	0xbf2089d3	-0.62710303
15	0xbda5792d	-0.08079753
16	0xbf3f7f1a	-0.74803317
17	0x3f14f2e8	0.58183146
18	0x3da6705d	0.081269
19	0x3f13386a	0.57507956
20	0xbea78d68	-0.32725072
21	0xbd234c30	-0.03986758
22	0x3eadc90f	0.33942458
23	0xbd9b573a	-0.075849965
24	0xbefcbb74	-0.49361765
25	0xbf0a287b	-0.5396802
26	0x3f2755f2	0.6536552
27	0xbef72132	-0.48267514
28	0xbf50d1f0	-0.8157034
29	0x3f0b43fa	0.544006
30	0x3e1e876a	0.15481344
31	0x3e82a550	0.25516748
32	0x3ecc881d	0.39947596
33	0x3f0e4bbc	0.5558431
34	0xbf48881b	-0.7833268
35	0xbcda674e	-0.026660588
36	0xbe11e599	-0.14247741
37	0x3f4cde2b	0.800265
38	0xbe969ede	-0.2941808
39	0x3f24db29	0.6439691
40	0xbd7fc41f	-0.062442895
41	0xbd3c1d31	-0.045926277
42	0x3dcceb50	0.1000582
43	0x3cf5d55f	0.03000897
44	0x3e5a8eed	0.21343584
45	0xbd5b3560	-0.0535177
46	0xbee6c933	-0.45075378
47	0x3eec5e0b	0.461655
48	0x3ebdee32	0.3709579
49	0xbf7d4706	-0.989365
50	0x3e6b9444	0.23005778
51	0x3f8a1d36	1.0790164
52	0xbe8f2c74	-0.27963603
53	0x3efbe66c	0.49199235
54	0xbeef2462	-0.46707445
55	0xbea161d7	-0.31519958
56	0x3f0b168f	0.54331297
57	0xbe5bb3e9	-0.21455349
58	0x3e55e2e6	0.20887336
59	0x3e811a9e	0.2521562
60	0xbe68b5fa	-0.22725669
61	0xbe97f533	-0.2967926
62	0x3ec1fdb2	0.37888867
63	0xbde3f756	-0.1113116
64	0x3dc23ac3	0.09483864
65	0xbd0520ae	-0.03250187
66	0x3d070f8f	0.032973822
67	0x3ee04c65	0.43808284
68	0x3dc70364	0.097174436
69	0x3e173a7b	0.14768402
70	0x3ee84899	0.45367888
71	0x3f08d0fe	0.53443897
72	0x3dc43476	0.09580319
73	0x38e017bd	0.00010685574
74	0x3e13c203	0.14429478
75	0x3d9b6992	0.07588495
76	0x3e49edb5	0.19719584
77	0x3e712f52	0.23553208
78	0x3ec17ba5	0.37789646
79	0x3d6ccce9	0.057812605
80	0x3f22426b	0.63382596
81	0x3edc505f	0.43030068
82	0x3d049a23	0.03237356
83	0x3dedc63b	0.11610075
84	0x3e449aea	0.1919972
85	0x3e7bb838	0.24581993
86	0xbd1716c2	-0.036886938
87	0x3de7df01	0.113218315
88	0x3ef2d6f9	0.47429636
89	0x3e527ef6	0.20556244
90	0x3eb5c1c8	0.35499406
91	0x3ee96721	0.45586494
92	0x3f3dea08	0.7418523
93	0x3dda7cd0	0.10668337
94	0xbdf0f4b0	-0.117654204
95	0x3e8664ca	0.2624877
96	0xbe399647	-0.18123733
97	0x3f398c84	0.72480035
98	0xbf4be65f	-0.79648393
99	0x3e7fe01f	0.24987839
100	0x3ea331c1	0.31873897
101	0x3ec767bf	0.3894634
102	0x3db704f1	0.089364894
103	0x3e61f572	0.22066286
104	0x3e124f03	0.14287953
105	0x3e3b63c9	0.18299784
106	0x3e6fce62	0.23418573
107	0xbed43910	-0.41449785
108	0xbe7562c4	-0.23963457
109	0xbe3c3a93	-0.1838172
110	0xbc435078	-0.011921041
111	0xbdbdba58	-0.09264058
112	0x3f045991	0.5169917
113	0x3f4a3224	0.7898276
114	0xbc9aaad4	-0.018880285
115	0xbf5783e1	-0.84185606
116	0xbc2ffae0	-0.010740966
117	0x3f48a7eb	0.7838122
118	0x3e0b9f10	0.13634896
119	0x3f11cd8d	0.5695427
120	0xbeae4834	-0.34039462
121	0xbeaae01d	-0.3337411
122	0xbe41e3f2	-0.1893461
123	0xbe8f5a97	-0.27998802
124	0xbe2489a1	-0.16068126
125	0xbe07d378	-0.13264263
126	0xbc17b4e5	-0.009259437
127	0xbdc25be9	-0.09490187
128	0x3d18f382	0.037341602
129	0x3eb07509	0.3446429
130	0x3e11bbe9	0.14231838
131	0x3ee12f1f	0.43981263
132	0x3f0afaa6	0.5428871
133	0xbd861a07	-0.06547933
134	0x3e8448e6	0.25836867
135	0xbe143b23	-0.14475684
136	0x3cf28024	0.029602118
137	0xbe954765	-0.29156032
138	0x3db7aea3	0.08968856
139	0x3f47fb12	0.7811748
140	0x3ebee2d8	0.37282443
141	0x3d55ff50	0.052245438
142	0xbec6b2cc	-0.38808286
143	0xbed9ef3d	-0.42565337
144	0x3e63be1e	0.22240493
145	0x3da5a829	0.08088715
146	0x3e173d93	0.14769582
147	0x3e84e7c0	0.2595806
148	0x3eac09e4	0.33601296
149	0x3e74afb3	0.23895149
150	0xbf446e85	-0.7673114
151	0xbd7f221e	-0.062288396
152	0x3f1ec930	0.6202574
153	0x3d8adcbc	0.06780383
154	0xbea8160f	-0.3282933
155	0xbd9bbbf6	-0.0760421
156	0x3f8b4c1b	1.08826
157	0x3eaf9235	0.34291235
158	0x3f548dff	0.8302917
159	0x3d37b484	0.044849887
160	0x3e94e962	0.29084307
161	0x3e1d1fc8	0.15344155
162	0xbe470738	-0.19436347
163	0x3e8e0404	0.2773744
164	0xbd8bc636	-0.06824915
165	0x3ea9a073	0.33130226
166	0x3ed94371	0.42434266
167	0x3e854cba	0.260351
168	0xbdd7b64d	-0.10532818
169	0x3e3449e6	0.17606315
170	0x3ecee31c	0.40407646
171	0xbe328368	-0.1743294
172	0x3eaffce9	0.34372643
173	0x3f101b97	0.562921
174	0x3e4b44d5	0.19850476
175	0xbb9f09af	-0.0048534493
176	0x3ef1f67e	0.4725837
177	0x3f1f09a4	0.62124085
178	0x3e81d620	0.25358677
179	0xbcf92144	-0.03041137
180	0x3d394719	0.04523382
181	0x3ed08aba	0.4073084
182	0x3db337a1	0.08750845
183	0x3e7d3fe1	0.24731399
184	0x3e360503	0.1777535
185	0x3dfee7cf	0.12446558
186	0x3f488820	0.7833271
187	0x3e9839bc	0.29731548
188	0x3ec962c1	0.39333156
189	0x3ef7a264	0.48366082
190	0xbf604f7b	-0.8762128
191	0x3cd86360	0.026414573
192	0x3dfec56f	0.12440001
193	0x3eef3216	0.467179
194	0x3eec535a	0.46157342
195	0x3e08bd19	0.13353385
196	0x3d24f480	0.040272236
197	0xbe22f27a	-0.1591281
198	0x3e368b3e	0.17826554
199	0xbdf29232	-0.11844291
200	0xbd84bd10	-0.06481373
201	0x3e91e1f4	0.284927
202	0xbe5b712c	-0.2142989
203	0xbecf5cfa	-0.40500623
204	0xbed5c738	-0.41753554
205	0x3e2d00af	0.16894792
206	0x3ea085ba	0.31352025
207	0xbf1b961e	-0.60775936
208	0x3d8b7268	0.06808931
209	0x3f33ad47	0.70186275
210	0xbef27305	-0.47353378
211	0xbd76d326	-0.06025996
212	0xbed4a492	-0.41531807
213	0x3f2ff658	0.68735266
214	0x3eb23de7	0.34812853
215	0xbf4635f4	-0.77426076
216	0xbdbe8186	-0.093020484
217	0x3e8045cb	0.25053248
218	0x3e932385	0.28738037
219	0xbf1809d5	-0.5939
220	0xbed3e7ba	-0.4138773
221	0xbebf808a	-0.37402755
222	0xbe8ef6bc	-0.27922618
223	0x3e0d15db	0.13777868
224	0xbeb5cc88	-0.35507607
225	0xbf8f5d6f	-1.1200389
226	0xbeadc917	-0.33942482
227	0x3f2619d5	0.64883167
228	0x3dd050c3	0.10171654
229	0x3f82f0f5	1.0229784
230	0xbe14776d	-0.14498682
231	0x3c79b5fe	0.015241144
232	0xbe0dd175	-0.13849433
233	0x3ec444e0	0.38333797
234	0xbe8c7635	-0.27433935
235	0x3eb88823	0.36041364
236	0x3e64e0cd	0.2235138
237	0xbeba02cf	-0.36330268
238	0xbe217355	-0.15766652
239	0xbdfade8a	-0.12249477
240	0x3f4b13f9	0.7932735
241	0x3f6426af	0.89121526
242	0x3f6a4420	0.915102
243	0x3f7bfc3d	0.9843176
244	0x3e3d2704	0.18471915
245	0xbde379b6	-0.11107199
246	0xbe6345fa	-0.22194663
247	0x3e206962	0.156652
248	0x3f2a2c38	0.6647372
249	0xbea6ff6c	-0.32616746
250	0x3f05a524	0.5220511
251	0x3f5070ef	0.81422323
252	0x3f81ec3f	1.0150222
253	0x3ff40aaf	1.906576
254	0x3f836cd9	1.0267593
255	0x3fa5b279	1.294509

fc1.bias f4 [128]
0	0xc02a6df8	-2.662962
1	0xbef88b6e	-0.48543876
2	0xc02f9d64	-2.7439814
3	0xc017c06d	-2.3711197
4	0x40c25b0a	6.073613
5	0xc0120ad7	-2.2819116
6	0xc011f90e	-2.280826
7	0xc04c3d23	-3.1912315
8	0xc020757f	-2.5071714
9	0xc02cedb7	-2.702009
10	0x40c2f4ad	6.0923676
11	0xbfe5d962	-1.7956965
12	0xc037087d	-2.859893
13	0xc01aea11	-2.4205363
14	0xc03d3af3	-2.956723
15	0x40f5fe0c	7.6872616
16	0xc00c5e85	-2.193269
17	0xbf5fd33f	-0.8743171
18	0xc02d2718	-2.705511
19	0xc0396b54	-2.8971758
20	0x40b0c14d	5.5235963
21	0xc036b73f	-2.8549345
22	0x3fc7de46	1.5614707
23	0xc00d16b7	-2.2045114
24	0xc025d6b8	-2.5912304
25	0xc053e508	-3.310854
26	0x40a8978e	5.2685003
27	0x40af1428	5.4712105
28	0xbfc0140e	-1.500612
29	0xbfcea52e	-1.6144159
30	0xc0347fca	-2.8202996
31	0xc022227b	-2.5333545
32	0xc0293bee	-2.6442828
33	0xc0016435	-2.0217412
34	0x40b02faa	5.5058184
35	0xc01f70e1	-2.4912646
36	0xc0107ee7	-2.2577455
37	0xc0083e85	-2.128816
38	0xbfbe56cc	-1.4870238
39	0xc006cd0f	-2.1062658
40	0xbfd6f4de	-1.6793478
41	0xc011dd2d	-2.2791245
42	0xbe4466ff	-0.19179915
43	0xc024ccb6	-2.5749946
44	0xc0074ae1	-2.1139452
45	0xc029ce73	-2.6532257
46	0xc00dfa5f	-2.2184064
47	0xbfef6587	-1.8702859
48	0xc02ff1f9	-2.7491438
49	0xc0366659	-2.8499968
50	0xc0207155	-2.5069172
51	0xc017b086	-2.3701491
52	0xbfadfd2d	-1.3592888
53	0xbfdc9303	-1.7232364
54	0xbfd6a7e2	-1.6769984
55	0xbfe858b7	-1.8152074
56	0xc05a0dd7	-3.4070947
57	0xbff05959	-1.8777267
58	0xc0135ae8	-2.3024235
59	0xbe94d42d	-0.29068127
60	0xc014af99	-2.3232176
61	0xbe889411	-0.26675466
62	0xc0348021	-2.8203204
63	0xbf82f808	-1.0231943
64	0xbfb47e8f	-1.4101123
65	0xc039c90b	-2.9028957
66	0xbfd7e453	-1.6866554
67	0xc0203904	-2.50348
68	0xc02ee36c	-2.7326307
69	0xc025d5ee	-2.5911822
70	0xc0308d38	-2.7586193
71	0xc029b3e2	-2.6516042
72	0xbfeedf5f	-1.8661917
73	0xc0318dd6	-2.774282
74	0xc0333d99	-2.8006346
75	0xc01c4456	-2.441671
76	0xc01fcf16	-2.4970145
77	0xc016e1a8	-2.357523
78	0xc023660d	-2.5531037
79	0xc0134971	-2.3013575
80	0xc0193299	-2.3937132
81	0xc03bfbb4	-2.9372377
82	0xc02036a2	-2.5033345
83	0xc02a5842	-2.6616368
84	0x40c12e05	6.0368676
85	0xc03940d7	-2.8945825
86	0xc00e178f	-2.220188
87	0xc00cf3a1	-2.20237
88	0xc02b6990	-2.678318
89	0xc0290c98	-2.6413937
90	0xc02a8182	-2.6641545
91	0xc03b4425	-2.9260342
92	0xc0008320	-2.0080032
93	0xbfbb932c	-1.4654288
94	0xc045ed97	-3.0926263
95	0x3f46679c	0.77501845
96	0xc022c447	-2.5432298
97	0xc0139a73	-2.3063018
98	0xbfeaa0ea	-1.8330357
99	0xbe4bdfff	-0.19909666
100	0xc01fe01c	-2.4980536
101	0xc032b744	-2.7924356
102	0xc00921a5	-2.1426785
103	0xc01fd49c	-2.4973516
104	0xc02d46ba	-2.7074418
105	0xc00e5cf3	-2.2244232
106	0xc024c5c2	-2.5745702
107	0xc01366a0	-2.3031387
108	0xc0367d26	-2.8513885
109	0x3f48d3eb	0.7844836
110	0xc01c2c0b	-2.4401882
111	0xc02bc58b	-2.683932
112	0xc0182c87	-2.3777177
113	0xbfd74635	-1.68183
114	0xc0375dc7	-2.8650987
115	0xc01524b9	-2.3303664
116	0x3f138468	0.5762391
117	0x408a2ae7	4.317737
118	0x40b1d1d4	5.556864
119	0xc00fd743	-2.2475135
120	0xbfe4a7dd	-1.7863728
121	0xbfb7e96f	-1.4368113
122	0xc01a2869	-2.4087164
123	0xbfcc96be	-1.5983503
124	0xbfd219b8	-1.6414099
125	0xc04021d3	-3.0020645
126	0xc0224ee5	-2.5360653
127	0xc0159a08	-2.3375263

fc2.weight f4 [128, 128]
0	0x3ff7bc6f	1.935438
1	0x3f2ba178	0.67043257
2	0x3fef9745	1.8718039
3	0x403edea5	2.9823391
4	0x3f46e5a8	0.7769418
5	0x3e61dd32	0.22057036
6	0x3f80fc00	1.0076904
7	0x40401850	3.001484
8	0x3f990616	1.1954982
9	0xbec156ac	-0.37761438
10	0x3f7607fc	0.96105933
11	0x3ec612d7	0.3868625
12	0x3fb740bc	1.431663
13	0x400e2468	2.220972
14	0x40533d5d	3.3006203
15	0x3fb38403	1.4024662
16	0x40484096	3.128942
17	0x3f55b557	0.8347983
18	0x4009db1f	2.153999
19	0x4031b7a0	2.7768326
20	0x3f5143e4	0.8174422
21	0x3d359ea6	0.044340752
22	0x3f28d974	0.6595681
23	0x3fa90dfd	1.3207394
24	0x3e572ee2	0.21013978
25	0x3d37384e	0.04473143
26	0x3efc2399	0.4924591
27	0x3f41cd62	0.75704014
28	0x405c6923	3.443917
29	0x401d55e9	2.4583685
30	0x3f067950	0.5252886
31	0x40308dca	2.758654
32	0x403829ea	2.8775582
33	0x3e8afe12	0.27146965
34	0xbed02a13	-0.406571
35	0x3e2c06b7	0.16799437
36	0x40457a71	3.0855982
37	0x3fd862f2	1.6905196
38	0x405d09c8	3.453722
39	0x3ebb04bf	0.36527058
40	0x3fa48fd0	1.2856388
41	0x4016c807	2.3559587
42	0x403333e8	2.800043
43	0x401ccd1d	2.4500191
44	0xbfbd1e1d	-1.4774815
45	0x3fe9e7bc	1.8273845
46	0x3fe94729	1.8224841
47	0x3efed984	0.49775326
48	0xbda91868	-0.08256608
49	0x3fc25708	1.518281
50	0x3fb1b6e4	1.3883939
51	0x401bed89	2.436373
52	0x400defb1	2.2177546
53	0x401542d8	2.3322048
54	0x4043e446	3.0608077
55	0x3eadf632	0.33976895
56	0x40250647	2.5785081
57	0x403da7e8	2.9633732
58	0x3ed484d3	0.41507587
59	0x40b489cc	5.641821
60	0x3ff34461	1.9005243
61	0x400c8f90	2.1962624
62	0x400fc18e	2.2461886
63	0x4074298c	3.8150358
64	0x4009dfd8	2.1542873
65	0x3dd2e824	0.102981836
66	0x3fe3a8db	1.7785906
67	0x4022f5eb	2.5462596
68	0x3f4abd64	0.7919524
69	0x3f8badb9	1.0912391
70	0x3c343f7b	0.011001463
71	0x401fecf9	2.4988387
72	0x3f9642f4	1.1739182
73	0x3fb38374	1.4024491
74	0x403ae3c9	2.920153
75	0x4082468d	4.071112
76	0x3fc5b7df	1.5446738
77	0x40117599	2.2728026
78	0x3fe1d1ba	1.7642128
79	0x3f0f24a3	0.5591528
80	0x40abbd48	5.3668556
81	0xbf4c3085	-0.79761535
82	0x4013e38c	2.3107634
83	0x40366485	2.8498852
84	0x3f4e42f5	0.8057092
85	0x3f83a4c5	1.0284659
86	0x4013bed9	2.3085234
87	0x3f90d359	1.1314498
88	0x400447e8	2.0668888
89	0x3ffc8e69	1.973096
90	0x4067dccb	3.6228511
91	0x3fc44816	1.5334499
92	0x3f5bf3ad	0.85918695
93	0x4071f778	3.7807293
94	0x40829efe	4.081908
95	0x406240b6	3.5351996
96	0x402d04cb	2.7034175
97	0x3e0cd62b	0.13753574
98	0x405d164d	3.4544861
99	0x401a936c	2.415248
100	0x403e9738	2.9779797
101	0x3fdffc2d	1.7498833
102	0x402303dc	2.5471106
103	0x3f07e67c	0.53086066
104	0x3f63dd33	0.890094
105	0x404d1300	3.2042847
106	0x404e053f	3.2190702
107	0x3e7a7e96	0.24462351
108	0x3fb0460d	1.3771378
109	0x3f377bc0	0.716732
110	0x400de033	2.216809
111	0x408bcc6d	4.3687043
112	0x4037f66e	2.8744159
113	0x3ed2bfd9	0.41161993
114	0x3fca4969	1.5803653
115	0x3f5d4aad	0.8644207
116	0x4083072d	4.094626
117	0x3efae92d	0.49006024
118	0x3f2fe907	0.68714947
119	0x3fb583b5	1.4180819
120	0x40644592	3.5667462
121	0x4030ccd5	2.762502
122	0x3e67a6f7	0.22622286
123	0x3e8d01db	0.27540478
124	0x3fce4f2d	1.6117913
125	0x4015b0ff	2.338928
126	0x3fb9c741	1.4513932
127	0x3e26689e	0.16250846
128	0xbe36ff83	-0.17870907
129	0x3ed5cdc1	0.4175854
130	0xc0380b35	-2.875684
131	0xbed9192d	-0.4240202
132	0x405cfa6d	3.4527848
133	0xbfdde3f8	-1.7335196
134	0xbf1eb39b	-0.61992806
135	0xc07f7ba2	-3.991921
136	0xbf9e3e1c	-1.2362704
137	0xc02fe49c	-2.7483282
138	0x405541c8	3.33214
139	0xbfcc9222	-1.5982096
140	0x3f7d1d3d	0.9887274
141	0xbf641a61	-0.8910275
142	0xc04306d8	-3.0472927
143	0x4010f361	2.2648547
144	0x3dd5b6bf	0.10435247
145	0xbedf2983	-0.43586358
146	0xbf4b873c	-0.79503226
147	0xc0aa1b35	-5.315821
148	0x4063fac6	3.562181
149	0xc011aebc	-2.27629
150	0x3b6e0b12	0.0036322516
151	0xbf866c2b	-1.050176
152	0xbf94183c	-1.1569896
153	0xc01b2b2d	-2.4245102
154	0x4050940a	3.2590356
155	0x4046875c	3.1020117
156	0x40208b1e	2.508491
157	0xbfea4a39	-1.8303901
158	0xc00f4fd0	-2.2392464
159	0xc013762c	-2.3040876
160	0x3e03ef26	0.12884197
161	0xbfb9a0fc	-1.4502254
162	0x40db7d48	6.859043
163	0xbfc709c7	-1.5549859
164	0xbfdf25ac	-1.7433372
165	0xbf6d0b21	-0.92595106
166	0xbc2e7217	-0.010647318
167	0xbfe82f65	-1.8139464
168	0xbffb4782	-1.9631197
169	0xbe641017	-0.22271763
170	0xbed1b1b8	-0.409559
171	0xbf87da45	-1.0613486
172	0xbfe1253d	-1.7589489
173	0x3cfa4867	0.030552102
174	0xbfcf84e9	-1.6212436
175	0xbf9d1bae	-1.2274072
176	0xbfc5ce8d	-1.5453659
177	0x3d6508f0	0.055916727
178	0xbfc41463	-1.5318722
179	0xbf972598	-1.1808348
180	0xbe4a8078	-0.1977557
181	0xbf2969fa	-0.6617733
182	0x3e325e3f	0.17418765
183	0xc00be69f	-2.185951
184	0xc034229d	-2.8146126
185	0xbf0f445b	-0.5596368
186	0xbf1a2068	-0.602057
187	0x4011f138	2.2803478
188	0xbfb7c016	-1.4355495
189	0xbe7712ac	-0.24128217
190	0xbfa2371e	-1.267307
191	0x3ff676cd	1.9255005
192	0xbe931ff8	-0.28735328
193	0xc003764f	-2.054096
194	0xbf2ae70a	-0.6675879
195	0xbe357438	-0.17720115
196	0xc03fae15	-2.9950001
197	0xbf65b28b	-0.8972556
198	0xbf81e6ab	-1.0148519
199	0xc00074c5	-2.007127
200	0xc0573b89	-3.3630087
201	0xc0a8afd1	-5.271462
202	0xbf53893e	-0.8263129
203	0x3fe084a9	1.7540485
204	0xbd6933f5	-0.056934316
205	0xc05ee7c9	-3.482897
206	0xc030e240	-2.7638092
207	0xbf76e52c	-0.9644344
208	0x4076461b	3.848029
209	0xbff2447a	-1.8927147
210	0xbe0e4c88	-0.13896382
211	0xbfa02e61	-1.2514154
212	0x4055e45a	3.3420625
213	0xc04c14f9	-3.18878
214	0xbf488786	-0.7833179
215	0xbf191d79	-0.59810597
216	0xbedac1ba	-0.42725927
217	0xc01fd390	-2.4972878
218	0xbf92e7b2	-1.1476958
219	0xbfbf5456	-1.4947612
220	0xbe11aabe	-0.14225289
221	0x403ae9bd	2.9205163
222	0xc082fcc6	-4.093356
223	0x3e36025f	0.17774342
224	0xbef8442c	-0.4848951
225	0xbfe3faeb	-1.7810949
226	0x3fe4a007	1.7861336
227	0xc08746ab	-4.2273765
228	0xc02528e9	-2.580622
229	0xc05ede0a	-3.4823022
230	0x3e9559e3	0.2917014
231	0xbf816e47	-1.0111779
232	0xbffe8a63	-1.9885982
233	0x3fcec437	1.615363
234	0xc02bbdbd	-2.6834557
235	0xbfe310f4	-1.7739549
236	0xc05381c6	-3.3047957
237	0xbe136129	-0.14392532
238	0xc01c6d9f	-2.4441907
239	0xbec10146	-0.37696284
240	0x3f909266	1.1294677
241	0xbfaa84a3	-1.3321728
242	0xbf6f62bc	-0.9351003
243	0xbf336af2	-0.7008506
244	0xbfbde6e6	-1.483609
245	0x401f979b	2.4936283
246	0x406779c1	3.6168063
247	0xbf16b6fe	-0.58872974
248	0x3e1a94f6	0.15095887
249	0xbfdf0eed	-1.742643
250	0xbfd12f2e	-1.6342523
251	0xbf8bd007	-1.092286
252	0xc016ca98	-2.3561153
253	0xc051bab8	-3.2770214
254	0xbf75129f	-0.9573154
255	0xbfa214cd	-1.2662598

fc2.bias f4 [128]
0	0x3fff477f	1.9943694
1	0x410b39bd	8.701596
2	0x3fc34be1	1.5257531
3	0xc0788cad	-3.8835862
4	0xbf20053b	-0.6250798
5	0xc039c284	-2.9024973
6	0xc0868012	-4.2031336
7	0xbff8297d	-1.9387661
8	0x3fb0133a	1.3755867
9	0x401ab7b5	2.4174626
10	0xc0885600	-4.260498
11	0xbfdf8a7e	-1.746414
12	0xbffb95b8	-1.9655066
13	0xbdb3d09f	-0.08780026
14	0xbde80700	-0.1132946
15	0xc04cd4bd	-3.2004845
16	0x3ffa5cdb	1.9559587
17	0xbd8666c9	-0.065625735
18	0x3fd307d3	1.6486763
19	0xc07753ca	-3.864489
20	0x4080fcd7	4.0308642
21	0xbda7aa37	-0.08186763
22	0xc006739f	-2.100807
23	0x4035762e	2.835338
24	0x3fe4e5e0	1.7882652
25	0x3ff643d8	1.9239454
26	0x3fafe47f	1.3741606
27	0xc05f7405	-3.4914563
28	0xbfd7be1d	-1.6854893
29	0xbd8a701d	-0.06759665
30	0x40058a33	2.08656
31	0xbc7885bc	-0.0151686035
32	0x4025aaa5	2.5885403
33	0x40664a55	3.5982869
34	0x400a89ae	2.1646533
35	0x3ff8bfc9	1.9433528
36	0x401d45a4	2.4573755
37	0xbff947cb	-1.9475034
38	0xbdc1f488	-0.09470469
39	0x3bc2b873	0.005942398
40	0x3f8c2aaa	1.095052
41	0x3fcd4d82	1.6039279
42	0x3ff24b58	1.8929243
43	0xc082c178	-4.086117
44	0x3c564dbd	0.013080058
45	0xbffbc570	-1.9669628
46	0xbe44fe34	-0.19237596
47	0x3d6241c5	0.055238504
48	0x40183ec2	2.3788304
49	0x3fb5d15f	1.420452
50	0xbd195201	-0.03743172
51	0xbdcf8089	-0.10131938
52	0xc082327b	-4.068662
53	0x3ffd3df0	1.9784527
54	0xc07ee052	-3.9824414
55	0xbd4b22bc	-0.049593672
56	0xc00695ff	-2.102905
57	0xc03cacb0	-2.94804
58	0xbc7487aa	-0.014924923
59	0x3ff73755	1.9313761
60	0x4054ee06	3.3270278
61	0xc0869d65	-4.206713
62	0x3ee9fda8	0.45701337
63	0xc0816a7c	-4.0442486
64	0x3fe8f7f3	1.8200668
65	0xc05749fc	-3.3638906
66	0xc051320d	-3.2686799
67	0xc059ace3	-3.4011772
68	0x3fd1af9e	1.6381719
69	0x3ffcb5b9	1.9742957
70	0x40ad0a6c	5.407522
71	0xc02df182	-2.7178655
72	0x40042172	2.0645413
73	0x40049c73	2.072049
74	0xbd9ff423	-0.07810237
75	0x3d813bd4	0.063102394
76	0x3fcd31a8	1.6030779
77	0xc0826719	-4.075085
78	0xc033bfaa	-2.8085732
79	0xc083f1ee	-4.1232824
80	0xbe062ba5	-0.13102587
81	0xbf045a68	-0.5170045
82	0xc06564fa	-3.5842881
83	0x3f81cd0b	1.0140699
84	0xc0770d2e	-3.8601794
85	0xbd794cc4	-0.060864225
86	0xc025f88a	-2.5932946
87	0x40096795	2.1469471
88	0x3edcce90	0.43126345
89	0x4006f004	2.1083994
90	0x3d5f2749	0.054480825
91	0x40070d79	2.1101973
92	0xbf81d5f3	-1.0143417
93	0xc06f726d	-3.741359
94	0x4001150f	2.0169103
95	0xc0761de2	-3.845574
96	0xc05199fd	-3.2750237
97	0x4009664a	2.1468682
98	0xc08398f0	-4.112419
99	0xbd05a73a	-0.032630183
100	0xc01bab0f	-2.4323156
101	0xc04685b2	-3.10191
102	0x40920cf4	4.564081
103	0x4009ad84	2.1512156
104	0x3d7668d7	0.060158577
105	0xc07b33b9	-3.925032
106	0xbca95524	-0.020670481
107	0xbd8dcdc0	-0.06924009
108	0xc07d712c	-3.9600325
109	0x3ea6b012	0.32556206
110	0xc08335e2	-4.1003275
111	0xc0034eae	-2.0516772
112	0xbd243285	-0.04008724
113	0xbdcd125a	-0.10013266
114	0x40096686	2.1468825
115	0x3c4c2a43	0.012461248
116	0x3d87fa1f	0.06639504
117	0xbd55af22	-0.052168973
118	0xc0613ec5	-3.5194561
119	0xbd63f1c0	-0.055650473
120	0x3fa3346f	1.2750376
121	0x3ff9cca5	1.9515578
122	0x3fd9a07f	1.7002105
123	0x3c224551	0.009904222
124	0x3fe5ac57	1.7943219
125	0xc021493c	-2.5200949
126	0x400dbf18	2.2147884
127	0xc06475cf	-3.5696905

fc3.weight f4 [4, 128]
0	0x3fba2344	1.4542012
1	0x41968757	18.816084
2	0x3fbb0323	1.4610332
3	0x409ff15f	4.9982142
4	0x3fd9a4ac	1.7003379
5	0x40260667	2.5941408
6	0x40bde827	5.934589
7	0x3fd8aeba	1.6928322
8	0x3fb28871	1.3947889
9	0x3fae1a26	1.360173
10	0x40e806ff	7.250854
11	0x3fd6bd92	1.6776602
12	0x3f9ed338	1.2408209
13	0xbd6eb264	-0.058275595
14	0xbcdee90f	-0.02721074
15	0x400aecdf	2.1707075
16	0x3fbba6a6	1.4660232
17	0xb9d5c0d5	-0.00040770197
18	0x3fc55df6	1.54193
19	0x40975d37	4.730129
20	0x40558495	3.3362172
21	0x3d9f3f43	0.07775738
22	0x3fb40ce3	1.4066433
23	0x402bb706	2.6830459
24	0x3fb9b6e2	1.4508936
25	0x3fbff1a0	1.4995613
26	0x3fbbb8be	1.4665754
27	0x408f9523	4.486955
28	0x3fb77544	1.4332662
29	0xbd0ada4f	-0.0338996
30	0x3fb3cffb	1.4047846
31	0xbd43b58b	-0.047780555
32	0x3fb00d0a	1.3753979
33	0x40cf56fd	6.4793687
34	0x3fbe9c37	1.4891423
35	0x3fc81003	1.5629886
36	0x3fb975b2	1.4489043
37	0x3fe59987	1.7937478
38	0x3a878a8b	0.0010340972
39	0xbcb0f0b9	-0.02159916
40	0x3fc3d0c3	1.5298084
41	0x3fb51fc3	1.4150318
42	0x3fb3c201	1.404358
43	0x40bebdff	5.960693
44	0x3dc981e4	0.09839228
45	0x3fe7eca5	1.8119093
46	0x3fc04cc0	1.5023422
47	0xbdae6694	-0.08515659
48	0x3fb5d524	1.420567
49	0x3fbf1a44	1.4929891
50	0x3da05810	0.078292966
51	0xbd1576f9	-0.036490414
52	0x40d9ffd6	6.81248
53	0x3fc0af68	1.505353
54	0x40c2df3f	6.0897517
55	0x3d8fa890	0.070145726
56	0x3ff8cdee	1.9437845
57	0x40524cf1	3.2859461
58	0xbd2ee648	-0.042700082
59	0x3fb78658	1.4337873
60	0x3f8a158c	1.0787826
61	0x40da7c6b	6.8276877
62	0xbe6e10a5	-0.23248537
63	0x40baf0bd	5.841887
64	0x3fbfc25f	1.4981192
65	0x40764114	3.847722
66	0x40289ad5	2.6344502
67	0x40738e93	3.805577
68	0x3fbf03af	1.4922999
69	0x3fbb9e47	1.4657677
70	0x3f2afa46	0.66788137
71	0x3fe667da	1.8000443
72	0x3fb8f5b1	1.4449979
73	0x3fb406fd	1.4064633
74	0x3c892094	0.016739167
75	0x3d17b838	0.03704092
76	0x3fb09aac	1.3797202
77	0x40c43390	6.1312943
78	0x403df318	2.9679623
79	0x40ea2ed8	7.318218
80	0x3d64db60	0.055873275
81	0x3fb83c4b	1.43934
82	0x40930e49	4.595494
83	0x3fc47858	1.5349226
84	0x40b9deaa	5.8084307
85	0x3b9c7c16	0.0047755344
86	0x4014b0bf	2.3232877
87	0x3fbf79c6	1.4959037
88	0xbeb85373	-0.36001167
89	0x3fbb3ec2	1.4628527
90	0xbb9d535d	-0.0048011974
91	0x3fc8e4ec	1.5694861
92	0x3fbcea85	1.475907
93	0x40bb611d	5.8556046
94	0x3fbc9933	1.4734253
95	0x40cac6bd	6.33676
96	0x400f8260	2.2423325
97	0x3fc0588a	1.502702
98	0x40e9026a	7.2815447
99	0xbd0b1b0d	-0.033961345
100	0x3ffaa5f4	1.9581895
101	0x40564852	3.348164
102	0x3f9d446c	1.2286506
103	0x3fbcdce5	1.4754912
104	0xbd76a226	-0.06021323
105	0x40c44507	6.133426
106	0x3d8c0151	0.068361886
107	0x3ddee632	0.1088375
108	0x40cdff6f	6.437431
109	0xbeafaa8f	-0.34309813
110	0x40d2a000	6.5820312
111	0x3fed00d9	1.8515884
112	0x3bc36142	0.005962522
113	0x3d665213	0.056230616
114	0x3fbef73a	1.4919198
115	0xbd118435	-0.035526473
116	0x3b1b9599	0.002374029
117	0x3be49776	0.0069760634
118	0x40815900	4.0421143
119	0xbd298c1a	-0.041393377
120	0x3fc5e772	1.5461257
121	0x3fc0d0da	1.5063736
122	0x3fc6da9d	1.5535465
123	0x3d0a89e1	0.033822898
124	0x3fbbce9e	1.467243
125	0x3fed8ba3	1.8558239
126	0x3fb06a78	1.3782492
127	0x4039bbee	2.9020953
128	0x3fb37053	1.4018654
129	0x41814030	16.156342
130	0x3fac794a	1.3474514
131	0x40a4bb07	5.1478305
132	0x3fcdc698	1.6076231
133	0x3ff410f9	1.906768
134	0x40c4b308	6.1468544
135	0x3f90635f	1.1280326
136	0x3faf953c	1.3717418
137	0x3fcfcd62	1.6234553
138	0x40f25f1d	7.5741105
139	0x3fa6298c	1.2981429
140	0x3f8a8c22	1.0824015
141	0xbc213ab3	-0.009840655
142	0xbdd346a0	-0.10316205
143	0x4039214f	2.892658
144	0x3fc5c5fd	1.5451046
145	0x3d957a99	0.07298774
146	0x3fa3c2ba	1.2793801
147	0x409df0ae	4.93563
148	0x4050c05e	3.2617412
149	0x3d851b3f	0.064993374
150	0x3fd894e8	1.6920443
151	0x3fa5e3b7	1.2960118
152	0x3fb0599d	1.3777348
153	0x3fc8e6e1	1.5695459
154	0x3fa1f9cc	1.2654357
155	0x409c3d97	4.8825183
156	0x3fb7c89d	1.4358097
157	0x3d8f9f40	0.070127964
158	0x3fcb39e3	1.5877041
159	0xbd7d42fa	-0.061831452
160	0x3fcc9b63	1.598492
161	0x40a088ca	5.016698
162	0x3fc5acd8	1.5443373
163	0x3faa1a1b	1.3289217
164	0x3fc8327a	1.5640404
165	0x3fb40183	1.4062961
166	0xbd62fda1	-0.05541766
167	0x3c95a192	0.01826552
168	0x3fa09b2c	1.2547355
169	0x3fa0764f	1.2536105
170	0x3f9bf85a	1.2185166
171	0x40c39c40	6.1128235
172	0xbd7ecfe3	-0.062209975
173	0x3f8894ba	1.0670388
174	0x3fc006d8	1.5002089
175	0x3d7be8fa	0.06150148
176	0x3fca0b76	1.5784748
177	0x3fa2c3cc	1.2716002
178	0xbf953583	-1.1656955
179	0x3d4554ff	0.04817676
180	0x410df9f3	8.873523
181	0x3fccdf15	1.6005579
182	0x40c4df94	6.1522923
183	0xbd44c785	-0.04804184
184	0x3ffe204a	1.9853604
185	0x3ed91afd	0.42403403
186	0x3dba81f1	0.091068156
187	0x3fd93170	1.6968212
188	0x3faf380d	1.368898
189	0x40c637af	6.1942973
190	0xbe06d146	-0.13165769
191	0x40cbb4c0	6.365814
192	0x3fb8a01e	1.4423864
193	0x40ac4da3	5.384477
194	0x405efd6e	3.4842181
195	0x408ace75	4.3377023
196	0x3fa22190	1.2666492
197	0x3fad4ad9	1.3538467
198	0x40195aff	2.396179
199	0x3f3fb298	0.7488189
200	0x3fba4b9e	1.4554327
201	0x3fc2cdfe	1.5219114
202	0x3da8a727	0.08235007
203	0xbd04666f	-0.03232425
204	0x3fb29628	1.3952074
205	0x40db840c	6.859869
206	0x3f1c6e44	0.6110575
207	0x40eff021	7.4980626
208	0x3c391014	0.011295337
209	0x3fa6a133	1.3017944
210	0x408b08ca	4.344823
211	0x3f8fc7bb	1.1232828
212	0x409c5e48	4.886509
213	0xbdaf776a	-0.08567698
214	0x3f1fad6f	0.62374014
215	0x3fbe6f3e	1.4877698
216	0xbe733fcf	-0.2375481
217	0x3fb597e6	1.4186981
218	0xbd6c680f	-0.057716426
219	0x4004d0a5	2.0752347
220	0x3fb0cc31	1.3812314
221	0x40ca7b8a	6.3275805
222	0x3fb1ac48	1.3880701
223	0x40bc8e14	5.8923435
224	0x40379850	2.8686714
225	0x3fc8320e	1.5640275
226	0x40cb5f85	6.35541
227	0x3c38d3a2	0.011280926
228	0x3fb50a50	1.4143772
229	0x40804e23	4.009538
230	0x3fa943da	1.3223832
231	0x3fb9f3a1	1.4527475
232	0xba6889c6	-0.00088706275
233	0x40b54e3b	5.6657996
234	0x3cd82af4	0.02638767
235	0x3e1e2acc	0.15446013
236	0x40dba946	6.8644133
237	0xbeaecc8a	-0.34140426
238	0x40dc7d57	6.8903003
239	0x3fd5ebc8	1.671258
240	0x3d233c91	0.039852683
241	0xbd27a39e	-0.040927522
242	0x3fb33fa9	1.4003803
243	0xbd07cf47	-0.03315666
244	0xbc424c87	-0.011859066
245	0xbd32e56e	-0.043675832
246	0x4096c1d4	4.7111607
247	0xbd2aea36	-0.041727267
248	0x3fb86323	1.4405254
249	0x3fc517f0	1.539793
250	0x3fb22f62	1.392071
251	0x3ce24589	0.027621048
252	0x3fbf0945	1.4924704
253	0x3fb824ed	1.4386269
254	0x3fb131b9	1.3843299
255	0x4039f4fb	2.9055774

fc3.bias f4 [4]
0	0x3f12b7ae	0.5731152
1	0x3fee5b6d	1.8621651
2	0x40a88bd8	5.267071
3	0x3f4a9b2f	0.7914304
