ai/models/dqn/trained_models/dqn_2048_300.pth (torch, 78975 bytes, 6 tensors)

fc1.weight f4 [128, 16]
-0.64504987 0.46174532 0.674218 0.08454817 0.3725408 -0.19443634 0.07777876 -0.18614036
-0.036005996 0.42486814 0.22797602 -0.14423198 -0.42798615 0.03591584 -0.5509079 0.16465786
-0.17462227 0.32728985 -0.04924959 0.42277193 -0.2034569 0.30428895 -0.098760694 0.11889367
-0.019921599 -0.27788654 0.38885453 0.1511168 0.14017527 0.64209473 0.5834061 0.46129948
0.0043948204 0.2131098 -0.46016017 -0.0063267634 0.06408049 0.64314216 -0.5407978 0.0142814545
0.0862662 0.2914627 0.50626135 -0.12623988 -0.24902533 0.24596393 -0.0011441328 -0.048223294
0.48007745 -0.32818332 0.13733606 0.3133146 -0.36720484 0.31367218 -0.111921534 -0.6201767
0.3579759 -0.14598927 0.256304 0.32555163 0.09812441 0.031113632 0.40362158 -0.15162756
0.28270555 0.026277246 0.036114935 0.44335815 0.16296065 0.09755753 0.21142232 0.5556039
0.13393013 0.011405762 0.046477754 0.12237539 0.42280993 -0.0046502533 0.40160698 0.10638498
0.24441159 0.24824104 0.15432803 0.12449285 0.20952573 0.15936106 0.1288313 0.14496222
0.34728935 0.23545006 0.22352941 0.42183858 0.4515699 0.12929863 0.3287077 0.19801433
-0.10727508 0.3991751 -0.5736028 0.3366588 0.28013203 0.15338242 0.310851 0.028119957
-0.08693423 0.11754783 0.09541713 -0.3605288 -0.09713354 -0.01714593 0.29999572 -0.03668356
0.52241385 0.5764804 -0.038936794 -0.82938296 0.11599811 0.7920759 0.056890763 0.65494627
-0.2284658 -0.4547971 -0.19798574 -0.24627565 -0.0071891216 0.08990508 -0.048110828 0.025692532
-0.019505527 0.027288787 0.26909867 0.35540545 0.3322873 0.05616832 0.15165924 -0.38956252
-0.021621091 -0.38279876 0.14390746 0.34786078 0.26031226 0.33005875 -0.32610884 -0.14330377
0.09943019 0.0952388 0.2147392 0.24546076 0.0840547 0.04479007 -0.1597466 0.00924348
0.23639934 0.092890166 0.12054059 -0.06555689 0.35328177 0.63320816 0.08056463 -0.17179836
0.4878628 0.21428467 -0.19682597 0.29879668 0.02830506 0.29584864 0.15898076 0.29587153
-0.042556223 0.196195 0.28832537 -0.12200569 0.5751589 0.29824594 0.24908572 0.04460584
0.12618183 0.34175298 0.29907987 0.22036052 0.29727265 0.28968218 0.28832713 0.28434852
0.34844983 0.16496202 0.5201617 0.28224725 0.42083013 0.46393397 0.05636924 0.09777943
0.10844031 0.29005355 0.33215946 0.030967953 -0.0099851815 0.012291734 0.303833 0.053194433
0.21752836 0.20205593 0.022128155 -0.1391901 -0.45447853 0.30487862 0.45384714 -0.2705258
-0.11048646 0.339192 -0.03094734 0.2628333 0.00045369583 0.6367756 0.48074585 -0.62887067
0.10604098 0.2119722 0.30143473 -0.56993955 -0.12800848 -0.12701644 -0.4836422 0.1681644
-0.24041775 -0.42593986 -0.23698488 0.08284767 0.15421811 0.68289524 -0.037799597 0.23828714
-0.5606732 0.49247503 -0.29621205 0.60558945 -0.08900311 -0.20319878 -0.13390134 -0.22130659
0.75889874 0.7123134 0.7943803 0.664437 0.3915029 -0.09390771 -0.5339478 0.2674485
0.67297405 -0.16996153 0.36236778 0.83237165 0.8777089 1.4823166 1.0439152 1.3006932
00000000: fd21 25bf e269 ec3e 8d99 2c3f 9727 ad3d
00000010: abbd be3e 521a 47be 784a 9f3d 949b 3ebe
00000020: 067b 13bd 5188 d93e 8c72 693e 8cb1 13be
00000030: 0021 dbbe 7d1c 133d 4d08 0dbf 129c 283e
00000040: 2ed0 32be 8992 a73e f0b9 49bd 9075 d83e
00000050: 0157 50be c3cb 9b3e 0c43 cabd 867e f33d
00000060: 9f32 a3bc 2547 8ebe f117 c73e 5dbe 1a3e
00000070: 1b8a 0f3e 5260 243f 1a5a 153f 722f ec3e
00000080: 6d02 903b 7539 5a3e 1d9a ebbe bd50 cfbb
00000090: a23c 833d f7a4 243f ba71 0abf c3fc 693c
000000a0: 55ac b03d 993a 953e 589a 013f 0745 01be
000000b0: 7f00 7fbe f8dd 7b3e baf6 95ba ca85 45bd
000000c0: b6cc f53e a507 a8be d3a1 0c3e c56a a03e
000000d0: 4602 bcbe a499 a03e 1e37 e5bd e6c3 1ebf
000000e0: 9e48 b73e 367e 15be 473a 833e b4ae a63e
000000f0: 73f5 c83d 04e2 fe3c 7da7 ce3e 4144 1bbe
00000100: c8be 903e 6143 d73c 41ed 133d d7ff e23e
00000110: 28df 263e 3ecc c73d 187f 583e 0f3c 0e3f
00000120: fb24 093e 3cdf 3a3c 755f 3e3d f39f fa3d
00000130: 8b7a d83e 2761 98bb 6e9f cd3e 5ee0 d93d
00000140: 0847 7a3e e632 7e3e 2b08 1e3e 1bf6 fe3d
00000150: ea8d 563e 8c2f 233e 5aec 033e fa70 143e
00000160: e9cf b13e d219 713e e5e4 643e 3afb d73e
00000170: 2c34 e73e dc66 043e 604c a83e 45c4 4a3e
00000180: 0ab3 dbbd ae60 cc3e a2d7 12bf 8b5e ac3e
00000190: 776d 8f3e 4810 1d3e dd27 9f3e d35b e63c
000001a0: 930a b2bd ebbc f03d 0e6a c33d 3b97 b8be
000001b0: f3ed c6bd 9f75 8cbc 0a99 993e 8041 16bd
000001c0: eabc 053f 3894 133f 307c 1fbd 7152 54bf
000001d0: 6b90 ed3d 7cc5 4a3f 4a06 693d 8faa 273f
000001e0: f0f2 69be 2adb e8be c6bc 4abe af2f 7cbe
000001f0: b992 ebbb 2820 b83d dc0f 45bd 2579 d23c
00000200: 0eca 9fbc bc8c df3c 4dc7 893e b4f7 b53e
00000210: 9021 aa3e c110 663d 8f4c 1b3e bd74 c7be
00000220: b71e b1bc 33fe c3be 7a5c 133e cf1a b23e
00000230: a647 853e 76fd a83e bdf7 a6be 39be 12be
00000240: 0ea2 cb3d 8f0c c33d 98e4 5b3e 115a 7b3e
00000250: df24 ac3d cb75 373d 9d94 23be f771 173c
00000260: ab12 723e 333d be3d fcdd f63d b142 86bd
00000270: 59e1 b43e ee19 223f 12ff a43d e9eb 2fbe
00000280: 27c9 f93e 716d 5b3e bf8c 49be e1fb 983e
00000290: 03e0 e73c 7979 973e dacb 223e 797c 973e
000002a0: 6f4f 2ebd 58e7 483e 629f 933e 1fde f9bd
000002b0: 9d3d 133f b1b3 983e 5410 7f3e 9db4 363d
000002c0: cf35 013e 3ffa ae3e ff20 993e 30a6 613e
000002d0: 1f34 983e 3951 943e 9d9f 933e 2196 913e
000002e0: 0468 b23e ceeb 283e 5129 053f b682 903e
000002f0: 0c77 d73e c188 ed3e 6fe3 663d 9540 c83d
00000300: f415 de3d e681 943e ce10 aa3e 81b0 fd3c
00000310: e398 23bc 4563 493c 0090 9b3e 68e2 593d
00000320: c1bf 5e3e c0e7 4e3e 1b46 b53c d987 0ebe
00000330: 69b1 e8be 0d19 9c3e a75e e83e 5c82 8abe
00000340: ba46 e2bd 93aa ad3e 4785 fdbc 1692 863e
00000350: 06de ed39 ba03 233f 5224 f63e abfd 20bf
00000360: 032c d93d 3e0f 593e a755 9a3e 8fe7 11bf
00000370: a814 03be 9910 02be f39f f7be 4a33 2c3e
00000380: 1230 76be ca14 dabe 2aac 72be 0aac a93d
00000390: 5aeb 1d3e 39d2 2e3f c0d3 1abd 8b01 743e
000003a0: 4788 0fbf b025 fc3e 1ba9 97be e907 1b3f
000003b0: 4347 b6bd 5713 50be 6f1d 09be 329e 62be
000003c0: 3047 423f 2c5a 363f 825c 4b3f 8b18 2a3f
000003d0: 1173 c83e af52 c0bd ceb0 08bf 03ef 883e
000003e0: 0748 2c3f 650a 2ebe 4588 b93e 4f16 553f
000003f0: 88b1 603f 8dbc bd3f 039f 853f 1d7d a63f

fc1.bias f4 [128]
-2.147388 -1.2686446 -2.3874953 -1.8991919 2.8643632 -1.5658869 -1.8167636 -2.6060903
-1.9319936 -1.5681266 2.6581426 -1.6513666 -2.2012095 -1.9661307 -2.589804 2.4785202
-2.106941 -1.316121 -2.3711338 -2.235465 2.9820924 -1.9635047 -0.97029716 -1.6688493
-1.8799149 -2.2351913 2.9023438 2.8557677 -1.2344971 -1.3785537 -2.1876407 -1.9900281
-2.064997 -1.7756864 2.96276 -2.0670953 -2.0670898 -1.8430152 -1.6784433 -1.6546217
-1.4182701 -2.0677426 -1.7832112 -2.082183 -1.555476 -1.9144416 -1.6718765 -1.7376366
-1.8170687 -2.3289778 -1.9904395 -2.1356077 -1.5827817 -1.730604 -1.798562 -1.6900454
-2.7767673 -1.7461737 -1.7625523 -1.9818102 -1.9509239 -1.2966521 -2.3020718 -1.8104302
-1.5353283 -1.6080221 -1.7151132 -2.14931 -2.2162676 -2.0075583 -1.8414164 -2.119046
-1.8017818 -1.9741507 -2.2070806 -2.1605668 -2.1752167 -1.8659012 -2.0273464 -1.7201463
-1.9902105 -1.7973636 -2.1581306 -2.008649 3.1203084 -2.2273402 -1.8690728 -1.7273147
-2.127991 -2.0977876 -1.8678837 -2.3348546 -1.6734121 -1.8114951 -2.4406497 -0.17815036
-2.373816 -1.8648621 -2.046258 -0.6154796 -2.03944 -2.1220849 -1.7401699 -1.8446965
-1.9035053 -2.0592005 -2.3436885 -1.7064888 -2.0993176 -1.0116745 -1.9348869 -2.2489862
-2.2590551 -1.4713738 -2.1865447 -1.8147956 -1.401542 2.668424 2.8044271 -1.7698038
-1.8345549 -1.6779263 -1.9772418 -1.6414593 -1.2969648 -2.3685803 -2.0733302 -1.4071053
00000000: ce6e 09c0 f262 a2bf b9cc 18c0 b818 f3bf
00000010: ba51 3740 fb6e c8bf b68b e8bf 2fca 26c0
00000020: 914b f7bf 5fb8 c8bf 021f 2a40 fb5f d3bf
00000030: 9ee0 0cc0 2caa fbbf 59bf 25c0 13a0 1e40
00000040: 1fd8 06c0 a776 a8bf a8c0 17c0 dc11 0fc0
00000050: 9ada 3e40 1f54 fbbf 6565 78bf db9c d5bf
00000060: 0da1 f0bf 600d 0fc0 00c0 3940 e6c4 3640
00000070: 0004 9ebf 7374 b0bf 4e02 0cc0 3eb9 febf
00000080: e928 04c0 b149 e3bf dc9d 3d40 4a4b 04c0
00000090: 334b 04c0 ece7 ebbf 3bd7 d6bf a5ca d3bf
000000a0: e089 b5bf e555 04c0 4440 e4bf 7c42 05c0
000000b0: d619 c7bf 6c0c f5bf 0d00 d6bf e06a debf
000000c0: b595 e8bf f90d 15c0 b9c6 febf ccad 08c0
000000d0: 9798 cabf 6f84 ddbf 4837 e6bf 6853 d8bf
000000e0: 8eb6 31c0 9f82 dfbf 509b e1bf f5ab fdbf
000000f0: e0b7 f9bf b2f8 a5bf 2555 13c0 2dbc e7bf
00000100: a385 c4bf abd3 cdbf d488 dbbf 4c8e 09c0
00000110: 54d7 0dc0 d67b 00c0 88b3 ebbf 739e 07c0
00000120: c9a0 e6bf f8b0 fcbf cf40 0dc0 ba46 0ac0
00000130: c036 0bc0 dad5 eebf 0bc0 01c0 c12d dcbf
00000140: 38bf febf 0310 e6bf d01e 0ac0 b58d 00c0
00000150: 22b3 4740 be8c 0ec0 c73d efbf a618 ddbf
00000160: 0131 08c0 2742 06c0 d016 efbf 426e 15c0
00000170: 5e32 d6bf 12df e7bf 9b33 1cc0 0c6d 36be
00000180: 9aec 17c0 cdb3 eebf e4f5 02c0 1290 1dbf
00000190: 2f86 02c0 3dd0 07c0 e3bd debf 041f ecbf
000001a0: 10a6 f3bf f1c9 03c0 fefe 15c0 3a6e dabf
000001b0: 385b 06c0 8d7e 81bf 60aa f7bf 64ef 0fc0
000001c0: 5c94 10c0 fa55 bcbf 59f0 0bc0 394b e8bf
000001d0: ba65 b3bf 75c7 2a40 bc7b 3340 ee88 e2bf
000001e0: b2d2 eabf 4ac6 d6bf 4216 fdbf 571b d2bf
000001f0: f102 a6bf d296 17c0 71b1 04c0 071c b4bf

fc2.weight f4 [128, 128]
1.475383 0.50502306 1.9022565 1.1999968 -0.12622131 0.4274934 0.6847238 3.011888
0.78233296 0.4215004 0.061061848 0.4787043 0.46162316 1.6571109 2.2755127 0.9445096
1.5952681 0.55242616 2.588896 2.5291262 -0.22151934 0.38166478 0.57466656 1.340297
0.5082871 0.4508956 -0.47669157 -0.23666465 2.3237216 1.3211864 0.45978573 2.2350085
1.5747232 0.54315907 -0.9965812 0.38881272 2.0578077 2.4476976 2.2680569 0.6935698
1.484329 1.9720454 1.8769275 1.8411844 0.48803914 1.83989 1.4825813 0.8197143
0.46445262 1.518809 1.9493532 0.92720383 1.7200255 1.7943393 2.1903753 0.39602578
2.3047416 2.622043 0.4613942 2.7470782 1.3272283 2.0429895 2.0610988 2.5730155
1.3565264 0.31246236 1.2873554 1.9737798 0.7397751 0.52255505 0.3710777 2.1798384
1.989621 2.0135636 2.202673 2.3780394 1.6445993 2.011662 1.7295066 0.71092665
3.0434053 0.39459044 1.6184323 2.0092342 -0.13384762 1.1455344 1.7477007 1.3175002
1.5147715 2.1934807 2.7356079 1.579018 0.42118356 2.1943374 2.5794225 2.5716076
1.4142641 0.3365548 2.417224 2.691743 2.139435 1.690243 1.2710795 0.67242706
0.5503548 1.4545901 2.819844 0.40085727 1.8035828 0.69563466 1.9947617 1.1325047
1.6302087 0.5775686 1.5246625 0.94756347 2.5601451 -0.32784876 -0.4128263 1.5333521
2.9933317 3.0204341 0.6906321 0.41607225 1.6592032 1.6993369 1.6153431 0.4816191
-0.7662257 0.27953956 -0.6437856 0.4282934 1.6949165 -0.71171546 -0.97919184 -2.83694
-0.69915736 -0.5671539 1.728046 -0.74595755 -0.82158476 -0.97404134 -1.9548899 1.4950659
-1.4393367 0.041924268 -0.32853585 -1.8852873 1.582107 -0.92203397 0.11136941 -0.007940883
-0.4697958 -1.0204895 1.3978858 1.2749436 0.8857795 -0.2677096 -1.5544515 -1.1351296
-0.7599464 -0.5007261 3.3463197 -0.85452735 -0.7057407 -0.29457083 -0.28381604 -0.7827871
-0.8986596 -0.5028161 -0.12806353 -0.5384837 -0.14300363 0.21461904 0.3447409 -0.33516577
-0.39733014 0.35010615 -0.21099369 -1.1263016 0.9170748 0.6502872 0.045222856 -0.725264
0.37701228 -1.4997194 -0.15742517 -0.29371008 0.20959955 -0.255063 -0.9338269 0.36181334
0.02375433 -0.93279564 -0.265854 -0.33609554 -1.0984414 -0.6373359 -0.29140183 -1.3447701
-1.0863438 -0.879075 -0.8010831 -0.20802163 0.9965015 -2.0303679 -1.6557798 -0.38446844
2.1288965 -0.5592741 0.10280376 0.5661809 1.6520845 -0.8810572 -1.6800421 -0.5046979
-0.37982106 -0.875594 0.07126744 -1.3803779 -0.42395422 1.2778989 -3.311392 -1.1249317
-0.2878405 -0.7895359 0.25090316 -1.4222639 -2.2533405 -1.1542064 -0.0024054612 -0.6688902
-1.0884063 0.56877196 -2.0056684 -0.9119121 -0.8032997 0.029787268 -1.6329701 -1.4321305
-0.51240265 -0.48989707 -1.1964762 -0.19045472 -0.6238435 1.1452336 1.587774 -0.09104372
0.43217966 -0.781261 -0.5551201 -0.36847427 -1.3323532 -1.9745146 -1.045084 -0.4129232
00000000: 5ad9 bc3f 3149 013f 247d f33f 7f99 993f
00000010: 2940 01be 6ae0 da3e 0f4a 2f3f c6c2 4040
00000020: f946 483f e7ce d73e fd1b 7a3d bb18 f53e
00000030: df59 ec3e 361c d43f 00a2 1140 62cb 713f
00000040: bf31 cc3f cd6b 0d3f 79b0 2540 34dd 2140
00000050: f7d5 62be 9169 c33e 591d 133f da8e ab3f
00000060: 1a1f 023f cadb e63e eb10 f4be 3858 72be
00000070: dbb7 1440 a31c a93f 0969 eb3e 610a 0f40
00000080: 8890 c93f 790c 0b3f f21f 7fbf 7612 c73e
00000090: 1fb3 0340 14a7 1c40 d827 1140 ca8d 313f
000000a0: 7efe bd3f fc6b fc3f 293f f03f eeab eb3f
000000b0: 44e0 f93e 8481 eb3f 39c5 bd3f ccd8 513f
000000c0: bccc ed3e 5568 c23f 6884 f93f 3b5d 6d3f
000000d0: cc29 dc3f e9ac e53f 1c2f 0c40 e4c3 ca3e
000000e0: e380 1340 8dcf 2740 dc3b ec3e 21d0 2f40
000000f0: 9ee2 a93f 57c0 0240 0be9 0340 49ac 2440
00000100: a8a2 ad3f 11fb 9f3e 10c8 a43f d1a4 fc3f
00000110: e761 3d3f 2bc6 053f e5fd bd3e 7982 0b40
00000120: e7ab fe3f 3ade 0040 98f8 0c40 cc31 1840
00000130: 3b82 d23f 12bf 0040 7960 dd3f 4aff 353f
00000140: 27c7 4240 c207 ca3e ca28 cf3f 4b97 0040
00000150: 5a0f 09be dfa0 923f a8b4 df3f d9a3 a83f
00000160: 08e4 c13f fd61 0c40 3314 2f40 431d ca3f
00000170: 5fa5 d73e 0670 0c40 4215 2540 3895 2440
00000180: 9b06 b53f e950 ac3e ccb3 1a40 8445 2c40
00000190: 81ec 0840 e259 d83f bcb2 a23f 2e24 2c3f
000001a0: 0de4 0c3f 0230 ba3f 5378 3440 2a3d cd3e
000001b0: cddb e63f 1d15 323f 5a54 ff3f eaf5 903f
000001c0: aeaa d03f 89db 133f 2428 c33f 8593 723f
000001d0: 6bd9 2340 cbdb a7be f85d d3be e244 c43f
000001e0: bf92 3f40 cb4e 4140 44cd 303f 6c07 d53e
000001f0: c560 d43f df83 d93f 90c3 ce3f c796 f63e
00000200: 5e27 44bf cf1f 8f3e 22cf 24bf 4649 db3e
00000210: 06f3 d83f fc32 36bf 51ac 7abf 6d90 35c0
00000220: fafb 32bf ff30 11bf 9c30 dd3f 13f7 3ebf
00000230: 6153 52bf c65a 79bf d539 fabf 525e bf3f
00000240: 2f3c b8bf c8b8 2b3d da35 a8be 1851 f1bf
00000250: 7b82 ca3f 6b0a 6cbf a515 e43d 7a1a 02bc
00000260: 1389 f0be 669f 82bf eced b23f 5a31 a33f
00000270: 72c2 623f 3c11 89be 44f8 c6bf ed4b 91bf
00000280: d98b 42bf 962f 00bf 1a2a 5640 4ec2 5abf
00000290: 6cab 34bf fdd1 96be 5650 91be bc64 48bf
000002a0: 8e0e 66bf 8eb8 00bf 1623 03be 11da 09bf
000002b0: 8b6f 12be 18c5 5b3e e181 b03e d99a abbe
000002c0: db6e cbbe 1d41 b33e bb0e 58be a72a 90bf
000002d0: 6ac5 6a3f 3979 263f 9a3b 393d e7aa 39bf
000002e0: c107 c13e cef6 bfbf 1034 21be 2b61 96be
000002f0: 44a1 563e 9e97 82be 480f 6fbf 993f b93e
00000300: 7198 c23c b2cb 6ebf 041e 88be b714 acbe
00000310: ba99 8cbf 7228 23bf 9f32 95be 6d21 acbf
00000320: 500d 8bbf 0f0b 61bf c813 4dbf 9f03 55be
00000330: b91a 7f3f 8cf1 01c0 98f0 d3bf 0cd9 c4be
00000340: d73f 0840 962c 0fbf c78a d23d 3bf1 103f
00000350: 8177 d33f f78c 61bf 9f0b d7bf e233 01bf
00000360: e877 c2be ee26 60bf aaf4 913d 39b0 b0bf
00000370: 8710 d9be 3192 a33f d9ed 53c0 c3fd 8fbf
00000380: d45f 93be 061f 4abf 6176 803e be0c b6bf
00000390: bb36 10c0 09bd 93bf f1a4 1dbb 633c 2bbf
000003a0: e650 8bbf 0a9b 113f df5c 00c0 1273 69bf
000003b0: 0da5 4dbf 6e04 f43c 2a05 d1bf 0d50 b7bf
000003c0: d22c 03bf cad3 fabe 2226 99bf 9006 43be
000003d0: 35b4 1fbf 0497 923f 2e3c cb3f 2175 babd
000003e0: a746 dd3e b900 48bf 5a1c 0ebf a9a8 bcbe
000003f0: 8d8a aabf e5bc fcbf 50c5 85bf ab6a d3be

fc2.bias f4 [128]
-0.4510013 3.115941 -0.7636642 -3.0680857 -1.2560234 -2.134011 -3.119987 -1.4526091
-0.86825144 -0.11495122 -3.0743196 -1.3595961 -1.6726477 -0.08780026 -0.1132946 -2.5062728
-0.34033975 -0.065625735 -0.6982782 -2.875635 0.9058026 -0.08186763 -1.5690542 0.7609633
-0.6689598 -0.38134137 -0.8162669 -2.6022723 -1.4194046 -0.06759665 -0.28048816 -0.0151686035
0.021517277 1.1082145 -0.18062414 -0.47586402 -0.074534714 -1.4474506 -0.09470469 0.005942398
-0.8057014 -0.7257965 -0.54589766 -2.9828424 0.013080058 -1.4459578 -1.056899 0.055238504
-0.079689264 -0.78048277 -0.06366872 -0.10131938 -2.9097767 -0.36039782 -2.9428172 -0.049593672
-1.6188571 -2.0131328 -0.014924923 -0.46804664 0.28653505 -2.9894898 0.45701337 -3.0039892
-0.52357924 -2.61342 -2.5098906 -2.5575542 -0.66219443 -0.47049707 1.5501491 -2.0931005
-0.41534913 -0.44075495 -0.07810237 0.063102394 -0.6915887 -3.0196111 -1.968 -2.8563492
-0.13102587 -1.127746 -2.8811512 -0.85182303 -2.921144 -0.05745971 -1.8178614 -0.24837568
0.43126345 -0.36591125 0.054480825 -0.74071836 -1.2219754 -2.9301348 -0.38755003 -2.7373142
-2.570273 -0.30262658 -2.9390938 -0.032630183 -1.9648827 -2.4326837 1.3592445 -0.34815967
0.060158577 -2.9257905 -0.020670481 -0.06924009 -2.7270675 0.32556206 -3.0385923 -1.5640339
-0.04008724 -0.10013266 -0.33918715 0.012461248 0.06639504 -0.052168973 -2.701052 -0.055650473
-0.6936361 -0.37977186 -0.58929634 0.009904222 -0.564515 -1.9141041 -0.35083765 -2.812965
00000000: a4e9 e6be 946b 4740 7f7f 43bf 845b 44c0
00000010: 60c5 a0bf a393 08c0 dead 47c0 18ef b9bf
00000020: ba45 5ebf 8c6b ebbd a7c1 44c0 3f07 aebf
00000030: 5219 d6bf 9fd0 b3bd 0007 e8bd c666 20c0
00000040: 0341 aebe c966 86bd 5cc2 32bf 670a 38c0
00000050: aee2 673f 37aa a7bd c5d6 c8bf 7ece 423f
00000060: f340 2bbf 2d3f c3be def6 50bf a18b 26c0
00000070: 0daf b5bf 1d70 8abd 259c 8fbe bc85 78bc
00000080: 0045 b03c f9d9 8d3f 89f5 38be 73a4 f3be
00000090: a8a5 98bd 1046 b9bf 88f4 c1bd 73b8 c23b
000000a0: 7242 4ebf cdcd 39bf f3bf 0bbf e4e6 3ec0
000000b0: bd4d 563c 2515 b9bf 7748 87bf c541 623d
000000c0: 2034 a3bd b8cd 47bf bf64 82bd 8980 cfbd
000000d0: c839 3ac0 1086 b8be 1e57 3cc0 bc22 4bbd
000000e0: b636 cfbf 2bd7 00c0 aa87 74bc cfa3 efbe
000000f0: b9b4 923e cd53 3fc0 a8fd e93e 5c41 40c0
00000100: 4a09 06bf 4642 27c0 0ca2 20c0 f8ae 23c0
00000110: 9385 29bf fee4 f0be 496b c63f 5cf5 05c0
00000120: a4a8 d4be a2aa e1be 23f4 9fbd d43b 813d
00000130: f50b 31bf 4f41 41c0 6de7 fbbf 6dce 36c0
00000140: a52b 06be fb59 90bf c864 38c0 1311 5abf
00000150: 06f4 3ac0 df5a 6bbd afaf e8bf 3256 7ebe
00000160: 90ce dc3e b858 bbbe 4927 5f3d b89f 3dbf
00000170: b169 9cbf 5487 3bc0 f56c c6be 2830 2fc0
00000180: 5a7f 24c0 dff1 9abe 1d1a 3cc0 3aa7 05bd
00000190: 4781 fbbf 17b1 1bc0 b9fb ad3f fc41 b2be
000001a0: d768 763d 2740 3bc0 2455 a9bc c0cd 8dbd
000001b0: 4688 2ec0 12b0 a63e 4c78 42c0 4332 c8bf
000001c0: 8532 24bd 5a12 cdbd f0a9 adbe 432a 4c3c
000001d0: 1ffa 873d 22af 55bd 09de 2cc0 c0f1 63bd
000001e0: 2392 31bf 7571 c2be 20dc 16bf 5145 223c
000001f0: 0e84 10bf 5d01 f5bf fea0 b3be 9e07 34c0

fc3.weight f4 [4, 128]
1.2579924 7.4348583 1.2879864 4.214536 1.534773 1.6038642 3.8767638 1.413407
1.226136 1.1742404 4.125136 1.4762776 1.266194 -0.058275595 -0.02721074 1.7561611
1.283545 -0.00040770197 1.3233005 3.1625705 2.8708994 0.07775738 1.3104199 2.3182974
1.2638853 1.306065 1.2807856 2.1228678 1.3617837 -0.0338996 1.2203007 -0.047780555
1.1856483 5.5674615 1.2936106 1.3443308 1.2517544 1.4487816 0.0010340972 -0.02159916
1.341533 1.2392232 1.2143345 3.7772954 0.09839228 1.4626946 1.3684256 -0.08515659
1.2302462 1.3043386 0.014552048 -0.036490414 3.8383007 1.3101728 3.9111876 0.070145726
1.5219686 1.559711 -0.042700082 1.2467058 0.8674744 3.8972297 -0.23248537 4.258045
1.3016881 2.5974276 1.823951 2.0192475 1.2967083 1.2731719 0.513532 1.3739477
1.2480274 1.2309059 0.016739167 0.03704092 1.213794 4.681663 1.5711571 3.3780942
0.055873275 1.3228775 3.8053684 1.3347304 4.304311 -0.013090767 1.481627 1.2940944
-0.36001167 1.2659547 -0.0048011974 1.3636968 1.3709444 4.396873 1.2778406 3.2791393
1.7376059 1.3098724 4.0669494 -0.033961345 1.6068941 2.0259488 0.8013501 1.2712917
-0.06021323 4.6198664 0.068361886 0.1088375 3.1497343 -0.34309813 3.8706748 1.5051955
0.005962522 0.056230616 1.2815309 -0.035526473 0.002374029 0.0069760634 2.3358915 -0.041393377
1.3643069 1.306183 1.351426 0.033822898 1.2698029 1.3436638 1.1917709 2.1915455
1.2349201 6.152121 1.3202213 4.0331383 1.3483908 1.2917712 3.150152 1.1019331
1.3347883 1.3864019 3.480423 1.1759719 1.1448059 -0.009840655 -0.10316205 1.5853014
1.3671746 0.07298774 1.2109702 2.5485246 2.8979745 0.064993374 1.3452199 1.0316424
1.3310344 1.3409549 1.2429078 1.7505958 1.3003237 0.070127964 1.3758332 -0.061831452
1.3419605 3.8258553 1.3036423 1.1815971 1.3386046 1.1580538 -0.05541766 0.01826552
1.2266283 1.2568594 1.201167 3.368622 -0.062209975 1.0684676 1.390335 0.06150148
1.3403134 1.2126303 -0.06627046 0.04817676 3.497453 1.392882 3.0014935 -0.04804184
1.301807 1.0176516 0.091068156 1.4337533 1.2500283 3.2251573 -0.13165769 4.0101757
1.2850262 2.1241362 1.5721699 1.6961942 1.2113726 1.254728 2.0694263 1.2061888
1.29294 1.3755105 0.08235007 -0.03232425 1.3589548 4.4697614 1.102218 2.990961
0.011295337 1.2629161 2.9369838 1.1016659 3.687475 -0.037927676 1.1401079 1.272571
-0.2375481 1.2988071 -0.057716426 1.9960006 1.2542479 4.016562 1.243749 2.6570299
1.4946111 1.3521476 3.5768569 0.011280926 1.0476747 1.4846283 0.46092057 1.2636827
-0.00088706275 4.1456623 0.02638767 0.15446013 2.641455 -0.34140426 3.0952506 1.2826842
0.039852683 -0.040927522 1.1983542 -0.03315666 -0.011859066 -0.043675832 2.0850644 -0.041727267
1.3401111 1.3316457 1.2415692 0.027621048 1.3185903 1.1786425 1.2602336 1.9465655
00000000: e505 a13f 5cea ed40 bddc a43f 7bdd 8640
00000010: 7173 c43f 6c4b cd3f e61c 7840 85ea b43f
00000020: 06f2 9c3f 824d 963f 1d01 8440 aaf6 bc3f
00000030: a512 a23f 64b2 6ebd 0fe9 debc e3c9 e03f
00000040: 344b a43f d5c0 d5b9 e961 a93f 8e67 4a40
00000050: d1bc 3740 433f 9f3d d7bb a73f fc5e 1440
00000060: fec6 a13f 232d a73f c8f0 a33f 11dd 0740
00000070: ee4e ae3f 4fda 0abd d032 9c3f 8bb5 43bd
00000080: 53c3 973f a528 b240 0895 a53f 0813 ac3f
00000090: 7d39 a03f ad71 b93f 8b8a 873a b9f0 b0bc
000000a0: 5ab7 ab3f de9e 9e3f 506f 9b3f 35bf 7140
000000b0: e481 c93d 9439 bb3f 9228 af3f 9466 aebd
000000c0: b578 9d3f 91f4 a63f b76b 6e3c f976 15bd
000000d0: b8a6 7540 beb3 a73f e650 7a40 90a8 8f3d
000000e0: decf c23f 9ca4 c73f 48e6 2ebd 0e94 9f3f
000000f0: cd12 5e3f 366c 7940 a510 6ebe e841 8840
00000100: b79d a63f 413c 2640 3a77 e93f 5a3b 0140
00000110: 8afa a53f 4cf7 a23f d576 033f 85dd af3f
00000120: 5dbf 9f3f 538e 9d3f 9420 893c 38b8 173d
00000130: 9a5d 9b3f 2fd0 9540 ad1b c93f b232 5840
00000140: 60db 643d 0d54 a93f 288b 7340 72d8 aa3f
00000150: eabc 8940 a87a 56bc f4a5 bd3f e3a4 a53f
00000160: 7353 b8be ce0a a23f 5d53 9dbb 9e8d ae3f
00000170: 1b7b af3f 2fb3 8c40 4890 a33f 6bdd 5140
00000180: df69 de3f e6a9 a73f 7324 8240 0d1b 0bbd
00000190: b5ae cd3f 25a9 0140 4825 4d3f b0b9 a23f
000001a0: 26a2 76bd f2d5 9340 5101 8c3d 32e6 de3d
000001b0: 3f95 4940 8faa afbe 23b9 7740 3faa c03f
000001c0: 4261 c33b 1352 663d 3409 a43f 3584 11bd
000001d0: 9995 1b3b 7697 e43b 3f7f 1540 1a8c 29bd
000001e0: 9ca1 ae3f 0131 a73f 87fb ac3f e189 0a3d
000001f0: e788 a23f 2dfd ab3f f38b 983f 4842 0c40
00000200: dd11 9e3f 2dde c440 03fd a83f 780f 8140
00000210: 1298 ac3f c258 a53f 179c 4940 250c 8d3f
00000220: 58da aa3f 9e75 b13f 40bf 5e40 3f86 963f
00000230: 0089 923f b33a 21bc a046 d3bd 28eb ca3f
00000240: 94ff ae3f 997a 953d 1201 9b3f 071b 2340
00000250: 6a78 3940 3f1b 853d 2a30 ac3f dc0c 843f
00000260: 565f aa3f 69a4 ab3f 9a17 9f3f 8613 e03f
00000270: 0271 a63f 409f 8f3d 4d1b b03f fa42 7dbd
00000280: 5dc5 ab3f d0da 7440 c0dd a63f 933e 973f
00000290: 6557 ab3f 1b3b 943f a1fd 62bd 92a1 953c
000002a0: 2802 9d3f c5e0 a03f d7bf 993f 8197 5740
000002b0: e3cf 7ebd 8cc3 883f 7ff6 b13f fae8 7b3d
000002c0: 648f ab3f 7837 9b3f cfb8 87bd ff54 453d
000002d0: 45d6 5f40 f549 b23f 7818 4040 85c7 44bd
000002e0: 9da1 a63f 6842 823f f181 ba3d 3a85 b73f
000002f0: ed00 a03f fa68 4e40 46d1 06be 5c53 8040
00000300: bd7b a43f d9f1 0740 dd3c c93f e41c d93f
00000310: 420e 9b3f ed9a a03f 7b71 0440 6564 9a3f
00000320: 0f7f a53f ba10 b03f 27a7 a83d 6f66 04bd
00000330: 3bf2 ad3f 4908 8f40 7b15 8d3f e86b 3f40
00000340: 1410 393c 3ca7 a13f 8bf7 3b40 6303 8d3f
00000350: 97ff 6b40 0d5a 1bbd 0eef 913f 9be3 a23f
00000360: cf3f 73be 503f a63f 0f68 6cbd f37c ff3f
00000370: 328b a03f ad87 8040 2b33 9f3f c70c 2a40
00000380: 6b4f bf3f 2c13 ad3f 39eb 6440 a2d3 383c
00000390: 341a 863f 4d08 be3f c8fd eb3e 5bc0 a13f
000003a0: c689 68ba 44a9 8440 f42a d83c cc2a 1e3e
000003b0: 990d 2940 8acc aebe 9618 4640 ff2e a43f
000003c0: 913c 233d 9ea3 27bd ac63 993f 47cf 07bd
000003d0: 874c 42bc 6ee5 32bd b271 0540 36ea 2abd
000003e0: c388 ab3f 5e73 aa3f bdeb 9e3f 8945 e23c
000003f0: 91c7 a83f c2dd 963f 564f a13f 0f29 f93f

fc3.bias f4 [4]
-0.21625245 0.6874158 0.8638578 -0.08669001
00000000: 4871 5dbe 7bfa 2f3f c925 5d3f 888a b1bd
