ai/models/dqn/trained_models/dqn_2048_400.pth (torch, 78975 bytes, 6 tensors)

fc1.weight f4 [128, 16]
000000 88 46 c5 be 9e f5 e7 3e 15 73 43 3f 16 a2 59 3c
       -0.38530374 0.4530458 0.76347476 0.013283273
000010 bb 64 d9 3e 21 a1 98 be 1c fc 85 3d 46 e7 7f be
       0.42459664 -0.29810432 0.06542227 -0.24990568
000020 f9 74 21 bd ab 16 c4 3e 7a e0 80 3e a2 e8 1f be
       -0.039418194 0.38298544 0.25171262 -0.15616086
000030 31 4e d5 be db ef d9 bc a4 01 0b bf 83 23 fb 3d
       -0.41661218 -0.02660363 -0.5429938 0.12262633
000040 9d d5 1a be 89 34 b1 3e 3d f2 6b bd 96 c7 0b 3f
       -0.1512055 0.34610394 -0.057604063 0.5460142
000050 ea d6 8f be c8 6f a3 3e c2 8d 30 bd b0 31 b1 3d
       -0.28093654 0.3192122 -0.04310394 0.08652055
000060 d6 39 17 be 43 2c 7d be 98 90 de 3e 87 38 af 3d
       -0.14768156 -0.24723916 0.4346969 0.085557036
000070 e1 76 97 3d 5b 28 51 3f ea 83 f9 3e 13 45 bf 3e
       0.07395721 0.817022 0.48733455 0.37357387
000080 f4 2e 6a 3e 94 13 9d 3d 96 c1 f6 be 34 2d 26 3d
       0.22869474 0.0766975 -0.4819457 0.040570453
000090 89 7b 47 be 46 2b 43 3f fc b8 12 bf 07 2a 82 3d
       -0.19480719 0.76237905 -0.57313514 0.06355672
0000a0 18 d8 d1 3d 35 2f c6 3e 7b 7a a4 3e a9 c3 4f be
       0.10246295 0.3870789 0.32124695 -0.20289482
0000b0 6d 22 dc 3d 50 1b e2 3d 97 da 82 be 7f 18 67 3d
       0.10748754 0.11040366 -0.25557396 0.056419846
0000c0 14 76 aa 3e e8 36 0f bf cf 55 17 3e 67 da d6 3e
       0.3329321 -0.55943155 0.14778827 0.41963503
0000d0 f8 37 26 bf ed da a5 3e e6 fa 53 be de 5d ef be
       -0.6492915 0.3239359 -0.20701179 -0.46751302
0000e0 db 75 b2 3e f4 39 24 3c 1a 63 8b 3e f6 07 d4 3e
       0.34855542 0.010023583 0.27224046 0.41412324
0000f0 f2 f6 27 3e 9f fc f8 3c bc 34 c1 3e 1c c2 5a be
       0.16402796 0.030393897 0.37735546 -0.2136311
000100 59 6b 9c 3e c5 42 08 3d f4 28 56 bc 80 57 f4 3e
       0.3055065 0.0332668 -0.013071287 0.47723007
000110 17 8e 05 3e d4 32 1c 3e 84 50 7e 3e 48 2f fb 3e
       0.13042484 0.15253764 0.24835402 0.4905951
000120 be 66 dd 3d 66 62 28 3d 71 67 c9 3d b5 4c 0f 3e
       0.10810612 0.041109465 0.09834183 0.13994105
000130 4a 18 af 3e 54 20 d7 3d 41 2a a3 3e ec fa b2 3d
       0.3419822 0.10504213 0.31868175 0.08739266
000140 1a 54 b8 3e 66 9d 92 3e 62 6a 2a 3e ae f2 0b 3e
       0.36001664 0.2863571 0.16642144 0.13666794
000150 35 ad 50 3e 4c 43 1f 3e e2 4c 1b 3e af b9 a7 3d
       0.20378573 0.15553015 0.15166047 0.08189713
000160 58 7a bd 3e 52 91 87 3e 79 9d 78 3e 17 8b bc 3e
       0.37007403 0.26478058 0.24278821 0.36824867
000170 87 e3 1a 3f ba cd 06 3e 5e c6 88 3e 9c 4d 4f 3e
       0.6050343 0.13164416 0.26713842 0.2024445
000180 8d 7a 0f be 41 91 12 3f 16 fb 21 bf ff 04 92 3e
       -0.14011593 0.5725289 -0.6327375 0.28519437
000190 83 e0 9d 3e e7 5d 83 3e f8 a5 90 3e 16 0b a8 bd
       0.3083535 0.2565758 0.28251624 -0.082052395
0001a0 c2 89 5b 3d ae 68 d7 3d 0c c2 1b 3e 15 4d f2 be
       0.053598173 0.10518013 0.15210742 -0.47324434
0001b0 da 7c e0 bd 79 c9 31 bb e9 81 48 3e da ac 1e bd
       -0.109613135 -0.0027128144 0.19580807 -0.038739063
0001c0 4e f5 07 3f 89 72 1b 3f 80 11 9f bc 84 1f 59 bf
       0.5310868 0.6072164 -0.019417524 -0.84813714
0001d0 19 ce ba 3c c3 b3 68 3f 89 2b 92 3d d1 fc 1e 3f
       0.022803353 0.90899295 0.0713721 0.6210452
0001e0 33 ae 59 be 3c 4c 96 be da 42 71 be 54 1f a9 be
       -0.21257858 -0.29355037 -0.23560658 -0.33031714
0001f0 e9 42 16 3c 50 b8 08 bc a8 dd d6 bd c4 c5 ab bc
       0.009171226 -0.008344725 -0.10491496 -0.020968325
000200 5d 8c 77 be 66 6b 97 3d 8d fd 6a 3e 5c 7f fa 3e
       -0.24174638 0.073935315 0.22948284 0.48925292
000210 83 9a b8 3e 71 11 98 3c 67 3c 10 3e bc b3 f4 be
       0.36055383 0.018563004 0.14085542 -0.47793376
000220 20 49 ba bd f9 ad 28 be 0e 05 37 3e 21 98 a8 3e
       -0.09095979 -0.16472615 0.17873022 0.32928565
000230 ad 29 b2 3e 14 9b b6 3e 52 04 b6 be b1 bb 0d be
       0.3479742 0.3566519 -0.3555017 -0.1384113
000240 79 23 0f 3e d3 11 ea 3d 88 9f 7a 3e 07 b1 75 3e
       0.13978375 0.11429181 0.24474919 0.23993312
000250 0d 9e b3 3d 7a e2 88 ba 85 45 37 be a7 e0 31 3d
       0.0877038 -0.0010443472 -0.17897613 0.043427136
000260 f5 d4 6a 3e 91 92 bd 3d 14 4a 06 3e da 9a 0d be
       0.22932799 0.09256471 0.13114196 -0.13828602
000270 67 45 0a 3f cd be 1b 3f 88 b3 85 3d 96 3d 38 be
       0.5401215 0.60838014 0.065283835 -0.17992243
000280 31 2c 05 3f 3a c9 5f 3e 37 10 7f be 67 d4 ad 3e
       0.52020556 0.21854106 -0.24908529 0.33951113
000290 41 e8 2b bc 4d 77 b4 3e 4b 92 4d 3e 15 74 67 3e
       -0.010492385 0.3524727 0.20075338 0.22602876
0002a0 82 06 9b bd f8 82 6b 3e cf 37 b1 3e b6 49 d6 bd
       -0.07569601 0.2299918 0.3461289 -0.10463278
0002b0 12 f2 00 3f 70 3a da 3e a0 dd 1b 3e fd 95 9c 3c
       0.5036937 0.4262271 0.15221262 0.019114489
0002c0 17 21 88 3e 11 3d c7 3e 95 d0 9a 3e fb 15 72 3e
       0.26587746 0.38913777 0.3023726 0.23641197
0002d0 cd d7 8b 3e c9 37 97 3e da 3a a8 3e 5c 66 2a 3e
       0.2731308 0.29534748 0.328574 0.1664061
0002e0 3a 92 b1 3e 6d f8 56 3e 36 bb 0e 3f 09 e4 58 3e
       0.34681875 0.20993204 0.5575441 0.21180739
0002f0 06 b2 0e 3f cd 5b 00 3f 3b 4f 72 bd d6 a3 af 3d
       0.5574039 0.50140077 -0.05915759 0.08576171
000300 92 0a fe 3d 6d 67 99 3e 3a 41 ae 3e 63 c2 7a 3d
       0.1240436 0.2996172 0.3403414 0.061220538
000310 b8 21 e4 3c 9c 05 2f 3d a0 ff a0 3e 9e 9d 08 3d
       0.02784811 0.04272996 0.31445026 0.03335344
000320 f5 72 80 3e 70 bc 75 3e fb 88 40 3d e1 53 2e be
       0.25087705 0.23997664 0.047005635 -0.17024185
000330 df 4c bd be a8 62 9a 3e 2a 6b fa 3e 1c 7a 8b be
       -0.3697271 0.30153394 0.48909885 -0.272416
000340 a2 71 3e be 60 fa e7 3e 6d 8a 81 bd 94 9f 75 3e
       -0.18598035 0.45308208 -0.06325231 0.23986655
000350 3d 4b 9d bd 99 28 18 3f 5f c4 12 3f 82 3a 33 bf
       -0.07680366 0.5943695 0.5733089 -0.7001115
000360 80 a4 29 3d 66 51 21 3e d1 b5 6e 3e 3d fd 0b bf
       0.041416645 0.15753707 0.23311545 -0.54683286
000370 b8 0f 4d be b1 55 df bd 71 39 d9 be d0 8c 17 3e
       -0.20025527 -0.10905016 -0.42426637 0.1479981
000380 41 41 80 be dd 24 d0 be e7 91 a1 be 02 7a 64 3e
       -0.25049785 -0.40653124 -0.31556627 0.22312167
000390 50 63 5a 3d 47 d2 5d 3f 79 fd c3 bd c2 f0 70 3e
       0.053317368 0.8664898 -0.095698304 0.23529342
0003a0 07 b7 be be ce 2a 02 3f e6 59 81 be 8f 95 2f 3f
       -0.37249014 0.50846565 -0.252639 0.68587583
0003b0 12 83 83 3b 7c a6 df bd 7b 2f 40 be 2c da 54 bc
       0.0040134275 -0.10920426 -0.18768112 -0.012991469
0003c0 75 c6 84 3f 0b 99 44 3f de 7c 39 3f 54 7e 7f 3f
       1.0373064 0.76796025 0.7245616 0.99802136
0003d0 9f 29 a5 3e c9 09 23 3d 3b 5b b4 be 84 ec 6d 3e
       0.32258317 0.039804254 -0.35225853 0.23234755
0003e0 f6 db 3b 3f d5 ef c8 bd 55 6e 05 3f 4a f3 6b 3f
       0.7338251 -0.09811369 0.5212148 0.92168105
0003f0 64 85 83 3f f0 ea ea 3f bd f2 79 3f 03 e8 a6 3f
       1.0275083 1.8352947 0.97636014 1.3039554

fc1.bias f4 [128]
000000 54 3a 0d c0 11 7a 78 bf ed ed 1b c0 c7 60 00 c0
       -2.206685 -0.9706126 -2.4363968 -2.0059068
000010 0d b3 58 40 d9 e8 ba bf d2 74 ea bf 35 92 2a c0
       3.3859284 -1.460231 -1.8316901 -2.6651738
000020 7a c5 03 c0 11 66 d1 bf 41 60 4f 40 60 a5 b8 bf
       -2.058928 -1.6359273 3.2402499 -1.4425468
000030 8c 88 0f c0 32 ea 03 c0 36 ca 2a c0 af 2d 86 40
       -2.2427092 -2.0611691 -2.668592 4.1930766
000040 43 11 02 c0 2e 32 75 bf fd 80 18 c0 26 98 17 c0
       -2.0323036 -0.95779693 -2.3828728 -2.3686614
000050 d2 83 56 40 f3 3a 04 c0 15 13 62 be 5f a8 dd bf
       3.3517957 -2.066098 -0.22077592 -1.7317008
000060 b4 1f f5 bf fd a0 15 c0 2f de 4e 40 14 a4 4e 40
       -1.91503 -2.337951 3.232311 3.2287645
000070 76 c0 9b bf 26 57 bc bf 04 6e 10 c0 d7 cb 05 c0
       -1.216811 -1.4714096 -2.2567148 -2.0905664
000080 14 e6 0e c0 39 29 c7 bf b0 37 57 40 7a 1c 07 c0
       -2.2327929 -1.5559455 3.362774 -2.111113
000090 9d d5 0d c0 3a 8b f0 bf 38 3e d7 bf b4 7f c6 bf
       -2.216163 -1.8792489 -1.6815863 -1.5507722
0000a0 a3 fb ac bf e2 fb 0b c0 5d 6b c2 bf dd 75 0a c0
       -1.3514293 -2.1872487 -1.5189015 -2.1634438
0000b0 a2 d6 c0 bf 32 e3 f8 bf 25 63 ce bf 07 a8 c2 bf
       -1.5065501 -1.9444335 -1.6124007 -1.5207528
0000c0 b1 40 ed bf b0 8d 17 c0 e0 72 01 c0 4c 4c 0e c0
       -1.8535367 -2.368023 -2.0226364 -2.2234068
0000d0 57 e2 a7 bf c2 88 d6 bf 0f 32 d5 bf 5b 40 df bf
       -1.3115948 -1.6760485 -1.6655902 -1.7441515
0000e0 86 8b 38 c0 30 29 d2 bf 4b 63 de bf bf 04 ea bf
       -2.8835158 -1.641882 -1.7374052 -1.8282698
0000f0 57 23 06 c0 1c dc 66 bf 09 0a 19 c0 3d f6 e1 bf
       -2.095907 -0.9017961 -2.3912375 -1.7653271
000100 f4 da 9b bf 60 a3 e4 bf 76 4f d0 bf c0 b1 07 c0
       -1.2176194 -1.7862358 -1.627425 -2.120224
000110 4d 5c 13 c0 d7 7a 04 c0 8c 51 fb bf 92 b2 0a c0
       -2.3025086 -2.0699975 -1.9634261 -2.167149
000120 6c ec e1 bf 5c ac ff bf 61 30 13 c0 02 91 0d c0
       -1.7650275 -1.9974475 -2.2998278 -2.2119756
000130 2f 47 10 c0 91 4d f3 bf c2 56 03 c0 1c ed de bf
       -2.2543447 -1.9008046 -2.0521703 -1.741611
000140 2c 74 01 c0 74 a6 f0 bf 8b d1 10 c0 10 53 06 c0
       -2.0227156 -1.8800797 -2.2627895 -2.0988197
000150 e4 a1 66 40 dc ca 15 c0 d0 0f fc bf 25 a3 e7 bf
       3.603631 -2.3405066 -1.9692326 -1.8096663
000160 23 c2 09 c0 f1 49 09 c0 7f 12 00 c0 31 1e 1d c0
       -2.1524742 -2.145138 -2.001129 -2.4549677
000170 c0 3a d1 bf 3e b9 ef bf 04 bf 22 c0 ce f3 c3 3d
       -1.6346054 -1.8728406 -2.5429087 0.095679864
000180 19 c0 18 c0 0a 11 ea bf 43 ec e1 bf 2a 24 bb be
       -2.3867247 -1.828645 -1.7650226 -0.36551028
000190 9e bf 02 c0 16 ac 10 c0 db 3f de bf 13 c8 f3 bf
       -2.0429454 -2.2605033 -1.7363237 -1.9045433
0001a0 cf ea ff bf 65 10 00 c0 97 dc 15 c0 7e b9 d7 bf
       -1.9993533 -2.0010006 -2.3415887 -1.6853483
0001b0 27 99 08 c0 c2 32 ca be 26 f2 02 c0 44 b2 1b c0
       -2.1343477 -0.3949185 -2.0460296 -2.4327555
0001c0 b2 67 14 c0 cd 77 a0 bf 43 c5 11 c0 26 88 ed bf
       -2.318829 -1.253656 -2.277665 -1.8557174
0001d0 d1 d7 7c bf 8e 16 39 40 07 d5 4d 40 1b e8 e5 bf
       -0.9876681 2.8920016 3.2161272 -1.7961458
0001e0 55 a0 d5 bf fa 7a c4 bf 84 95 fc bf 56 04 a6 bf
       -1.6689554 -1.535003 -1.9733129 -1.2970073
0001f0 15 0e 9f bf f9 97 1c c0 eb 43 05 c0 7f 8e a7 bf
       -1.2426172 -2.4467757 -2.0822704 -1.3090361

fc2.weight f4 [128, 128]
000000 97 65 bc 3f be fa fe 3e 64 d6 02 40 3d 3c be 3f
       1.4718503 0.49800676 2.0443354 1.4862133
000010 21 d3 56 3e 56 19 c5 3e 8a fa 65 3f 5c c1 43 40
       0.20978977 0.38495892 0.8983542 3.0586767
000020 62 03 73 3f ec 2b 9e 3e 65 1b d1 3e 73 88 f0 3e
       0.94927037 0.30892885 0.40841213 0.46979102
000030 3b 5a d9 3e b2 9b e9 3f ea 81 34 40 23 8e 91 3f
       0.42451653 1.825064 2.8204293 1.1371502
000040 39 53 e0 3f 4b 42 08 3f d0 fc 2b 40 12 9c 1f 40
       1.7525398 0.53226155 2.6873055 2.4939008
000050 39 14 19 3e ab 36 8c 3e 7b 28 24 3f 5a fb a9 3f
       0.1494912 0.27385458 0.6412427 1.3279831
000060 15 bc da 3e f6 4c b5 3e 0a 89 06 be 47 05 e6 3d
       0.4272162 0.3541028 -0.13138214 0.11231475
000070 f3 74 11 40 c2 d7 ba 3f ee 5e 1e 3f 75 5a 0d 40
       2.272763 1.4597094 0.618636 2.208646
000080 84 39 d4 3f b3 3d 02 3f 60 1c e2 be bb 90 ad 3e
       1.6580052 0.50875396 -0.44162273 0.33899483
000090 a6 30 36 40 79 d7 0d 40 fe 77 20 40 da de 22 3f
       2.8467193 2.2162764 2.5073237 0.63621294
0000a0 9d 3a ab 3f e3 b6 0b 40 9c 16 fa 3f 23 c1 1c 40
       1.3377262 2.1830375 1.953815 2.4492881
0000b0 c9 20 d1 3e 16 a3 db 3f 67 3b da 3f 15 d3 43 3f
       0.40845326 1.7159145 1.7049378 0.7649396
0000c0 e9 c3 a7 3e 73 74 c2 3f 5c 7d dd 3f bd 73 80 3f
       0.32766655 1.5191787 1.7303882 1.003532
0000d0 f6 5e 16 40 4c 28 00 40 77 e6 1a 40 13 1b a2 3e
       2.349546 2.0024595 2.4203165 0.3166128
0000e0 57 11 2a 40 1a fe 49 40 09 06 c6 3e 31 53 58 40
       2.6573083 3.1561341 0.3867648 3.3800776
0000f0 50 a2 c2 3f 9b 50 13 40 35 e9 06 40 a2 2c 2a 40
       1.5205784 2.3017948 2.1079838 2.6589742
000100 7e 7d 05 40 5e 8b 7d 3e ae 02 c1 3f ce 94 08 40
       2.0857844 0.24760196 1.5078943 2.1340823
000110 40 06 40 3f 72 e4 e9 3e df f6 8c 3e 2e 2d 16 40
       0.75009537 0.45682102 0.27532098 2.3465075
000120 1c d9 0c 40 dc 8c e9 3f 0b 3d 19 40 f9 a4 0d 40
       2.2007513 1.8246112 2.3943508 2.2131941
000130 65 eb de 3f 74 72 1a 40 99 df e2 3f 06 cc 1a 3f
       1.7415587 2.4132357 1.7724487 0.60467565
000140 d6 49 53 40 e8 70 99 3e 3c 66 da 3f 9a a1 15 40
       3.3013816 0.29968953 1.706245 2.3379884
000150 bb bd 5f 3e dc 48 91 3f 6f d4 ed 3f 02 4f a3 3f
       0.2184972 1.135036 1.8580455 1.2758486
000160 85 6e ba 3f 8d 74 ff 3f 9c 12 47 40 d4 8d c0 3f
       1.4564978 1.9957443 3.1105108 1.5043283
000170 a7 cc be 3e 04 bb 1c 40 17 d5 46 40 b4 5c 40 40
       0.37265512 2.4489145 3.106756 3.0056581
000180 84 63 b5 3f 37 a4 91 3e 28 af 41 40 66 fc 32 40
       1.4170995 0.28445598 3.0263157 2.7966552
000190 b4 64 0e 40 e9 c3 df 3f fd ee ac 3f 36 a3 19 3f
       2.2248964 1.7481662 1.3510433 0.60014665
0001a0 48 95 ca 3e c2 b9 e8 3f f4 1d 40 40 d4 bc b9 3e
       0.39567018 1.8181689 3.0018282 0.36276877
0001b0 11 bc dd 3f 20 01 3c 3f 13 c4 05 40 14 45 c4 3f
       1.7323018 0.73439217 2.0900924 1.5333581
0001c0 48 dc d2 3f bb b0 0f 3f 6f b6 c0 3f a6 a7 37 3f
       1.6473475 0.56129044 1.5055674 0.71740186
0001d0 7b ae 35 40 c3 5e 0d bd b5 78 2c bc ee b5 bb 3f
       2.8387744 -0.0345142 -0.010526826 1.4664896
0001e0 94 4e 5a 40 ba 82 52 40 e7 94 25 3f d0 48 ce 3e
       3.411046 3.289229 0.6468033 0.40289927
0001f0 ad 46 d1 3f ae 68 ee 3f 30 ca bb 3f 00 19 e2 3e
       1.6349694 1.8625696 1.4671078 0.44159698
000200 5d d7 72 bf a2 88 b6 3e 91 9d 68 bf 4e ca 0e 3d
       -0.9485987 0.35651118 -0.9086543 0.0348609
000210 89 6c 16 40 53 73 85 bf 7c 5e 10 bf 45 40 48 c0
       2.3503745 -1.0425819 -0.5639417 -3.1289227
000220 ed a5 56 bf ff ea 82 bf f6 69 16 40 1c 0d 76 bf
       -0.8384693 -1.0227965 2.3502173 -0.96113753
000230 d6 3f 5d bf e4 5e 90 bf 7d 18 21 c0 7b 14 e4 3f
       -0.8642553 -1.1278958 -2.5171196 1.781875
000240 76 76 a4 bf 27 ac 0f be 82 91 a1 be a3 ec 1f c0
       -1.2848651 -0.14030515 -0.31556326 -2.4988182
000250 00 a0 11 40 74 b4 b7 bf 66 0e e5 3d 17 ba 5a bf
       2.2753906 -1.4351945 0.11184387 -0.854402
000260 a1 82 40 bf 3d 21 c4 bf ff 15 01 40 35 5d eb 3f
       -0.75199324 -1.5322644 2.0169675 1.838782
000270 8e 6e 26 3f db 10 48 bf b0 d3 f6 bf 5a 48 ca bf
       0.65012443 -0.7815072 -1.9283352 -1.580333
000280 cc 0d b2 bf 8a 53 48 bf 57 53 91 40 d5 cd 86 bf
       -1.391046 -0.7825247 4.5414233 -1.0531565
000290 16 6b 54 bf 98 90 c8 be ae 19 b7 bd 5b 14 90 bf
       -0.829759 -0.39172816 -0.08940445 -1.1256212
0002a0 51 b7 c1 bf 1f cc 66 bf aa c1 c2 be 14 50 b0 be
       -1.5134069 -0.90155214 -0.3803838 -0.34436095
0002b0 17 c5 63 be 9f 89 9d bd 33 d7 9e 3e 99 e9 26 bf
       -0.22243153 -0.07692265 0.3102356 -0.6520019
0002c0 3f 38 4e bf 7e 0e 30 3e 5d 7e 35 bf 44 71 a8 bf
       -0.80554575 0.17193028 -0.7089594 -1.3159566
0002d0 59 45 9f 3f 84 ca 18 3f d2 ee e8 3c 12 db 69 bf
       1.2443038 0.59684014 0.02843419 -0.913499
0002e0 51 3c 00 3f 5c 36 14 be af ef 9b be 24 b6 e3 3c
       0.50092036 -0.14473861 -0.30456302 0.027796812
0002f0 84 5a 8e 3d cb de 4a be c0 43 61 bf 25 40 00 3f
       0.06950858 -0.19811551 -0.87994003 0.50097877
000300 e1 6b 51 3f a1 16 a9 bf d6 fb 38 bf 56 43 42 bd
       0.81805235 -1.3210031 -0.7225927 -0.047427498
000310 f0 38 d4 bf 4f a0 1e bf 5d bf 3a bf 3d 02 99 bf
       -1.6579876 -0.6196336 -0.7294825 -1.1953808
000320 87 85 92 bf 2b 2a 10 c0 8b 03 61 bf 94 fe 8c bc
       -1.1446999 -2.2525737 -0.8789603 -0.017211236
000330 4d ad b7 3e fc 08 b4 bf de 50 e8 bf a3 fb 36 bf
       0.35874406 -1.4065242 -1.8149679 -0.7147772
000340 64 2c 0f 40 cc 4a 49 bf 82 7f 03 3e 37 35 6c 3f
       2.2370844 -0.78629756 0.12841609 0.922687
000350 2d b3 11 40 97 4c 14 c0 9c 58 a5 bf 14 04 42 bf
       2.276561 -2.3171747 -1.2917666 -0.7578747
000360 90 4a 28 bf 8a 27 c9 bf b9 e9 bc 3e e6 ea c1 bf
       -0.65738773 -1.5715191 0.36897066 -1.514981
000370 4f f1 21 bf 7d 82 b0 3f a7 4d 5a c0 3e 79 c1 bf
       -0.6325883 1.3789822 -3.4109895 -1.5115125
000380 1b 97 8f be 05 7a 89 bf ae 75 4a 3f cd 8a 1b c0
       -0.28044972 -1.0740362 0.79085815 -2.4303467
000390 b8 07 08 c0 6f 13 07 c0 0b 84 1e 3e c0 ce 3c bf
       -2.125471 -2.1105611 0.15480058 -0.73752975
0003a0 2a a5 d0 bf 81 63 a0 3f 93 16 2d c0 32 ed 90 bf
       -1.6300404 1.2530366 -2.7045028 -1.1322386
0003b0 cb c3 12 c0 8b 7f f5 bc 59 bc d5 bf ea 0d 0b c0
       -2.2932003 -0.029968044 -1.6698104 -2.1727242
0003c0 bc cd 3b bf bf a2 35 bf e2 10 b0 bf 2b 54 f1 be
       -0.733608 -0.70951456 -1.3755152 -0.47134528
0003d0 ee 31 79 bf a4 71 d8 3f 09 df 10 40 35 91 b0 bd
       -0.9734181 1.690968 2.263613 -0.08621446
0003e0 b2 28 3e 3f e9 c7 60 bf b8 36 41 bf 30 28 0e bf
       0.74280846 -0.8780504 -0.7547412 -0.5553007
0003f0 f4 38 e6 bf 48 d1 01 c0 e8 23 81 bf 08 7c 27 bf
       -1.7986131 -2.0283985 -1.0089083 -0.6542363

fc2.bias f4 [128]
000000 a1 20 df 3e 24 69 a2 40 fb f8 f5 bc d4 8a 4b c0
       0.4357958 5.0753345 -0.03002595 -3.1803484
000010 be 54 69 bf 5e 86 10 c0 1c af 58 c0 bd e6 aa bf
       -0.9114493 -2.2582011 -3.3856878 -1.3351666
000020 c0 c4 1e be d4 68 51 3f 97 dd 57 c0 0c 5c 94 bf
       -0.15504742 0.8180058 -3.3728998 -1.159059
000030 9d 42 e0 bf 9f d0 b3 bd 00 07 e8 bd a8 ad 27 c0
       -1.7520329 -0.08780026 -0.1132946 -2.6199741
000040 09 a3 f5 3e c9 66 86 bd f2 1e a4 3d 8b 2d 49 c0
       0.47975948 -0.065625735 0.08013715 -3.1434047
000050 bd d4 fe 3f 37 aa a7 bd a1 8b c9 bf 7d a6 bb 3f
       1.9908673 -0.08186763 -1.5745736 1.4660183
000060 de 42 17 3e a0 53 ea 3e 26 a2 ea bd e0 7c 30 c0
       0.14771602 0.45766926 -0.114567086 -2.7576218
000070 e3 38 9d bf 1d 70 8a bd 2d 0e 16 3f bc 85 78 bc
       -1.2282985 -0.06759665 0.5861538 -0.0151686035
000080 31 46 76 3f 3b dc fc 3f 75 4c 2e 3f 4b c4 c8 3e
       0.96200854 1.9754709 0.68085414 0.3921226
000090 ea a8 5a 3f f6 71 a6 bf 88 f4 c1 bd 73 b8 c2 3b
       0.8541399 -1.3003528 -0.09470469 0.005942398
0000a0 e2 6a 69 be 23 3a 8e 3c ee 6a 8b 3e 3f b5 4f c0
       -0.22794679 0.017361706 0.27230018 -3.2454374
0000b0 bd 4d 56 3c 39 dc aa bf 3a 37 1f bf c5 41 62 3d
       0.013080058 -1.3348457 -0.62193644 0.055238504
0000c0 77 33 53 3f cb 11 86 bd bf 64 82 bd 89 80 cf bd
       0.82500404 -0.065463625 -0.06366872 -0.10131938
0000d0 10 f5 4c c0 cc 89 f8 3e c2 a4 4e c0 bc 22 4b bd
       -3.2024574 0.4854263 -3.228806 -0.049593672
0000e0 4b e4 c4 bf f3 af 06 c0 aa 87 74 bc 66 c6 d4 3e
       -1.538217 -2.104489 -0.014924923 0.41557616
0000f0 49 71 b0 3f 39 b3 51 c0 a8 fd e9 3e 16 cd 49 c0
       1.3784572 -3.276564 0.45701337 -3.1531425
000100 cf ae 9e 3e f7 3a 34 c0 1b c6 28 c0 1f 9b 2e c0
       0.30992743 -2.816099 -2.6370914 -2.7282178
000110 97 ac d7 3d f2 b6 ca 3e 1b 23 3d 40 f0 9b 0e c0
       0.10530966 0.395927 2.9552677 -2.2282677
000120 1e cc f6 3e ce a8 e7 3e 23 f4 9f bd d4 3b 81 3d
       0.48202604 0.45245975 -0.07810237 0.063102394
000130 b1 0c f7 3c d6 61 50 c0 27 56 04 c0 9e ba 4b c0
       0.030157419 -3.2559714 -2.0677583 -3.1832652
000140 a5 2b 06 be ad 90 36 bf 9d e9 40 c0 4f 02 92 be
       -0.13102587 -0.7131451 -3.0142586 -0.28517386
000150 0c fa 43 c0 df 5a 6b bd d1 e4 f4 bf 7b c6 20 3f
       -3.0621367 -0.05745971 -1.9132329 0.6280286
000160 90 ce dc 3e 88 d7 04 3f 49 27 5f 3d ab e4 97 3e
       0.43126345 0.51891375 0.054480825 0.29666647
000170 ce 8e 67 bf e4 be 4c c0 5a 37 f5 3e b7 3a 44 c0
       -0.9045228 -3.199151 0.47893792 -3.0660837
000180 ec ab 2b c0 1f 1a 18 3f 60 88 4e c0 3a a7 05 bd
       -2.6823683 0.5941486 -3.2270737 -0.032630183
000190 ef 6c 04 c0 35 bc 24 c0 b9 cc 20 40 11 05 11 3f
       -2.0691488 -2.5739872 2.5124953 0.56648356
0001a0 d7 68 76 3d 7a 11 45 c0 24 55 a9 bc c0 cd 8d bd
       0.060158577 -3.0791917 -0.020670481 -0.06924009
0001b0 f6 61 43 c0 12 b0 a6 3e 67 3c 54 c0 4b b6 bc bf
       -3.052854 0.32556206 -3.3161867 -1.4743131
0001c0 85 32 24 bd 5a 12 cd bd 4d 8c 11 3f 43 2a 4c 3c
       -0.04008724 -0.10013266 0.56854707 0.012461248
0001d0 1f fa 87 3d 22 af 55 bd 01 6d 3e c0 c0 f1 63 bd
       0.06639504 -0.052168973 -2.975403 -0.055650473
0001e0 de 2d 9b bd d1 f6 f0 3e 2c 12 52 3e 51 45 22 3c
       -0.07577108 0.47063306 0.20514745 0.009904222
0001f0 19 03 90 3e 65 7b 00 c0 60 37 12 3f 43 8b 38 c0
       0.28127363 -2.0075314 0.57115746 -2.8834999

fc3.weight f4 [4, 128]
000000 cc 75 a9 3f cb 5c 27 41 32 43 ab 3f 59 ac 8b 40
       1.3239074 10.460155 1.3379881 4.3647885
000010 f9 b1 c8 3f 1f d4 ce 3f 7e d0 85 40 8f a5 b8 3f
       1.5679313 1.6158484 4.1817007 1.4425524
000020 dd 6c a3 3f b8 dd 9e 3f 99 fa 90 40 da a3 c0 3f
       1.2767597 1.2411413 4.5305905 1.5050004
000030 99 fd a2 3f 64 b2 6e bd 0f e9 de bc 01 41 e9 3f
       1.2733642 -0.058275595 -0.02721074 1.8222963
000040 4c 15 ac 3f d5 c0 d5 b9 87 9c b0 3f ae f5 60 40
       1.3443999 -0.00040770197 1.3797768 3.514995
000050 43 2d 3a 40 43 3f 9f 3d 02 43 a9 3f 78 b2 19 40
       2.9090126 0.07775738 1.3223574 2.4015179
000060 42 d8 a8 3f ca 22 af 3f 96 fa aa 3f 47 cd 14 40
       1.3190997 1.3682492 1.3357723 2.3250291
000070 52 df b1 3f 4f da 0a bd 29 74 a4 3f 8b b5 43 bd
       1.3896277 -0.0338996 1.2847949 -0.047780555
000080 62 d8 a0 3f 86 a4 b5 40 1c 0f ae 3f e4 af b4 3f
       1.2566035 5.6763334 1.3598361 1.4116178
000090 29 e8 a8 3f 6e e8 bc 3f 8b 8a 87 3a b9 f0 b0 bc
       1.319585 1.4758432 0.0010340972 -0.02159916
0000a0 e3 62 b2 3f 21 96 a5 3f 41 52 a3 3f b0 85 83 40
       1.3936428 1.2936441 1.2759477 4.1100693
0000b0 e4 81 c9 3d 22 10 bf 3f 2a 10 b4 3f 94 66 ae bd
       0.09839228 1.4926798 1.4067433 -0.08515659
0000c0 3f 09 a6 3f 24 72 ae 3f b7 6b 6e 3c f9 76 15 bd
       1.2971572 1.3628583 0.014552048 -0.036490414
0000d0 a2 89 89 40 e0 5b af 3f 89 92 8a 40 90 a8 8f 3d
       4.298051 1.3699913 4.3303876 0.070145726
0000e0 43 14 c5 3f 4c bc ca 3f 48 e6 2e bd 4a 9b a7 3f
       1.5396808 1.5838714 -0.042700082 1.3094265
0000f0 8a 30 73 3f b3 ec 86 40 a5 10 6e be e5 10 8e 40
       0.9499594 4.216394 -0.23248537 4.4395623
000100 0c 70 ae 3f df bf 37 40 73 a8 f8 3f 1b 6f 0d 40
       1.3627944 2.871086 1.9426407 2.2099063
000110 8e 91 ad 3f 77 ee aa 3f 7c 08 1b 3f ca 2f af 3f
       1.3560045 1.3354024 0.6055982 1.3686459
000120 1a e5 a7 3f d3 3b a5 3f 94 20 89 3c 38 b8 17 3d
       1.3116791 1.2908882 0.016739167 0.03704092
000130 db db a1 3f 5c 52 9f 40 77 71 cb 3f a1 6a 76 40
       1.264522 4.9788036 1.5894002 3.850258
000140 60 db 64 3d 5c 97 ae 3f 36 d6 7e 40 c1 06 b2 3f
       0.055873275 1.3639941 3.9818244 1.3908311
000150 a1 b7 8f 40 a8 7a 56 bc 39 4a bf 3f c8 26 ae 3f
       4.4911656 -0.013090767 1.4944526 1.3605585
000160 73 53 b8 be 5c 74 aa 3f 5d 53 9d bb b1 72 b7 3f
       -0.36001167 1.331676 -0.0048011974 1.4331876
000170 46 28 b4 3f 30 53 97 40 f1 a9 ab 3f fc 61 6e 40
       1.407479 4.7289047 1.3411237 3.7247305
000180 70 a4 e8 3f d5 ee af 3f a3 ab 8d 40 0d 1b 0b bd
       1.8175182 1.3744761 4.4272017 -0.033961345
000190 5e f9 cf 3f 73 91 0c 40 84 50 75 3f ea 5f ab 3f
       1.6247976 2.1963775 0.9582598 1.3388646
0001a0 26 a2 76 bd 56 a1 9b 40 51 01 8c 3d 32 e6 de 3d
       -0.06021323 4.8634443 0.068361886 0.1088375
0001b0 fe fb 64 40 8f aa af be 0c 6d 8a 40 34 b3 c3 3f
       3.5778804 -0.34309813 4.3258114 1.5289063
0001c0 42 61 c3 3b 13 52 66 3d e9 ab ac 3f 35 84 11 bd
       0.005962522 0.056230616 1.3489963 -0.035526473
0001d0 99 95 1b 3b 76 97 e4 3b d9 57 2a 40 1a 8c 29 bd
       0.002374029 0.0069760634 2.6616118 -0.041393377
0001e0 e4 d6 b4 3f 84 8a af 3f d1 81 b4 3f e1 89 0a 3d
       1.412808 1.3714147 1.4102117 0.033822898
0001f0 a2 5a aa 3f cb fe ad 3f a7 9d a0 3f bb 3f 13 40
       1.3308909 1.3593382 1.2548112 2.3007648
000200 a9 69 a5 3f bf b3 13 41 d4 cd ac 3f cd 1e 8c 40
       1.292287 9.231383 1.3500314 4.37876
000210 a4 2f b0 3f b1 a4 b6 3f 65 90 7f 40 33 7a 82 3f
       1.3764539 1.426901 3.9931881 1.0193542
000220 a6 ea ae 3f c8 85 bb 3f 01 b2 90 40 a6 77 90 3f
       1.3665359 1.4650202 4.521729 1.1286514
000230 bc 0d 83 3f b3 3a 21 bc a0 46 d3 bd 30 ab e8 3f
       1.0238566 -0.009840655 -0.10316205 1.8177242
000240 68 7c b7 3f 99 7a 95 3d 0b 3d 9f 3f 87 ef 53 40
       1.4334841 0.07298774 1.2440504 3.3114946
000250 72 bd 63 40 3f 1b 85 3d 8a 9a a0 3f a2 97 91 3f
       3.5584378 0.064993374 1.2547162 1.13744
000260 3d 39 ae 3f c2 4a b5 3f a8 da a2 3f ae e9 0e 40
       1.3611218 1.4163439 1.2722979 2.2330127
000270 0c 44 a0 3f 40 9f 8f 3d 8f b7 b9 3f fa 42 7d bd
       1.2520766 0.070127964 1.4509143 -0.061831452
000280 71 34 b6 3f 75 f8 9d 40 85 ee b0 3f d2 1a 9e 3f
       1.4234754 4.936579 1.382279 1.2351935
000290 52 96 b4 3f 06 2d 8c 3f a1 fd 62 bd 92 a1 95 3c
       1.4108374 1.095124 -0.05541766 0.01826552
0002a0 c5 b0 9f 3f 81 9a a3 3f 8e 05 9d 3f e1 d2 82 40
       1.2475821 1.2781526 1.226732 4.088242
0002b0 e3 cf 7e bd 80 43 7b 3f 9a a6 b2 3f fa e8 7b 3d
       -0.062209975 0.9814987 1.3957093 0.06150148
0002c0 b8 e4 b5 3f 63 60 9f 3f cf b8 87 bd ff 54 45 3d
       1.4210424 1.245129 -0.06627046 0.04817676
0002d0 0e 12 8e 40 d5 3e bb 3f d3 a3 79 40 85 c7 44 bd
       4.439704 1.462855 3.900624 -0.04804184
0002e0 9f 9a a1 3f 05 1b 72 3f f1 81 ba 3d b9 39 c2 3f
       1.2625312 0.9457248 0.091068156 1.5173866
0002f0 f5 5f ab 3f ff 62 7f 40 46 d1 06 be 12 13 8e 40
       1.3388659 3.9904172 -0.13165769 4.439828
000300 99 66 ab 3f 5a 62 28 40 28 e1 ea 3f 61 a2 0b 40
       1.3390685 2.631003 1.8349962 2.1817858
000310 4e 40 9f 3f c1 81 a6 3f b7 cb 0b 40 1e 6f a0 3f
       1.2441499 1.3008348 2.1843088 1.253391
000320 5c 8c ad 3f 4f 1d b7 3f 27 a7 a8 3d 6f 66 04 bd
       1.3558459 1.4305819 0.08235007 -0.03232425
000330 9e 5c b2 3f c5 98 a4 40 f2 93 89 3f a2 16 83 40
       1.3934515 5.1436486 1.0748274 4.096513
000340 14 10 39 3c 11 d8 a1 3f 9b a8 53 40 f0 82 8f 3f
       0.011295337 1.2644063 3.3071659 1.1211834
000350 67 28 82 40 0d 5a 1b bd a0 93 82 3f 7a 36 ac 3f
       4.067432 -0.037927676 1.0201302 1.3454125
000360 cf 3f 73 be bd 91 ac 3f 0f 68 6c bd 0a a3 03 40
       -0.2375481 1.3481976 -0.057716426 2.056826
000370 62 ec 9e 3f 7d 53 98 40 9b c9 a6 3f a3 0a 5d 40
       1.2415888 4.7601914 1.3030275 3.4537742
000380 fd 1b db 3f 35 46 b6 3f 04 40 88 40 a2 d3 38 3c
       1.7117916 1.4240175 4.2578144 0.011280926
000390 46 cc 74 3f ba af eb 3f 52 22 10 3f 47 2b aa 3f
       0.95624197 1.8413002 0.5630237 1.3294457
0003a0 c6 89 68 ba 4e 70 90 40 f4 2a d8 3c cc 2a 1e 3e
       -0.00088706275 4.513709 0.02638767 0.15446013
0003b0 ce 9e 65 40 8a cc ae be 65 96 7f 40 14 a7 9c 3f
       3.5878177 -0.34140426 3.9935544 1.2238488
0003c0 91 3c 23 3d 9e a3 27 bd ab 8b a1 3f 47 cf 07 bd
       0.039852683 -0.040927522 1.2620748 -0.03315666
0003d0 87 4c 42 bc 6e e5 32 bd 1d 8f 32 40 36 ea 2a bd
       -0.011859066 -0.043675832 2.789985 -0.041727267
0003e0 1b 80 b1 3f 77 2a b3 3f df d6 a5 3f 89 45 e2 3c
       1.386722 1.3997334 1.2956198 0.027621048
0003f0 f7 ae b0 3f f0 31 8a 3f a8 10 a8 3f 09 dc 0c 40
       1.3803395 1.079649 1.3130083 2.2009299

fc3.bias f4 [4]
000000 a8 16 4a bd d8 7b 9f 3f 6a 0f 1d 40 6d cb 5a 3e
       -0.049338013 1.2459669 2.4540658 0.21366663
