ai/models/dqn/trained_models/dqn_2048_300.pth (torch, 78975 bytes, 6 tensors)

fc1.weight f4 [128, 16]
00000000: 2001 b3bd eedb 46be aa6c af3c 8953 1bbc
00000010: 0902 99be dfb9 993d b401 143e 3e76 babe
00000020: 0e26 ca3e ad8c 19be 5036 0e3e 9035 0abe
00000030: 2ec5 eabd 6691 e73d 8763 de3e 94fe 303f
00000040: 7aaf 163f 7c36 5d3d bf7f 923d 3e51 02be
00000050: 791d 103f a079 81be 48b9 13be 2a7f 1e3f
00000060: f32b 83bf 3855 123f 0eec 0bbe d77f 4e3e
00000070: 3959 823e bb64 7fbe 4504 193f 826b fabe
00000080: f338 313e e35d fa3e 0b42 263f 3630 ea3e
00000090: 13ca c33e d864 4ebe 5a86 bc3e 51b4 903e
000000a0: b7c2 083f ef2a 963d e5ae 0abe debc a43e
000000b0: d99f c73e 86ff a83b 7b97 37be 7153 23bd
000000c0: fef7 adbe b194 27be f8d2 783e 40d4 bcbe
000000d0: 1101 023e d7d5 b73c b3f6 243f 7a33 86be
000000e0: 4f55 d63e e760 453d 4741 db3c bf57 d93d
000000f0: 7a1a 433e 0a37 00ba 59a6 ec3e ae77 5cbe
00000100: a133 003e fd7c 013e 4cf8 1e3f dccf 8f3e
00000110: 61ea 973c 1776 b23d 5d42 10bd 13d7 1e3f
00000120: 35bc febc dcac 613d 3db8 29be 6ecf 143f
00000130: e0d1 153e ab6f 6e3e c3a1 2a3d 2e30 ba3e
00000140: d95f a2be 43dd 9aba cdb4 0f3f 135b c93e
00000150: 2e10 acbe 6f58 943e b917 ebbc 8a0a 213e
00000160: 3db0 953e c485 d8bd 33ff 923e 78e2 003f
00000170: a8d1 c53e 46fd a8bd 5cbd d93e f754 123f
00000180: f228 e4be 69e2 353e da8a e73e cea0 12bd
00000190: 0cd0 813e 24a8 773e 3c49 0fbe 0a9a 083f
000001a0: ccb3 04bc 3e0f a83d fec2 14be 9fb3 963e
000001b0: de35 7a3e dc6b 2e3e a636 cc3e b72f de3c
000001c0: eea9 84be 560e b03e 5e61 273d d3e4 ab3d
000001d0: db3f 4a3d 14f4 1fbe edda 663e 4ac6 2b3f
000001e0: b3a6 ec3e a2c3 053d cc8f 8c3d ff44 8b3e
000001f0: e74e f53d 26b0 533e 4173 0fbd 4411 c83d
00000200: 2fa5 ac3d acc0 743d 185e 113f 6d4f e03e
00000210: b7ae a23e c137 c1bc 7f21 70bd d615 4f3e
00000220: 1a82 dc3c 7e47 00be ce8b ef3b e1e1 9c3e
00000230: efa2 adbd b498 043e 979e ca3e ce55 033f
00000240: 5e0e f83e bb44 883e 6972 113f 5f3d de3e
00000250: 4dc3 9c3e 9af1 c8bd 4799 5e3e a2d0 ff3e
00000260: a9ad d13e 2d97 c63d d6b7 283e a343 153f
00000270: 6107 033f 4abf ed3d 4a7b d63e 4157 da3e
00000280: 9c27 2abe 0de8 b23e eba0 ed3e 896b 193f
00000290: 10a8 f93e 9892 30be 73e2 0ebe 6deb db3e
000002a0: df53 ba3d 20b8 40bd 9e19 c33d 8ed8 f23e
000002b0: 4d9e 063e 79dd 65be 769a 43bd 8c81 9f3e
000002c0: be7b e2be f4c2 47bd 6e39 c73e 23ce 653e
000002d0: 4e85 b8be b96f 6dbe fdef 82bd a8bc 2e3d
000002e0: eaee f8bd 2ae3 14be 15e1 863e 251b 3b3e
000002f0: 6072 00bd bd16 713d 3eb1 793e 57a2 493f
00000300: 41ae b3be 16b4 8b3e ad7e f43d 805c e83e
00000310: 60c8 423d 1503 673e 8286 debd 31b0 9f3e
00000320: 9f3b e33e 2ea3 74be 3cc1 813e 41f9 033f
00000330: a6f5 233e 74d5 5bbe d29c 8d3e 8cb3 1c3f
00000340: f912 a23e d8c1 fa3e c757 b63e f872 0f3f
00000350: 2b38 7f3e deff b1bd 7d7f 053e d069 893e
00000360: 74a1 0c3f ab56 d2be ca47 273e 4be7 153f
00000370: 1f53 f93e 787b a4bd 081b b23e 1adb 153f
00000380: cdae de3e 8431 8e3c e891 fa3e 8c84 033f
00000390: 876e bd3e 9194 5c3c 167a ce3e f36e 2f3f
000003a0: 4387 db3e 614c c7be 2e16 333e ca97 4f3e
000003b0: 4a77 913d 930c 8a3e c1fb 2b3e 005e 0e3f
000003c0: 769b ec3e eeef e83e c71d 163f ef1e 713d
000003d0: 4326 0c3e 905a 54bd 2b7a b73e 0c9f 3e3f
000003e0: abac 9c3d 2d32 d03d 2511 373e b625 d03e
000003f0: 077e 0fbe 965b 1abe f6fc eebd aee3 f33e
-0.08740449 -0.19419834 0.02141412 -0.009480366 -0.29884365 0.07506155 0.14453775 -0.36418337
0.39482158 -0.1499507 0.13887906 -0.13496995 -0.1146339 0.113070294 0.43435308 0.69138455
0.58861506 0.05400704 0.07153272 -0.12726304 0.5629497 -0.25288105 -0.14426148 0.61912787
-1.0247787 0.57161283 -0.13664266 0.20165955 0.25458696 -0.2494077 0.5977214 -0.48910147
0.1730688 0.48899755 0.64944524 0.45739907 0.38240108 -0.20155656 0.36821252 0.2826257
0.5342211 0.07332408 -0.1354328 0.32175344 0.38989142 0.005157414 -0.17928879 -0.039874498
-0.33978266 -0.16365315 0.24299228 -0.36880684 0.1269572 0.022440834 0.64438933 -0.26211149
0.4186196 0.048188116 0.026764525 0.10612439 0.19053069 -0.0004891014 0.46220663 -0.21530029
0.12519695 0.12645335 0.6209762 0.28088272 0.018544378 0.0871393 -0.03521954 0.6204693
-0.031095603 0.055096492 -0.16574188 0.5812901 0.14630842 0.23284785 0.041658174 0.36364883
-0.3171375 -0.0011815209 0.56135255 0.39327297 -0.33606094 0.2897372 -0.028697835 0.15726677
0.29236022 -0.10572389 0.28710327 0.50345564 0.38636518 -0.08251433 0.42527282 0.57160896
-0.4456249 0.1776215 0.45223123 -0.035797887 0.2535404 0.24185234 -0.1399278 0.53360045
-0.008099508 0.08206032 -0.14527509 0.29433915 0.24434611 0.17033333 0.39885443 0.027122362
-0.25910896 0.34385937 0.04086434 0.08393254 0.049377304 -0.15620452 0.22544451 0.6709944
0.4622093 0.032657273 0.068633646 0.27201077 0.1197794 0.20672664 -0.035022024 0.09768918
0.08429944 0.05975406 0.567842 0.43810597 0.31773922 -0.023586156 -0.058625694 0.20223173
0.026917506 -0.12527272 0.007310367 0.30641082 -0.08478343 0.12948877 0.3957412 0.513028
0.4844846 0.26614937 0.568152 0.43406197 0.30617753 -0.09811707 0.21738158 0.49963862
0.40952805 0.09696803 0.16476378 0.5830633 0.51183134 0.11608751 0.41890937 0.42644694
-0.16616672 0.34942666 0.46411833 0.5992971 0.48761034 -0.17243421 -0.13953571 0.42953053
0.090980284 -0.047050595 0.095263705 0.47430843 0.13146324 -0.22447766 -0.047754727 0.31153524
-0.44235033 -0.048769906 0.38911003 0.22441916 -0.36039203 -0.2318715 -0.063934304 0.042660385
-0.12154944 -0.14539781 0.263436 0.18272074 -0.031359076 0.058859576 0.24384019 0.78763336
-0.35093883 0.27285832 0.11938224 0.45383072 0.047554374 0.2255977 -0.10865499 0.3118911
0.44381425 -0.23890373 0.2534274 0.51552206 0.16011676 -0.21468145 0.27658707 0.61211467
0.316551 0.48976016 0.35613844 0.56034803 0.2492377 -0.08691381 0.13036914 0.2683854
0.5493386 -0.41081747 0.16335979 0.5855605 0.4869623 -0.08031362 0.34786248 0.5853745
0.43492737 0.017357595 0.48939443 0.51374125 0.36998388 0.013463155 0.4032752 0.6852867
0.42876634 -0.3892546 0.1748893 0.20272747 0.07102831 0.26962718 0.16795255 0.5561218
0.46212357 0.45495552 0.58639187 0.05886739 0.1368647 -0.05184418 0.35835394 0.74461436
0.07650121 0.1016582 0.17877634 0.4065377 -0.1401292 -0.15074 -0.11669342 0.47634643

fc1.bias f4 [128]
00000000: c3f9 2cc0 d1d2 cdbf 6ea2 a8bf 9c9c 26c0
00000010: f262 e6bf 83d0 f2bf 2c7e 02c0 af5c d7bf
00000020: 0cd9 f0bf 7808 93bf 4b97 85bf 7347 08c0
00000030: cc0e b2bf 2a5b 5abf 687f 9fbf 2284 b3bf
00000040: 08eb 2ec0 d51a 88bf 9702 a4bf 5a36 22c0
00000050: 35e9 cdbf f356 4fbf c0ff 86bf 3358 d9bf
00000060: 08d2 e7be 64dd 8bbf cf29 2fc0 e1ac 8bbf
00000070: 1701 10c0 42c0 d9bf a39f b0bf 54de 78bf
00000080: 232f c7bf 1a50 04c0 55e2 b5bf 60a6 e7bf
00000090: fe00 b0bf fa33 3abf 0309 f4bf 203b 27c0
000000a0: 7eb4 b3bf b1be f6bf 4c5f 72bf 0a7f 0ec0
000000b0: b0cf 0ebf fd8c aabf ae49 04c0 bbe2 0ac0
000000c0: 57af 00c0 e06b 0ec0 af75 12c0 3cbc e2bf
000000d0: 8254 25c0 0974 24c0 16ea c1bf f802 19c0
000000e0: 3834 f7bf ca83 fbbf e43d 91bf 8591 8abf
000000f0: 3f29 a340 b5fd 15c0 838f ccbf dcb0 06c0
00000100: 62f1 25bf 8e2a 16c0 5cf0 ecbf 3c20 10c0
00000110: 7a34 01c0 d8ce 92bf e5ec 4340 bf73 8ebf
00000120: eda2 febf 8a26 11c0 f242 e0bf 1a9a 78bf
00000130: f628 eabf e594 ebbf a522 fcbf bb63 51bf
00000140: d0b6 a7bf 996a 29c0 40d7 efbf 5282 1ac0
00000150: ee70 22bf f1d1 34c0 bf01 1ac0 4b18 1ac0
00000160: b611 02c0 2f21 0cc0 3df2 08c0 3a55 98bf
00000170: 455c 1ec0 e82a f7bf 6020 e63f ced0 97bf
00000180: fde4 b1bf 0f0c 05c0 2291 d7bf 560a a4bf
00000190: f232 08c0 f1e2 82bf 2594 25bf e1cc a9bf
000001a0: 5fdb edbf 64d6 debf 31c1 16c0 4a68 d9bf
000001b0: 9a1b 9440 2547 0bc0 ddb6 e7bf f3b4 05c0
000001c0: 7c04 7ebf e2a1 17c0 a419 1b40 7b50 22c0
000001d0: 5b8a 02c0 96bc dfbf 74e1 b8be facc f7bf
000001e0: e9da 9040 e25c d0bf 509b 8cbf 3439 33bf
000001f0: 7be2 26c0 1cbc 06c0 dcc8 22c0 11b5 89bf
-2.7027442 -1.6079961 -1.317457 -2.6033087 -1.7998946 -1.8969883 -2.038951 -1.682516
-1.8816237 -1.148696 -1.0436796 -2.129361 -1.3910766 -0.85295355 -1.2460756 -1.4024699
-2.7330952 -1.0633188 -1.281329 -2.5345674 -1.6086794 -0.8099205 -1.0546799 -1.6980041
-0.4527743 -1.0926938 -2.7369268 -1.0912133 -2.2500665 -1.7011797 -1.3798717 -0.97214246
-1.556126 -2.067389 -1.4209696 -1.8097649 -1.3750303 -0.7273556 -1.906525 -2.6129837
-1.4039457 -1.9276944 -0.9467666 -2.2265038 -0.55785656 -1.3324276 -2.066997 -2.1700885
-2.010702 -2.2253342 -2.2884328 -1.7713695 -2.583283 -2.5695822 -1.5149562 -2.3908062
-1.9312811 -1.9649594 -1.1347013 -1.0825659 5.098785 -2.34361 -1.5981296 -2.1045446
-0.64821446 -2.3463473 -1.8510852 -2.2519674 -2.018828 -1.1469374 3.061334 -1.1129073
-1.9893471 -2.2679772 -1.752043 -0.9711014 -1.829375 -1.8404814 -1.9698073 -0.817928
-1.3102665 -2.6471312 -1.8737564 -2.4142041 -0.6345357 -2.8253138 -2.4063566 -2.4077327
-2.032331 -2.1895254 -2.139785 -1.1901009 -2.4743817 -1.9309969 1.797863 -1.1860597
-1.3898007 -2.078861 -1.6841166 -1.2815654 -2.1281095 -1.0225507 -0.64679176 -1.3265649
-1.8582572 -1.7409177 -2.3555415 -1.6984951 4.6283693 -2.1762173 -1.810268 -2.0891693
-0.9922559 -2.3692555 2.42344 -2.5361621 -2.0396945 -1.7479427 -0.36109507 -1.9359429
4.5267224 -1.6278346 -1.0984898 -0.7000916 -2.6075733 -2.1052313 -2.5435095 -1.0758382

fc2.weight f4 [128, 128]
00000000: 6d2c 83bc 6ab1 7a3d d2e4 6abc 10df 8abc
00000010: f210 98bd 474d 7ebd 79f5 b3bd 3aac b8bc
00000020: f412 dfbd 4143 3c3c 005a 7e3d 04cd 3d3d
00000030: 7b56 b5bc 7a28 11bd 41d3 ddbd fdf7 bcbd
00000040: f4cd 8fbc bb2b 2d3d 373f 89bd 4bb4 56bd
00000050: 362a 90bd b00c bfbc 8be1 95bd 88df fbbc
00000060: 637f 34bd b7fb 57bd 3546 0dbd 8c9e c5bd
00000070: 9871 9abc 2a6a 83bd 02c3 1cbd ca57 73bc
00000080: ead2 5cbd e56b 863c d5bb 113c 116f 5fbd
00000090: d6e4 adbc 182f 97bd e2d0 c33c b135 e3bd
000000a0: d8b1 e5bd b89f ccbd e974 8ebc 1d59 8bbd
000000b0: 3736 9cbd 2422 173c 607b 77bd 269c c7bd
000000c0: dd28 343d 1d96 13bd 81f2 8e3c e9d1 b13c
000000d0: aa49 6a3d a2ef 1a3d f69b e73c 9259 a23b
000000e0: 8202 873d aa0b 133d 125a 4d3d ffe3 a7bd
000000f0: 23ef 4b3c cbb5 2ebd 4c0b f7bd de07 cdbc
00000100: 70ae f33c c578 c4bd be80 f23c 9758 b63c
00000110: 548e 2c3d c633 d8bc 420b c63b cf3a 21bd
00000120: 9553 b83b c710 723d 452d 783b f2cc d6bd
00000130: 6b75 24bd 00f1 e73b f2ea d1bd a36e 8ebd
00000140: 9384 84bd 4ab9 9dbd 8968 dcbd b649 9abd
00000150: c8ae 94bd 63b0 e1bd d5ed 75bc 6f93 59bd
00000160: 38d2 7ebd c1b1 b83c 34de 17bd 5819 3fbd
00000170: 088d 62bd 4e1b b9bd 000d afbb 2c25 803d
00000180: 2b3b d4bc 4c65 63bc 9162 b43c 75f6 e2bd
00000190: 82c8 24bd 8bf3 acbd 4c26 293d 1e67 63bd
000001a0: 00d1 a7bc af77 d3bd b6a5 89bc d224 72bd
000001b0: f3fc e3bd 1327 1fbd 3f43 e33c 46f5 14bd
000001c0: 534f 49bc daac b6bc 862f 903d 21a1 583d
000001d0: 3a50 94bd 2e20 4fbd c290 863c b512 adbd
000001e0: 4042 93bd 0cf2 e7bd 7988 f5bd d934 88bd
000001f0: 9ba4 51bc 4c9a 82bd 573e 4cb8 1667 a0bd
00000200: 9324 b63f fd9b a43f a8b0 933e 6db4 9d3f
00000210: a8cf e53e c8e0 c13e 80f7 d83e 1826 8c3e
00000220: 2a55 1c3f 7d1e ca3e af3a 9a3e 6d0e 7b3f
00000230: 9789 a53e 753d e73e d75e c73e 0507 bf3e
00000240: 91c1 2f40 692a 9f3e a664 8c3e 5d29 af3f
00000250: 3a02 a03e 8284 c33e 06e5 3440 6f8d bf3e
00000260: f1d8 2540 7b30 f03e c32d 1340 0e59 0140
00000270: 4b9a 0840 3c21 3840 b379 e13e 8fe2 7d3e
00000280: b41b b53e 18d5 a63f 3eb7 b43e 1b50 b03e
00000290: a355 133f 2984 993e a22c b33e aa57 f23e
000002a0: 0e78 be3e 6d67 843e 694f d53e 7b5b 1d40
000002b0: 1a58 bd3e 41a1 c93e 3675 c43e c8eb f43f
000002c0: 494b 1340 e5f1 c13e f79c 563f 5097 0440
000002d0: 7b2a be3f 5048 0a40 2c36 883e 3415 1b40
000002e0: 63d8 f33f b703 c33e eeb3 9b3e 0bfc 913e
000002f0: 1e2c 42be 2884 7b3f f41d d83e 6590 2540
00000300: c9e1 c13e 6534 0f40 9216 ac3e bceb fc3f
00000310: 58cd d83e ead9 9f3e 0086 30bf 3467 1f40
00000320: 246f 2f40 42c4 b23e 712c 843e 74fc 9e3e
00000330: b70c 3540 e508 3740 b0f0 a63e 81d5 cb3e
00000340: e5df c13e 9232 0840 f447 af3f a9b2 c63f
00000350: 1b9e cb3e 77c8 3340 ac9e 4740 cbbf e83e
00000360: 4e2a c73f 55cb 5340 e092 003f 66dc 8e3e
00000370: 2f4a 1440 0d71 0c40 10cd 86bf 3bf1 c03e
00000380: 4f9c bc3e 2d85 823f 02e3 593e 20f5 633e
00000390: d709 b93e 2453 e03e 22fc 083f 443b c13e
000003a0: 17a9 5e3e b710 b03e 6f16 f73f e0ed b93e
000003b0: af37 c2bd 71c4 2b40 e160 ab3f 6e7b ed3f
000003c0: 3fbe 063f a120 d93f 091a 18bf 41ff 2f40
000003d0: 9c4a d63e 1bfb e73e bd03 7640 5c70 f23f
000003e0: 1d62 2abe 168e ac3e f77f 2e40 593b d13e
000003f0: 1e42 3a40 ff28 483f 2281 3f40 9e32 b73e
-0.016012395 0.06120435 -0.014336782 -0.016952068 -0.07425107 -0.062085416 -0.087870546 -0.022543062
-0.10892287 0.011490644 0.06209755 0.046338096 -0.022135964 -0.035438992 -0.10831309 -0.092269875
-0.01755426 0.042278033 -0.067015104 -0.052418035 -0.07039301 -0.02332148 -0.073184095 -0.030746236
-0.044066798 -0.05273029 -0.034490783 -0.09649381 -0.018852994 -0.064167336 -0.03827191 -0.0148524735
-0.05391208 0.01640887 0.00889488 -0.05454928 -0.021227282 -0.07382029 0.023903314 -0.11094225
-0.11215562 -0.099914014 -0.017389731 -0.068041064 -0.07627528 0.009224448 -0.060420394 -0.0974658
0.043984283 -0.03603183 0.01744962 0.021706538 0.057199158 0.037826188 0.02827261 0.0049545253
0.06592275 0.035899796 0.050134726 -0.08197784 0.012447151 -0.04265384 -0.120627016 -0.025028165
0.029746264 -0.095933475 0.029602405 0.02225904 0.042127922 -0.026391875 0.0060438225 -0.039362725
0.005625198 0.05909803 0.003786878 -0.10488309 -0.04015104 0.00707829 -0.102498904 -0.06954696
-0.06470599 -0.07701357 -0.10762126 -0.075335905 -0.072598994 -0.11019971 -0.015010317 -0.05311912
-0.0622122 0.022545697 -0.037077144 -0.04665503 -0.05531028 -0.09038411 -0.005342126 0.0625709
-0.02590712 -0.0138791315 0.022019656 -0.11082164 -0.04023028 -0.0844489 0.04129629 -0.055518262
-0.020485401 -0.10325562 -0.01680265 -0.059117146 -0.111322306 -0.038855623 0.027742026 -0.036366723
-0.012286979 -0.022299219 0.070403144 0.05288804 -0.072418645 -0.0505678 0.016426448 -0.08450834
-0.071903706 -0.11325464 -0.11988921 -0.06650705 -0.012795593 -0.06377086 -4.869545e-05 -0.07832162
1.4229912 1.2860104 0.28845716 1.2320687 0.44884992 0.37866807 0.42376328 0.27372813
0.6106745 0.39476386 0.30122897 0.98068887 0.32331535 0.45164075 0.38939545 0.37310043
2.7461894 0.31087044 0.2742054 1.3684498 0.312517 0.38187033 2.8264785 0.37412593
2.591366 0.46911988 2.299668 2.0210605 2.1344173 2.8770285 0.44038162 0.24793456
0.35372698 1.3033781 0.35296053 0.34436116 0.57552546 0.29983643 0.3499499 0.47332507
0.3720097 0.25860158 0.41662148 2.4587085 0.3698128 0.3938084 0.38370675 1.9134455
2.30147 0.37879863 0.8383326 2.0717354 1.4856714 2.1606636 0.2660383 2.4231691
1.9050411 0.38088772 0.30410713 0.28512606 -0.18962142 0.9824853 0.42210352 2.5869381
0.37867573 2.237573 0.3361097 1.975944 0.42344165 0.31220943 -0.6895447 2.490674
2.7411585 0.34915358 0.25815156 0.3105198 2.828901 2.8599179 0.32605505 0.39811328
0.3786613 2.1280866 1.3693833 1.5523273 0.39769062 2.8091104 3.1190596 0.45458826
1.5559785 3.3092854 0.50224113 0.27902526 2.3170278 2.1944 -1.053133 0.37684044
0.36838004 1.0196892 0.21278003 0.22261477 0.3614032 0.4381343 0.53509724 0.3774053
0.2174419 0.34387752 1.9303721 0.36314297 -0.09483277 2.6838648 1.338894 1.8553293
0.5263404 1.6963083 -0.59414726 2.7499545 0.41853797 0.45308766 3.8439782 1.8940539
-0.1663899 0.33702153 2.7265604 0.4086559 2.9102855 0.78187555 2.9922566 0.35780805

fc2.bias f4 [128]
00000000: b726 84bd f0be 26bf 7e19 b1bd 7fea 15bf
00000010: d6d0 373d 0385 7bbd 31b5 8f3d 9635 f7bc
00000020: 1248 a8bf 3041 34bf d441 07bf e34f 3abf
00000030: 026b 48bf c56b 6cbf 7028 d0bf 6b5d 2bc0
00000040: 2091 45bf 9782 f8be 13ba fdbc 3bd7 c5be
00000050: 6896 1ebd 005f babe 842b 87bf 02e7 6cbf
00000060: bbf9 75bf b8f1 9bbf bb0c ccbe 0060 2f3f
00000070: f5a1 b9be e398 6abf ca0c 11bf 87b0 94be
00000080: dcc9 c1be 5f55 e1be 7461 0040 8183 85bf
00000090: 8c95 f8bf a83d acbf 6ad4 2fbf ad86 36bd
000000a0: 5866 c1be 9753 9fbd 6e2b 8ebe cd56 aabe
000000b0: 52e9 96bf 3674 19bf cd21 c1be c7e7 493d
000000c0: fe43 49c0 75a4 1dbd 689b 64bd dcf7 0240
000000d0: 7a94 733d 454b 4dbf c9be 34bf 280b 41bf
000000e0: c0bb 90bb 114c 80bf 422f a3bf f2cc 50bf
000000f0: 365c 14bf d188 86bf abf5 16c0 acd0 f6bf
00000100: 2024 69bf 2075 43bf 0c7a bfbf 467e 15bf
00000110: 5de3 183d 77d2 8c3f 4659 65bf 5a5a b6bf
00000120: c98f cfbc 0407 01bf 2d43 a1be 0bfb afbd
00000130: 8684 873f 7779 59bf a188 2dc0 60b6 73bd
00000140: f214 643d 9372 09bd 5fba cdbe 97a1 38bf
00000150: d323 f03f 3948 4bc0 e5f8 e73f 94eb 46bf
00000160: 6a44 2bbf eb78 9cbe 7414 b2bc 9504 f1bc
00000170: 02e5 08c0 078f 3bbf ccc8 14bf b0bc 86bf
00000180: 5f72 65bd c88a 0dbf 2e7b 35bf dde9 14bf
00000190: 3194 bcbd 021e e33f 1fb9 8dbf 2836 59bd
000001a0: 8cac 3bbf 9cdb 27bf 848a d6bc 4a98 91bd
000001b0: c2ea cabe 361c b53f a0f7 b3be 644c 4bbe
000001c0: f0d8 aabd 2d68 8ebf c141 32c0 f3bf 54bf
000001d0: 4d35 11bf d28f e5be b1c8 4abf 3e1a efbe
000001e0: 20cb 04bf 5ada ffbc c648 92bd e542 9e3c
000001f0: 8433 08bf 9a7e 40bf 16b3 ccbf 3042 21bf
-0.06452697 -0.651351 -0.086474404 -0.5856094 0.044876896 -0.061406147 0.070169814 -0.030176919
-1.3146994 -0.7041197 -0.5283482 -0.7277815 -0.7828828 -0.92351943 -1.626234 -2.6775768
-0.7717457 -0.48537132 -0.030972516 -0.3864077 -0.038717657 -0.36400604 -1.0560155 -0.9253999
-0.96084183 -1.2183142 -0.39853463 0.6850586 -0.36256376 -0.91639537 -0.5666014 -0.2904093
-0.3784932 -0.44010445 2.005948 -1.0430757 -1.9420638 -1.3456316 -0.68683493 -0.04456203
-0.37773395 -0.07779615 -0.2776751 -0.3326935 -1.1789954 -0.5994295 -0.377211 0.049293306
-3.144775 -0.038486917 -0.05581227 2.0463781 0.05946777 -0.8019298 -0.70603615 -0.7540765
-0.004416913 -1.0023214 -1.2748797 -0.8156272 -0.579532 -1.0510503 -2.3587444 -1.9282432
-0.9107075 -0.76350594 -1.4959121 -0.583958 0.037326206 1.1001729 -0.89589345 -1.4246323
-0.025337117 -0.5040133 -0.31496564 -0.085928045 1.0587318 -0.84950966 -2.7114642 -0.0595001
0.055684038 -0.033556532 -0.40181252 -0.72121567 1.8760933 -3.1762831 1.8122832 -0.77703214
-0.66901267 -0.30561003 -0.021738268 -0.02942113 -2.1389775 -0.7326512 -0.5811889 -1.0526333
-0.056017276 -0.5528989 -0.7089108 -0.5816935 -0.09207953 1.7743533 -1.107212 -0.053030163
-0.7331016 -0.6556947 -0.026189096 -0.07109125 -0.3963223 1.4149234 -0.3514986 -0.1985336
-0.08342159 -1.1125542 -2.7852633 -0.8310539 -0.56721956 -0.4483629 -0.7921248 -0.4669971
-0.51872444 -0.031232048 -0.07142787 0.019319007 -0.53203607 -0.7519318 -1.5992153 -0.6299162

fc3.weight f4 [4, 128]
00000000: 1960 203d 802a 5e3f 6c40 40bd 3044 713f
00000010: 5203 363d aac8 85bc d3f2 2abd c332 0cbd
00000020: 63d2 413f b8be 5f3f 5233 4d3f b373 303f
00000030: 636e 463f 7627 513f fa08 333f 3032 953f
00000040: a546 5d3f ec6a 5a3f ca6a 45bd 87b7 5e3f
00000050: ef5f 1837 16dc 4f3f 15bd 713f 0e26 593f
00000060: 3bc8 443f 982b 3b3f fcfd 593f f3bd 523f
00000070: 12de 323f d643 413f 7427 673f 9daf 493f
00000080: 0c84 5d3f 9b49 383f 532d f6be 711e 493f
00000090: b5a4 c33f b74d 533f ae0d 333f 917c 0abd
000000a0: 83ed 513f 048a 123d 8e11 503f 622f 5b3f
000000b0: 69e9 623f 862f 4e3f f754 5f3f 5900 79bb
000000c0: 2d77 a43f 69f2 32bd db91 5abd 8bd4 4040
000000d0: a0cf 333c 14f7 513f ffe1 5f3f d36f 373f
000000e0: 6978 843d 38cb 3b3f 4f95 613f 95f5 533f
000000f0: ace8 643f 28b1 493f a692 3f3f 903f 6a3f
00000100: 3ee8 533f b698 613f 2d26 643f 2582 583f
00000110: 4eeb 9b3d ebb3 1140 b9f4 673f 4e1d 4b3f
00000120: 9535 86bd f3fd 543f 5a11 5a3f 53b2 133d
00000130: f6a2 aa3f 791c 433f 1fd8 463f b2b5 9ebc
00000140: 96bc febc eec3 cebc ffbe 4b3f b808 2e3f
00000150: 16ad 4040 1c89 cf3f a465 2c40 fb4c 3f3f
00000160: 9d44 373f e811 583f 454e 1b3b 2043 aabc
00000170: 5dbc 413f b3fa 343f b7e3 643f 385a 3c3f
00000180: 27ef f23c 25cf 3c3f 06ff 5a3f 7f97 5b3f
00000190: 530c 64bd e2a8 4d40 ff1c 503f b344 44bd
000001a0: 8917 383f 96ff 373f dde9 ac3d 3944 94bd
000001b0: 5341 593f 0c6f 423f d4e1 353f 2d47 5a3f
000001c0: cdf8 81bd 78d2 613f f94f 5d3f f105 343f
000001d0: b34a 2e3f f379 603f 5d6f 4c3f e083 633f
000001e0: 312e 413f efda db3c be87 febb fe88 453c
000001f0: 9075 633f 560d 443f 6a5e 7c3f f076 513f
00000200: 80b2 ebb9 b076 303f e0b4 4c3c 70cc 183f
00000210: 1b07 59bd 12d5 62bd 72f5 7fbd 5b2e 17bc
00000220: b600 383f bf1c 2c3f 5153 3d3f 07ba 493f
00000230: 85ea 2e3f e730 503f 966a 503f f6ab 653f
00000240: 13f5 403f 4303 3e3f 483c 3d3d da0d 483f
00000250: 1c22 20bd 90cb 433f 82b6 293f 02d1 2e3f
00000260: 3045 303f 602f 4b3f a52e 523f 540a ae3f
00000270: 98de 513f d902 443f 5c8d 253f a99b 5c3f
00000280: d518 553f 40b6 563f be69 0c40 2372 3e3f
00000290: 2b96 d43f e1eb 2b3f 741d 523f bf3e 5d3c
000002a0: 1afa 533f f906 95bc ebcb 583f 99ed 4f3f
000002b0: 998c 293f f2e2 383f 6b61 3c3f c56f 16bc
000002c0: 27d6 9c3f b1c6 0fbb 9ff4 0e3b 7006 7f40
000002d0: 70a6 6c3c a53c 2e3f ee9c 2f3f e833 383f
000002e0: 20a0 afbb 77da 2e3f 170f 2f3f 5ebc 2f3f
000002f0: 0d1b 2b3f 2aba 203f 9521 4b3f c215 3c3f
00000300: 57d6 2c3f e350 3d3f 3619 253f 875f 3f3f
00000310: bc3d d83b 47c7 1c40 51d5 353f 3864 203f
00000320: 47d1 57bb b48b 3c3f 55b1 513f 0cba cfbc
00000330: 9189 8b3f 8b2e 323f 56bf 703f f1eb a03d
00000340: 2e8d 83bd 8111 3c3b 959f 393f 8441 503f
00000350: f04c 8c40 5ed5 c23f 8b02 6a40 c8d9 4b3f
00000360: 1e9f 553f 5e1f 523f 8c5a 41bc 2040 44bd
00000370: 3a13 333f 72a1 443f d86c 383f 4d6f 4d3f
00000380: d734 bcbc 8e56 4c3f a810 473f 8b3d 2a3f
00000390: fa2d 67bd 068a 7740 90f2 2e3f 3439 b33c
000003a0: cfdd 313f 8146 593f c8ea 1e3c 0877 f73b
000003b0: 17d7 473f e7fc 343f c047 583f a4d1 563f
000003c0: 23b0 ee3c e74e 203f fb19 823f ecd2 3f3f
000003d0: ea65 533f 2312 353f 4cdf 453f ffd5 323f
000003e0: eb0a 4e3f 626b 5e3d 6af3 09bd 85ac 163d
000003f0: 2c0f 2c3f 0598 513f 7558 a23f 566f 553f
0.039154146 0.867836 -0.046936437 0.9424467 0.04443676 -0.016331036 -0.04173548 -0.034228098
0.7571165 0.8740039 0.80156434 0.68926543 0.77512187 0.8170084 0.6993557 1.1655941
0.8643592 0.853194 -0.048197545 0.8699879 9.082242e-06 0.811952 0.9442914 0.8482369
0.7686803 0.73113394 0.85153174 0.8232109 0.698701 0.75494134 0.90294576 0.7878359
0.8652961 0.71987313 -0.48081455 0.78562075 1.528464 0.8254046 0.6994275 -0.033810202
0.8200304 0.035776153 0.81276786 0.85619175 0.88637406 0.80541265 0.8723902 -0.0037994592
1.284887 -0.04368821 -0.053361755 3.0129726 0.010974795 0.82017636 0.8745422 0.71655005
0.06468279 0.7335696 0.8811845 0.82796603 0.8941753 0.78785944 0.7483314 0.9150324
0.8277625 0.88123643 0.8912075 0.84573585 0.0761324 2.2766063 0.9060779 0.7934159
-0.06553189 0.83199996 0.85182726 0.036058735 1.3330982 0.7621532 0.77673525 -0.019373748
-0.031095784 -0.02523991 0.7958831 0.67982054 3.0105643 1.6213717 2.6937037 0.7472684
0.7158907 0.8440232 0.0023697775 -0.02078396 0.75678045 0.70695037 0.89409965 0.7357516
0.029655052 0.7375358 0.85545385 0.8577804 -0.055675816 3.2134328 0.81294245 -0.04791708
0.7191091 0.7187437 0.084430434 -0.07239575 0.848653 0.75950694 0.7104771 0.85264856
-0.06346283 0.88211775 0.86450154 0.70321566 0.6808273 0.8768608 0.79857427 0.888731
0.7546111 0.026837794 -0.0077676466 0.012056587 0.8885126 0.7658285 0.98581564 0.8182211
-0.00044955686 0.689311 0.012494296 0.59686947 -0.052985292 -0.05537898 -0.062489934 -0.009227361
0.71876085 0.67231363 0.73955256 0.7879948 0.683266 0.8132462 0.8141264 0.89715517
0.75373954 0.74223727 0.046200067 0.78146136 -0.03909503 0.76482487 0.6629411 0.6828767
0.6885557 0.79369164 0.82102424 1.3596902 0.81980276 0.76566845 0.6466882 0.8617502
0.83241016 0.8387184 2.193954 0.7439291 1.6608328 0.671568 0.8207619 0.013503729
0.828035 -0.018191801 0.84686154 0.8122192 0.6623016 0.7222129 0.7358615 -0.009181921
1.2252854 -0.0021938498 0.0021813286 3.984768 0.014443979 0.68061286 0.6859883 0.719542
-0.0053596646 0.683021 0.683824 0.686468 0.6683815 0.62784064 0.7934812 0.734707
0.67514557 0.7395155 0.64491594 0.7475514 0.006599156 2.449663 0.7102862 0.6265292
-0.0032931136 0.7365067 0.8191121 -0.025357269 1.0901357 0.6960227 0.94041955 0.07857502
-0.06423412 0.0028696957 0.7250913 0.8134997 4.384392 1.5221364 3.6564052 0.7962918
0.8344592 0.8207911 -0.011801373 -0.047912717 0.6995121 0.76808846 0.7204108 0.80247957
-0.022974415 0.7981957 0.7775979 0.6650016 -0.05644033 3.8677993 0.6833887 0.021877863
0.6947908 0.84873205 0.009699531 0.0075520314 0.78062576 0.706984 0.8448448 0.83913636
0.029136723 0.62620395 1.0164179 0.74931216 0.82577384 0.707308 0.7729385 0.6985778
0.8048541 0.054301627 -0.033679403 0.03678562 0.6721065 0.8187259 1.2683245 0.8337301

fc3.bias f4 [4]
00000000: d4e5 ad3e be89 e63f 7735 92bf c050 10bf
0.33964407 1.8010786 -1.1422566 -0.56373215
