ai/models/dqn/trained_models/dqn_2048_600.pth (torch, 78975 bytes, 6 tensors)

fc1.weight f4 [128, 16]
00000000: 1384 65be fd40 ec3e cf90 5e3f c4e8 3fbd
00000010: 3aa7 013f 5d38 92be 70c3 3a3e fa8e 21be
00000020: 141a b73c 44f4 043f bc2b f93e 1522 20be
00000030: 90ae 01bf 7a3a 443e 52ca 1ebf 5344 8abd
00000040: d9b9 1dbf 3600 e33e 68f3 9d3e 940c 203f
00000050: b18e 11bf af38 923e df29 9d3b 8f96 4f3e
00000060: d6a7 01be 88ff 0fbf f381 043f 772b 56be
00000070: ee65 b1be 506e 093f 24a0 ae3e ab3e 063f
00000080: b8e3 a73e b830 b13e 1696 09bf 95c7 ae3d
00000090: 1a9f 40be 60e2 473f d237 05bf 8337 1a3f
000000a0: e014 07bf 4c13 df3a 5bf8 053e a328 93bd
000000b0: ac56 4b3e 987e 373e 59bf 06bf 85c2 e63e
000000c0: b3d7 813e a0f6 8bbf 38a4 983e 8596 493f
000000d0: 1734 20bf b9d5 cb3e c761 8ebe 78a5 01bf
000000e0: 3539 ef3e b0ee 3cbe 8631 b63d 457a b33e
000000f0: c98c e23d 43f5 7fbe 1e11 1d3f 19c4 0cbe
00000100: b6ea 253e 4774 e0bc 8df7 ac3a 7a53 013f
00000110: b8e7 6b3d 9135 1e3e 5448 da3e ed57 033f
00000120: 09ee dc3d c0a9 c33c 0975 653e 60dc 2a3e
00000130: 19f4 8b3e d595 bd3d a218 8a3e e1d0 99bd
00000140: 7834 033f 56c3 df3e 3f66 cb3d 6511 dc3d
00000150: 599b 673e e2ed 4a3e 795a 79bd 8e77 c53d
00000160: c607 a83e e992 8c3d 0ddb 123e f72b c83e
00000170: bdd2 2f3f 6c76 2cbb 609b 553e c1d2 c83e
00000180: 46e2 7cbc ddf9 213f c40f 38bf 830f 133e
00000190: c7fd 9d3e 4e9d d43e c1f1 833e d27b 553e
000001a0: c57e 933d 1263 873e ecb8 ad3d bcfc 14bf
000001b0: ac7d bcbd 10ad bcbd f5d1 aabd b681 4ebd
000001c0: 1704 da3e cb0f 413f 4032 833c dc15 46bf
000001d0: 331c 04be 49e1 4e3f e15e 503e 5950 3f3f
000001e0: c0b9 7cbe effa c3be e3f8 22be 4c2f 6ebe
000001f0: a904 95bc 23d2 76be 51b2 d33d fbf2 08bd
00000200: 646c 82bd e4bb 6b3e 332b 9a3d 8052 cb3e
00000210: 46df 133f e0ea d1bd 56ac 3b3e a174 81be
00000220: a520 da3d ca32 d5be 4398 cbbd e47f eb3e
00000230: ea79 c73e d2d3 2e3d f1fc 16bf 0458 d9be
00000240: f974 863e c9f3 db3d ac0f ee3d 515b a63d
00000250: b538 3b3e b045 783c 3c5a ffbe 2763 2fbe
00000260: ed2a d03e e875 34bb d98f 2bbe 8e4b 4dbe
00000270: f035 5b3f 29c5 1f3f 19ab 073f b37e de3d
00000280: b6c8 ba3e f6b4 213e 8deb 5ebe 2425 b53e
00000290: 60e2 d8bd 6ea0 b43e f965 c53e 2ef1 803e
000002a0: 56f6 a1bd 63c8 493e 19b3 f63e e7ef 81bd
000002b0: 44e0 da3e 2665 d33e a0d0 d53d 7194 0abe
000002c0: 9843 c83e f36b 1a3f 550a 7f3e c254 f23d
000002d0: aaa6 fa3d e096 973e d466 4c3d 1874 2e3e
000002e0: 35f9 e43d d1f4 a7bd e14c 033f bd90 9e3e
000002f0: f20a 083f 60e6 2f3e 51e3 bebe 0e1a 133e
00000300: f4cb 853d f0cd a33e 83c5 8d3e b373 c63d
00000310: 2d02 23bd fafc 6bbd e3c4 253e 74c0 8f3b
00000320: df79 2c3e b79b 133e 19ce 56bd ee71 9cbe
00000330: 11ea bdbe fe9a 173e 7788 be3e ff9e bcbe
00000340: 5e80 af3d 5ef2 1a3f 506c 48be ded4 233e
00000350: dc68 aebe 166c 2b3f 4be1 c63e 5d0a 51bf
00000360: ff7b a9ba 0408 6f3e c2e6 1f3d 3d75 34bf
00000370: ac25 80be 3fe7 89be 76c5 a1be c52d 033d
00000380: 157e cfbe 6d5f 51bf 8d3f 9fbe bfd2 c23e
00000390: 8ccc 4f3e eb31 673f f76c cd3d 6c37 a43d
000003a0: 792f 2ebf 493e 1c3f d493 d2bd 7259 e73e
000003b0: 9207 9ebd ade7 25be 3acd 3cbd 485f c03d
000003c0: f710 633f 7366 4a3f 4808 653f 8240 8a3f
000003d0: 5f7e 3c3e c4ad 09bd bd25 52be fe1f 6f3e
000003e0: 5a64 423f faac 93be 7d3c 1b3f 5a6b 6b3f
000003f0: ad0c 8c3f 1480 e33f 03c5 753f 6da6 973f
-0.22413664 0.46143332 0.8693971 -0.046852842 0.5064579 -0.28558627 0.18238616 -0.15777197
0.022351302 0.5193522 0.4866618 -0.15638001 -0.50656986 0.19162932 -0.62027466 -0.06751313
-0.61611706 0.44336098 0.30849767 0.6251919 -0.56858355 0.2855887 0.004796251 0.20272277
-0.1266168 -0.56249285 0.51760787 -0.20915018 -0.3464808 0.5368395 0.34106553 0.52439374
0.32790923 0.34607482 -0.5374464 0.08534161 -0.18810692 0.78079796 -0.520383 0.60240954
-0.5276623 0.0017019301 0.13083021 -0.07185485 0.19857281 0.17919385 -0.52635723 0.45070282
0.25359878 -1.0934639 0.2981279 0.787453 -0.6257948 0.39811495 -0.27808973 -0.5064311
0.46723333 -0.18450427 0.088961646 0.35054222 0.11062009 -0.24995904 0.61354244 -0.1374668
0.16202816 -0.027399195 0.0013196334 0.50518 0.05759403 0.15450121 0.42633307 0.5130604
0.10787589 0.023884654 0.22407927 0.16685629 0.2733467 0.09257094 0.26971918 -0.075105436
0.51251936 0.43703717 0.09931611 0.10745505 0.22617854 0.19817308 -0.060877297 0.09641944
0.3281843 0.068639584 0.14341374 0.39096043 0.68680936 -0.0026315702 0.20860052 0.39223292
-0.015434807 0.63271886 -0.71899056 0.14361386 0.3085768 0.41526264 0.2577038 0.20848015
0.07201914 0.26442772 0.08482537 -0.5819814 -0.092036575 -0.092126966 -0.083408274 -0.05041667
0.42581245 0.75414723 0.016015172 -0.77377105 -0.12901382 0.8081251 0.20348693 0.74731976
-0.24680233 -0.38277385 -0.15915255 -0.2326023 -0.018190699 -0.24103598 0.103367455 -0.03343485
-0.0636833 0.23020893 0.07527771 0.3971138 0.57762563 -0.10249877 0.1832746 -0.25284293
0.10650758 -0.4164031 -0.09941151 0.4599601 0.389602 0.042682476 -0.5897971 -0.42449963
0.26261118 0.10739858 0.11624083 0.08122886 0.18283351 0.015153334 -0.4987353 -0.17127667
0.4065775 -0.0027536098 -0.16754092 -0.20048353 0.8562918 0.6241022 0.5299545 0.1086401
0.36481255 0.15791687 -0.21769543 0.353799 -0.105900526 0.35278648 0.3855436 0.25184005
-0.07908313 0.19705348 0.48183516 -0.06344586 0.42749226 0.41288108 0.10440183 -0.13533188
0.3911407 0.6032097 0.24906285 0.118325725 0.1223882 0.29607296 0.049902752 0.17036474
0.11180345 -0.08200992 0.5128918 0.30969802 0.531417 0.17177725 -0.37282804 0.14365408
0.065330416 0.31993055 0.27689752 0.096900366 -0.039796997 -0.057614304 0.16188388 0.004386956
0.16843365 0.14414869 -0.052442644 -0.3055567 -0.3709264 0.14805219 0.3721349 -0.36840054
0.08569406 0.6052607 -0.19572568 0.15999171 -0.34064376 0.669618 0.3884376 -0.8165644
-0.001293063 0.23342901 0.039038427 -0.7049139 -0.2502874 -0.2693424 -0.31595963 0.03202607
-0.4052588 -0.81786233 -0.31103173 0.38051412 0.20292872 0.90310544 0.10030549 0.080183834
-0.6804119 0.6103254 -0.10282102 0.4518543 -0.07716288 -0.16201659 -0.046094157 0.093931735
0.8869776 0.79062575 0.8946576 1.0800936 0.18407582 -0.03361298 -0.20522209 0.23352048
0.75934374 -0.28842908 0.6063917 0.9196068 1.0941368 1.7773461 0.9600374 1.1847664

fc1.bias f4 [128]
00000000: 6709 19c0 2927 15bf 17c7 28c0 5019 09c0
00000010: 7c17 a640 2f8b 05c0 77c3 02c0 7424 3bc0
00000020: d083 13c0 5580 13c0 0e7d a540 271c e2bf
00000030: 5035 25c0 e6f4 0dc0 5162 3ac0 1bb4 db40
00000040: eb5f 0ac0 a30b 53bf 8c85 1fc0 662f 2cc0
00000050: 8453 9840 68fc 25c0 5043 8b3f 0e31 f4bf
00000060: 8c3a 0fc0 ecf6 34c0 ad3a 9140 afea 9540
00000070: 2597 a2bf f37a afbf 2458 20c0 10fe 13c0
00000080: ef74 1ac0 ed4f e3bf 2cf5 9940 c6e7 10c0
00000090: 9c52 10c0 7fe9 f6bf 8f50 c1bf 8e32 e8bf
000000a0: 894c b4bf 3dad 16c0 c8b1 66bf c7f1 1ec0
000000b0: bbd6 f9bf 19f2 18c0 aaf1 00c0 e0f8 cabf
000000c0: 64ae 0ec0 2ed9 24c0 f582 11c0 5fa0 06c0
000000d0: 4bf4 9cbf 2aee ecbf 541d c9bf 0df6 05c0
000000e0: ab1a 4ac0 7ef9 d5bf 1860 00c0 2cb5 adbf
000000f0: 1c50 08c0 0d1a d1be 2d25 22c0 b32d ccbf
00000100: 17d0 a5bf fc73 28c0 d011 cebf 5de6 11c0
00000110: c5b3 17c0 7cb0 1fc0 e713 1cc0 daf5 1ac0
00000120: b6ac ecbf 47b0 1cc0 4127 22c0 64aa 18c0
00000130: 4566 13c0 6895 08c0 8017 13c0 f72f 02c0
00000140: fcbb 11c0 3ad2 1bc0 e919 11c0 3c7d 14c0
00000150: 130f a740 2834 20c0 4c36 03c0 7ee8 f8bf
00000160: 1cdc 19c0 00e4 19c0 5ea3 13c0 fbce 2fc0
00000170: e88f f0bf f2d0 cebf a683 38c0 d52a 3c3f
00000180: b2e3 19c0 63ff 07c0 0c0e efbf a220 88bd
00000190: 789c 10c0 a99a 22c0 b6fb f7bf b7ff 0dc0
000001a0: b0b2 1ac0 7715 06c0 c656 20c0 7ed1 0dc0
000001b0: 9bb5 25c0 8dcb 113f 808f 0fc0 9bbd 23c0
000001c0: 4dee 16c0 4a36 bebf 4894 26c0 094c 04c0
000001d0: 84e9 a63e f19c 7040 23ee 9740 86f4 fdbf
000001e0: 6f40 ddbf 0dde b4bf 3451 0ac0 ca59 aabf
000001f0: d54e abbf 8381 31c0 53bd 0fc0 0280 e0bf
-2.3911989 -0.5826288 -2.6371515 -2.14217 5.1903667 -2.08662 -2.0431802 -2.9241
-2.3049202 -2.3047078 5.1715155 -1.7664841 -2.581379 -2.2180724 -2.9122508 6.8657355
-2.1621044 -0.8243963 -2.492526 -2.690393 4.760195 -2.5935307 1.0879917 -1.907747
-2.2379484 -2.827571 4.5384126 4.684898 -1.2702376 -1.3709396 -2.5053797 -2.3123817
-2.413387 -1.7758766 4.811178 -2.2641463 -2.255042 -1.9290007 -1.510271 -1.8140428
-1.4085857 -2.3543236 -0.9011502 -2.483507 -1.9518656 -2.3897765 -2.01475 -1.5857201
-2.229394 -2.5757556 -2.273618 -2.1035383 -1.2262052 -1.8510182 -1.5712075 -2.0931427
-3.1578777 -1.6716764 -2.005865 -1.3570914 -2.1298895 -0.40840188 -2.533519 -1.5951446
-1.2954129 -2.6320791 -1.6099186 -2.2796853 -2.3703473 -2.4951468 -2.4387147 -2.4212556
-1.8490207 -2.448259 -2.5336459 -2.3853998 -2.303117 -2.134119 -2.2983093 -2.0341775
-2.2770987 -2.4347062 -2.2672064 -2.3201437 5.22059 -2.5031834 -2.050189 -1.9445951
-2.4040594 -2.404541 -2.3068461 -2.747008 -1.8793917 -1.6157515 -2.8830352 0.73502856
-2.4045224 -2.1249626 -1.8676162 -0.06646849 -2.25955 -2.5406897 -1.9373691 -2.2187326
-2.4171562 -2.09506 -2.5052962 -2.2159114 -2.5892093 0.5695122 -2.2431335 -2.5584476
-2.3582947 -1.4860318 -2.6028004 -2.0671408 0.32600033 3.759579 4.7478194 -1.9840248
-1.7285289 -1.4130265 -2.1612062 -1.3308651 -1.3383433 -2.7735298 -2.2459304 -1.7539065

fc2.weight f4 [128, 128]
00000000: 1959 e03f c87b 103f 590c 1540 c66b 2040
00000010: 4d9b 2d3f d138 6b3e efcf 763f 5a54 3c40
00000020: f24d 833f e0b9 1cbe d9d6 583f 5aaf bd3e
00000030: 18fe 9d3e d472 f03f 472e 5140 5481 ad3f
00000040: fe3f 0040 ba97 b33e 5f21 0a40 438d 3640
00000050: d64e 313f 5f32 563d 4364 2a3f 383e 903f
00000060: 843e 543e 8779 bc3d bb42 bc3e 487c 1e3f
00000070: 6fe8 6640 3d7b 0240 17b7 003f 0f51 2640
00000080: a777 1240 0123 a03e 4e5c 1fbe cb89 2e3e
00000090: b711 3c40 78aa f43f ab77 4440 3159 da3e
000000a0: 874e b03f 36d0 1540 6efd 1f40 8443 1c40
000000b0: 8c65 cbbe 1182 e73f 8b44 cc3f 8d66 133f
000000c0: bb09 433d 3944 bd3f c834 cc3f e248 1640
000000d0: 0971 1340 423c 0540 f21a e03f 24da ad3e
000000e0: 7251 2940 d23e 4040 c3bd 933e 75c7 6140
000000f0: f122 df3f f615 2040 b2ec 0c40 d0fc 4840
00000100: e45e eb3f 8db7 d13d b997 ae3f 9372 2140
00000110: de99 473f af21 3f3f 2702 023c 051e 1a40
00000120: 08c7 eb3f 872a d03f 1736 2140 4626 3340
00000130: ea6d c23f fe99 1e40 da35 dd3f a576 013f
00000140: b21e 7b40 0965 993d f16f ed3f bd31 1540
00000150: 48aa 323f fed7 833f ca47 1c40 bb78 953f
00000160: 3a1b e33f ea16 f73f cd4b 5340 8674 ce3f
00000170: 531e 883e 4fc1 3840 8885 7140 b386 5340
00000180: a632 2040 0ba3 093e d910 6a40 2548 2a40
00000190: 3a71 3340 b365 c93f f9b6 0540 d9ab f13e
000001a0: 485e 4a3f 995e 4340 74cb 3e40 701d 703e
000001b0: 3cf3 c53f 74a8 3b3f 8cfc 0940 58ce 4040
000001c0: 27f4 0140 ebdd d23e 9743 c33f 4a52 603f
000001d0: 3b20 7140 15be c53e 06a2 0c3f e33c bd3f
000001e0: 74d6 6940 04f4 5940 6443 4f3e fada 963e
000001f0: d815 be3f aea8 f23f 60f3 b93f 09f4 4f3e
00000200: 3462 c1bc 6ca4 8d3e 2506 adbf a7ae af3e
00000210: e628 4f40 d88b ccbf 08c7 c2be b7a6 6dc0
00000220: b8e5 06bf 6db6 05c0 ccda 4840 56b9 b3bf
00000230: d7a8 32bf 1179 e3bf 90fc 2ec0 0fb2 0b40
00000240: 42b9 70bf 3b8b 1fbf aea0 45bf 5c58 83c0
00000250: 65b4 5440 aade 07c0 df11 4c3d 52a7 5ebf
00000260: 016e 9cbf ae50 0cc0 6b12 4040 f9a0 3640
00000270: b24f dc3f d722 3abf dc3e 05c0 c281 25c0
00000280: da83 54bf 7816 a4bf 6ef3 b040 c701 babf
00000290: c5fd 41bf dc47 36bf 8350 99be 38c1 d3bf
000002a0: e756 02c0 1d5e 88bf f3e1 41be 72ca 7cbf
000002b0: b9a1 8abf 8537 be3e 0f47 aa3d 2204 90bf
000002c0: a04a b2bf 92aa af3d 1550 a6bf cfc8 d8be
000002d0: 59db 893f a41f 863e 43f9 65bf c973 01c0
000002e0: 444a 09c0 fd2e 05bf b991 34bf 48b3 85bd
000002f0: 3501 253e 1407 77be 8815 86bf 0d9d a63f
00000300: 4bb3 8a3f 8bf9 f1bf 0420 a8bf 31d0 abbb
00000310: 3e8c efbf 41ea 2ebf 026f 9cbf d020 fbbf
00000320: d65e 18c0 e39a 67c0 96b2 b7bf 23ff ea3e
00000330: 499e a63e 1955 0dc0 726d 27c0 6e88 82bf
00000340: 86a9 cc3f 396a 96bf 537b 7c3e 0078 6f3e
00000350: f547 4a40 9ebe 2ec0 59d0 29bf f946 0cbf
00000360: 9bed 2ebf 1537 1ac0 5348 af3e 018e adbf
00000370: af38 9dbf 7f85 2440 fd19 8dc0 8ba6 81be
00000380: fe43 83be 1f0a cebf 9f2c b63f e98d 49c0
00000390: ac84 10c0 4a0a 53c0 da0f f63e 5936 7ebf
000003a0: 9e10 c7bf fd36 8e3f 258c 11c0 afdb ccbf
000003b0: e12e 3ec0 7dc5 f4bd 927f 1ac0 e7e2 60bf
000003c0: 8534 be3c 29bf 9bbf daa1 56bf 7065 a1be
000003d0: 7908 e3bf 4158 1840 9a4c 5640 3ad6 cfbe
000003e0: e0b9 0e3f 9d89 8bbf 281f cabf 2842 72bf
000003f0: bc4d 13c0 8a1c 47c0 3b6a 54bf 86b6 8cbf
1.752719 0.56438875 2.3288786 2.506578 0.67815095 0.22970892 0.9641103 2.9426484
1.0258162 -0.1530528 0.8470283 0.37047845 0.3085792 1.8785043 3.2684495 1.3555093
2.0039058 0.35076696 2.1582868 2.852372 0.6926092 0.05229413 0.6655924 1.1268988
0.20726973 0.09202867 0.3676966 0.6190839 3.6079366 2.0387719 0.5027937 2.5986974
2.288553 0.31276706 -0.15562555 0.17044751 2.9385812 1.9114523 3.069804 0.42646173
1.3773965 2.3408332 2.4998431 2.4416208 -0.39725912 1.8086568 1.5958418 0.57578355
0.0476167 1.4786445 1.5953608 2.3481984 2.303774 2.0818028 1.7508223 0.3395549
2.645596 3.0038342 0.28855714 3.527799 1.7432538 2.5013404 2.2019467 3.1404305
1.8388333 0.10240088 1.3640052 2.522618 0.7796916 0.7466077 0.0079350835 2.4080822
1.8420115 1.6262978 2.5189264 2.799211 1.5189793 2.478149 1.7282059 0.5057166
3.9237485 0.07489974 1.8549787 2.3311608 0.6979108 1.030029 2.4418817 1.1677469
1.7742684 1.9303868 3.3015015 1.612931 0.26585636 2.8867986 3.773775 3.3050964
2.5030913 0.13441102 3.6572783 2.6606534 2.8037858 1.5734161 2.0892928 0.47201422
0.7905011 3.0526488 2.9811678 0.2344873 1.5464854 0.73303914 2.1560392 3.0125942
2.0305269 0.41184935 1.5255002 0.87625563 3.7675922 0.38621584 0.5493473 1.4784206
3.6537142 3.4055185 0.20240551 0.2946394 1.4850416 1.8957727 1.4527397 0.20307936
-0.023606397 0.27664506 -1.35175 0.34312937 3.2368712 -1.5980177 -0.38042474 -3.7133005
-0.52694273 -2.0892594 3.1383543 -1.4040935 -0.6978888 -1.7771322 -2.7341652 2.1827428
-0.9403268 -0.62321824 -0.771983 -4.104536 3.3235104 -2.1229653 0.04982173 -0.8697406
-1.222107 -2.1924243 3.0011241 2.853575 1.7211821 -0.7270941 -2.0819616 -2.5860448
-0.8301369 -1.2819357 5.5297155 -1.4531792 -0.75777847 -0.712034 -0.29944238 -1.6543341
-2.036554 -1.0653721 -0.18933849 -0.9874641 -1.0830604 0.37151733 0.083143346 -1.1251261
-1.3929024 0.085774556 -1.2993189 -0.42340705 1.0770065 0.26196015 -0.8983347 -2.022692
-2.1451578 -0.52024823 -0.70534855 -0.06528336 0.16113742 -0.24123794 -1.0475321 1.3016678
1.0835966 -1.890428 -1.313477 -0.005243324 -1.8714674 -0.68326193 -1.2221377 -1.9619389
-2.3807883 -3.6188285 -1.4351375 0.4589778 0.32542637 -2.208319 -2.616055 -1.0197885
1.5989234 -1.1751167 0.2465642 0.2338562 3.160642 -2.7303843 -0.6633354 -0.54795796
-0.6833131 -2.409612 0.34234866 -1.3558961 -1.2282923 2.570648 -4.4094224 -0.25322375
-0.2563781 -1.6096839 1.4232367 -3.1492865 -2.2580976 -3.297503 0.4805897 -0.9930168
-1.5551946 1.1110531 -2.2741787 -1.6004542 -2.9716113 -0.119517304 -2.4140363 -0.87846226
0.023218403 -1.2167712 -0.83840716 -0.31522703 -1.7736961 2.3803866 3.3484254 -0.4059313
0.5575237 -1.0901371 -1.5790758 -0.94632196 -2.3016195 -3.111117 -0.82974595 -1.0993202

fc2.bias f4 [128]
00000000: d78a df3f 839b ff40 d5db a33f 56a9 66c0
00000010: ee16 0cbf 5b8e 27c0 d724 71c0 b4e9 d2bf
00000020: 7f2a 923f 0cfe 0a40 a302 79c0 bc5c b2bf
00000030: a608 efbf 9fd0 b3bd 0007 e8bd 1390 3dc0
00000040: ad42 de3f c966 86bd fd3c b23f f49b 60c0
00000050: 83f9 6a40 37aa a7bd 4249 e8bf 25b9 2440
00000060: c51c c33f dfd3 d93f 102d 923f 104e 46c0
00000070: 42b9 bcbf 1d70 8abd 6eb2 ee3f bc85 78bc
00000080: 8c3d 1540 1991 5340 fcd1 f73f 552a d83f
00000090: c8d9 0c40 4c51 d5bf 88f4 c1bd 73b8 c23b
000000a0: 29d6 603f a4dc ac3f 51d8 d03f fef1 6cc0
000000b0: bd4d 563c 115f d2bf 38c9 babd c541 623d
000000c0: 2eda 0840 ecd2 973f b7d7 99bd 8980 cfbd
000000d0: 756f 6ac0 b735 e03f 5cd4 68c0 bc22 4bbd
000000e0: 6b96 f5bf a0bf 23c0 aa87 74bc 8164 da3f
000000f0: 8c9f 4040 351d 74c0 a8fd e93e f3bd 67c0
00000100: 53d2 ca3f 6b06 4ac0 dd20 3ec0 f8e8 45c0
00000110: 2b5b b23f 3b8b dc3f 6fe9 9f40 4a1a 27c0
00000120: 1936 e83f 09ed e83f 23f4 9fbd d43b 813d
00000130: 1c22 ae3f ed9f 6ec0 f84a 20c0 02dc 6dc0
00000140: a52b 06be 1ddf aabe 005b 53c0 4a64 4b3f
00000150: 07c6 60c0 c44c 79bd 467b 12c0 4c1c f43f
00000160: 90ce dc3e 2d85 ed3f 4927 5f3d 26e3 e93f
00000170: 643f 57bf 8e70 63c0 36f6 e23f 3642 60c0
00000180: 41d0 42c0 7784 f33f f671 6fc0 3aa7 05bd
00000190: d125 0bc0 48d1 38c0 b69e 8240 65a2 f23f
000001a0: d768 763d 6b22 62c0 2455 a9bc c0cd 8dbd
000001b0: d7e2 63c0 12b0 a63e 1ede 6fc0 9381 eabf
000001c0: 8532 24bd 5a12 cdbd 8aad f13f 432a 4c3c
000001d0: 1ffa 873d 22af 55bd ec7d 54c0 c0f1 63bd
000001e0: 1e55 893f 54b7 dc3f a540 bb3f 5145 223c
000001f0: fefb c73f 8986 16c0 56c1 f93f 02b1 51c0
1.7464246 7.9877334 1.2801462 -3.6040854 -0.5472249 -2.6180637 -3.7678735 -1.647757
1.1419219 2.1717558 -3.890786 -1.393455 -1.8674514 -0.08780026 -0.1132946 -2.9619186
1.7364098 -0.065625735 1.3924862 -3.5095186 3.671479 -0.08186763 -1.8147357 2.5738003
1.5243155 1.7017783 1.1420002 -3.0985146 -1.4744036 -0.06759665 1.8648202 -0.0151686035
2.3318815 3.305731 1.9360957 1.6887919 2.2007923 -1.6665435 -0.09470469 0.005942398
0.8782678 1.3504834 1.6316015 -3.70227 0.013080058 -1.6435262 -0.09120411 0.055238504
2.1383166 1.1861243 -0.075118475 -0.10131938 -3.6630528 1.7516392 -3.6379614 -0.049593672
-1.9186529 -2.5585709 -0.014924923 1.7061921 3.009738 -3.8142827 0.45701337 -3.6209686
1.5845436 -3.1566417 -2.9707558 -3.0923443 1.3934072 1.722999 4.9972453 -2.6109796
1.8141509 1.8197337 -0.07810237 0.063102394 1.3604159 -3.728511 -2.5045757 -3.7165532
-0.13102587 -0.33373347 -3.3024292 0.79449904 -3.5120866 -0.060864225 -2.288774 1.9071136
0.43126345 1.8556267 0.054480825 1.8272445 -0.840811 -3.5537448 1.7731388 -3.5040412
-3.0439608 1.90248 -3.7413306 -0.032630183 -2.1741831 -2.8877735 4.081874 1.8955809
0.060158577 -3.5333507 -0.020670481 -0.06924009 -3.5607202 0.32556206 -3.747932 -1.8320793
-0.04008724 -0.10013266 1.8881085 0.012461248 0.06639504 -0.052168973 -3.3201857 -0.055650473
1.0729101 1.7243447 1.4629103 0.009904222 1.5623777 -2.3519614 1.9512126 -3.2764287

fc3.weight f4 [4, 128]
00000000: 1794 b33f 25c3 7441 2cd0 b33f f2f6 9840
00000010: 3096 d23f ad37 1040 f75d 9d40 deb8 cd3f
00000020: 8cd2 ab3f 0516 a83f e851 ba40 fe1d cf3f
00000030: 28d5 ac3f 64b2 6ebd 0fe9 debc ac9d 0040
00000040: 16e7 b43f d5c0 d5b9 6ac3 bc3f 8cde 8640
00000050: 17d6 4c40 433f 9f3d 467b b73f efe6 2340
00000060: 9ed8 b23f e8f4 b83f 905d b43f c121 7240
00000070: 7dba ba3f 4fda 0abd 7c23 ad3f 8bb5 43bd
00000080: 7b6e aa3f 3f48 c840 6dcf b73f 3d9c c03f
00000090: 5c1e b33f 8010 d73f 8b8a 873a b9f0 b0bc
000000a0: 25fd bb3f 35d9 ae3f de36 ad3f 737c 9d40
000000b0: e481 c93d 7350 d73f f8a3 bb3f 9466 aebd
000000c0: 3a75 af3f e01a b83f c549 033e f976 15bd
000000d0: 1b88 b340 1f4e b93f 7cc8 a740 90a8 8f3d
000000e0: 8757 e23f 84dd 1240 48e6 2ebd 82eb b03f
000000f0: fc34 853f 324f ab40 a510 6ebe 22a9 a140
00000100: 3787 b83f ad2b 6340 4605 1340 577b 5640
00000110: b0a2 b73f 050e b53f acd7 2a3f a444 d63f
00000120: a6e9 b13f ea0b ae3f 9420 893c 38b8 173d
00000130: c429 aa3f d294 b440 f830 1540 7dd7 ac40
00000140: 60db 643d ce82 b53f a051 8f40 0de6 bb3f
00000150: ec91 a640 167c 9c3b ef9b ed3f 1db1 b83f
00000160: 7353 b8be 1db2 b43f 5d53 9dbb 7661 c13f
00000170: 222d bb3f f697 b540 c1b5 b53f 7594 a240
00000180: 4315 0140 cbe1 b93f 7006 ba40 0d1b 0bbd
00000190: f748 f03f 93b3 3a40 ec69 983f 4a5b b63f
000001a0: 26a2 76bd 10ff ae40 5101 8c3d 32e6 de3d
000001b0: e29c 9540 8faa afbe 5fd9 aa40 755d db3f
000001c0: 4261 c33b 1352 663d 27aa b73f 3584 11bd
000001d0: 9995 1b3b 7697 e43b 7640 7440 1a8c 29bd
000001e0: 3ce1 bd3f 2dec b93f d328 bf3f e189 0a3d
000001f0: 9586 b43f 9f62 d03f e28c aa3f bf26 2640
00000200: b8a4 ae3f 89e1 6341 51df ab3f 849f a140
00000210: 33d4 b03f c1c5 ec3f 2a2b a640 f845 443f
00000220: 633a ae3f c2e3 ca3f 68ce cd40 dd48 693f
00000230: 19b7 503f b33a 21bc a046 d3bd 08c1 3740
00000240: 1516 c13f 997a 953d c2ac a13f 00bd 8a40
00000250: 3bc1 6b40 3f1b 853d c1e1 a63f d040 a13f
00000260: b39e b03f 49e5 c23f 8a9a a03f 75ab 7540
00000270: 238f 8c3f 409f 8f3d b12a c63f fa42 7dbd
00000280: aced c63f d664 b040 a3b0 be3f 3657 a53f
00000290: 2bfc c23f 61d3 7d3f a1fd 62bd 92a1 953c
000002a0: 11d4 9b3f c7d6 a03f e3cd 9b3f 7ca1 aa40
000002b0: e3cf 7ebd 77fb 2d3f efa8 b03f fae8 7b3d
000002c0: c87a c43f 09d9 9e3f b51a 20bf ff54 453d
000002d0: 1679 e840 4a64 c73f cab4 a640 85c7 44bd
000002e0: 340c a93f 2704 fa3e f181 ba3d bedc d13f
000002f0: a783 b23f 52a4 a340 46d1 06be abad b240
00000300: d9ef b33f bc1b 9440 9370 5240 190e 6840
00000310: e374 9f3f 2a3a ab3f f218 1b40 22db 923f
00000320: 3207 b73f f9d8 bf3f 27a7 a83d 6f66 04bd
00000330: 7f0f b33f 69a5 cb40 eedc 363f 4fb3 bc40
00000340: 1410 393c a366 953f aa00 8640 329f 8a3f
00000350: cd1d 9640 6a77 afbd 26cb 5b3f 9c13 b83f
00000360: cf3f 73be 6ba1 b23f 0f68 6cbd c4ce 0640
00000370: ce8d 8f3f dd5c ba40 a02b ae3f 8357 9340
00000380: 963e 3740 2325 c33f f82d ad40 a2d3 383c
00000390: d44b 5f3f 51c8 4c40 e029 903f e566 b53f
000003a0: c689 68ba 7c7a ae40 f42a d83c cc2a 1e3e
000003b0: 3528 ac40 8acc aebe c82a b940 341d 953f
000003c0: 913c 233d 9ea3 27bd 034e ad3f 47cf 07bd
000003d0: 874c 42bc 6ee5 32bd f2ad 8040 36ea 2abd
000003e0: 68dd b33f 5f57 bf3f 963e ad3f 8945 e23c
000003f0: c83f ba3f 0732 8d3f 0baf ae3f 3cee 3d40
1.4029568 15.297643 1.4047904 4.7801447 1.6452084 2.2533982 4.9177203 1.6072042
1.3423629 1.313172 5.8224983 1.6181028 1.350255 -0.058275595 -0.02721074 2.0096235
1.4133022 -0.00040770197 1.4747136 4.2146664 3.200567 0.07775738 1.4334495 2.56097
1.3972356 1.444974 1.4091053 3.7833102 1.4588162 -0.0338996 1.3526454 -0.047780555
1.3314966 6.258819 1.4360176 1.504768 1.399364 1.680191 0.0010340972 -0.02159916
1.4686629 1.3660036 1.3532369 4.9214416 0.09839228 1.6821426 1.4659414 -0.08515659
1.370765 1.4383202 0.1282111 -0.036490414 5.6103644 1.4476966 5.243223 0.070145726
1.7682961 2.2947702 -0.042700082 1.3821871 1.0406795 5.3534174 -0.23248537 5.051896
1.4416264 3.5495408 2.2971969 3.351278 1.4346523 1.4144903 0.6673534 1.6739697
1.3899429 1.3597386 0.016739167 0.03704092 1.3293996 5.6431665 2.3311138 5.4013047
0.055873275 1.4180543 4.478714 1.4679581 5.2053127 0.0047755344 1.8563212 1.4429051
-0.36001167 1.4116856 -0.0048011974 1.5107868 1.4623148 5.6748 1.4196092 5.080622
2.0169227 1.4522032 5.813286 -0.033961345 1.8772267 2.9172103 1.1907325 1.4246609
-0.06021323 5.4686356 0.068361886 0.1088375 4.6754007 -0.34309813 5.3390346 1.7137896
0.005962522 0.056230616 1.4348801 -0.035526473 0.002374029 0.0069760634 3.8164344 -0.041393377
1.4834361 1.45252 1.4934334 0.033822898 1.4103571 1.6280097 1.3324244 2.5961149
1.3644018 14.242562 1.3427526 5.050722 1.3814758 1.849785 5.192769 0.76669264
1.3611568 1.5850756 6.431446 0.91126806 0.81529385 -0.009840655 -0.10316205 2.8711567
1.5084864 0.07298774 1.2630847 4.3355713 3.6836689 0.064993374 1.3037645 1.2597904
1.3798431 1.5226222 1.2547162 3.83859 1.0981182 0.070127964 1.5481778 -0.061831452
1.5541282 5.512309 1.4897655 1.291724 1.5233206 0.99150664 -0.05541766 0.01826552
1.2174093 1.2565545 1.2172207 5.3322124 -0.062209975 0.6796183 1.3801554 0.06150148
1.534997 1.2409984 -0.6254075 0.04817676 7.264781 1.5577481 5.209569 -0.04804184
1.3206849 0.48831293 0.091068156 1.639549 1.3946427 5.1138086 -0.13165769 5.5836997
1.4057571 4.6283855 3.288121 3.6258605 1.2457546 1.3377125 2.4233975 1.1473124
1.4299071 1.498809 0.08235007 -0.03232425 1.3989104 6.3639417 0.7143086 5.8968883
0.011295337 1.1671947 4.187581 1.0829833 4.691138 -0.08567698 0.85856855 1.4380984
-0.2375481 1.3955511 -0.057716426 2.10637 1.121515 5.823836 1.3607063 4.6044326
2.863195 1.5245708 5.4118614 0.011280926 0.8722508 3.1997263 1.1262779 1.4172026
-0.00088706275 5.4524517 0.02638767 0.15446013 5.379908 -0.34140426 5.7864723 1.1649537
0.039852683 -0.040927522 1.3539432 -0.03315666 -0.011859066 -0.043675832 4.0212336 -0.041727267
1.4051943 1.4948539 1.3534725 0.027621048 1.4550714 1.1030892 1.3647169 2.9676657

fc3.bias f4 [4]
00000000: aa8d c13e 3b87 0140 5cd3 9140 421e 453f
0.37803394 2.0238788 4.5570507 0.76999295
