ai/models/dqn/trained_models/dqn_2048_900.pth (torch, 78975 bytes, 6 tensors)

fc1.weight f4 [128, 16]
000000 a5 56 89 be 2f 26 6b 3d 73 14 33 3d 54 a2 2a 3e
       -0.26823917 0.05740946 0.043720674 0.16663486
000010 41 56 b4 3b c3 99 f3 3d 70 0c 98 3c 6e 53 5f bf
       0.0055034463 0.11894562 0.018560618 -0.8723668
000020 72 5d c1 bd 89 60 0d 3f 63 e3 ad bc 7d 5f a3 3d
       -0.094416514 0.55225426 -0.02122659 0.07977197
000030 b9 7b 68 be 12 f7 b3 be cd 64 3b 3f 13 97 b7 3f
       -0.22703446 -0.35149437 0.73200685 1.4342979
000040 b3 df 7b 3f ed dd f4 3e a6 da 09 bf 87 59 b2 3e
       0.9838821 0.47825566 -0.53849256 0.3483393
000050 48 5b 5f 3f 21 03 26 3e 63 81 c0 be c5 85 03 3f
       0.8724866 0.16212131 -0.37598714 0.5137599
000060 91 55 5e bf 1c 61 bb 3e 42 40 93 be ed 04 45 3f
       -0.86849314 0.36597526 -0.28759962 0.7696064
000070 bf 64 9a be 7d 70 18 3e b7 ba 35 3f be 41 e5 bd
       -0.30154988 0.14886661 0.7098803 -0.1119418
000080 aa 83 e4 3e e8 c1 8d 3f 1b 2b c8 3f 97 51 bd bd
       0.44631702 1.10748 1.5638155 -0.09244078
000090 ef 2f b4 bd d7 ea 25 be 2b 89 e2 3d 48 6d a1 3e
       -0.08798205 -0.16202866 0.11061319 0.31528687
0000a0 2b b9 27 bf ea 90 93 bd d1 59 65 bf c4 56 94 3e
       -0.6551692 -0.072053745 -0.89590174 0.28972447
0000b0 2e 18 31 3f 1d ad b3 be 4f c6 4c bf 8d 76 a8 be
       0.6917752 -0.35093012 -0.79990095 -0.32902947
0000c0 be d5 ff 3d 00 87 13 bf d9 f7 74 3e 3f a6 0a bf
       0.1249194 -0.5762787 0.23922671 -0.5415992
0000d0 e3 21 f2 3e 06 1f 04 3d 2f ce 27 3f 57 09 3a be
       0.4729148 0.03225615 0.65548986 -0.18167625
0000e0 c9 19 b0 3e b3 2a 36 3c 53 46 30 bd 59 ab 3a 3e
       0.34394673 0.011118579 -0.043035816 0.18229426
0000f0 96 0d 98 bd ce e3 0e be fc 06 a0 3f aa aa f2 be
       -0.07424466 -0.13954088 1.2502131 -0.4739583
000100 b0 fe 1e 3f 98 df a7 3e a5 a7 c5 3e 8c b0 34 be
       0.6210737 0.32787776 0.38604465 -0.17645472
000110 16 d7 bb 3e 92 d2 36 be ec 4c 3d 3c 7f 3e 1e bf
       0.36687535 -0.17853764 0.011553984 -0.6181411
000120 6d b4 80 3e b7 ec 1e 3f 50 66 62 bf 7e a8 3f 3f
       0.25137654 0.6207995 -0.88437366 0.74866474
000130 68 44 c3 3e f8 15 16 3f b5 0e 70 bf e8 ee f8 bd
       0.38138127 0.5862727 -0.9377244 -0.12154943
000140 71 17 94 bf 7e 09 d9 be 7d 88 01 3f 79 4b 7f 3d
       -1.1569654 -0.42390054 0.5059889 0.062327836
000150 8c e1 27 bf a9 f3 78 bd 2d 98 3e 3e b7 7c f1 be
       -0.6557853 -0.060779247 0.18612738 -0.47165462
000160 59 7d 5c 3e 02 5b aa 3d a4 cd c2 be bc 96 9e 3f
       0.21532191 0.083181396 -0.38047516 1.238975
000170 b8 43 74 3f a0 23 0e 3e 31 51 e4 3d 72 39 b1 3e
       0.9541583 0.13880777 0.111482985 0.3461414
000180 b3 2e 57 bf a0 7a 5b 3e e5 c6 89 3e ce a2 73 bf
       -0.8405563 0.21433496 0.26909557 -0.95170295
000190 ab 21 9a 3e 80 38 0e be 9e c1 4c be e8 d4 30 3f
       0.30103812 -0.1388874 -0.19995734 0.6907487
0001a0 9b 30 b3 be 43 89 53 3e 9d cc 5c bc c7 0f 75 3e
       -0.3499802 0.2065783 -0.013476518 0.239318
0001b0 80 5b 9b 3e 35 f2 ad 3e 7b 49 f1 3e 00 3d 42 3e
       0.30343246 0.33973852 0.47126374 0.18968582
0001c0 f4 64 a8 3e f0 0e 01 3f dd c6 d6 3d 96 25 c3 bf
       0.3288952 0.5041342 0.10487149 -1.5245845
0001d0 7d 3b 4c bf 06 90 1c bf 9d cf 5b bf af 33 f5 3e
       -0.7977827 -0.6115726 -0.8586367 0.47890994
0001e0 ba 05 7e be 83 8e e6 bd 8f 73 80 bf 4e 35 8b 3e
       -0.24806872 -0.11257651 -1.0035266 0.27189106
0001f0 37 73 b2 bf 1d 37 af 3e 4a e6 fc 3c 7d ab d5 bd
       -1.3941411 0.34221736 0.03087153 -0.104330994
000200 5c ec fa bd cc fd c3 3c 26 c5 1b 3f 57 97 49 3f
       -0.12252113 0.02392473 0.608477 0.7874655
000210 f7 9d 36 3e 3a 00 3b be 80 77 66 bd b4 67 75 3e
       0.17833696 -0.18261805 -0.056266308 0.23965341
000220 c1 c5 01 bf a9 5d 86 be c6 1f 46 be de ec a9 3e
       -0.50692374 -0.26243332 -0.19348058 0.33188528
000230 95 29 d6 3e ae e3 f7 3e 70 68 7c be a9 3d ab 3c
       0.418286 0.48415893 -0.24649215 0.020903425
000240 98 0d dc be 18 f9 c9 be ce 79 95 3f 16 96 76 3e
       -0.4297912 -0.39447856 1.1677797 0.2408069
000250 c6 15 4d 3e 7a 2c 96 bf 6b 31 12 bf 26 7b 25 3f
       0.20027837 -1.1732323 -0.57106656 0.64641035
000260 c7 f8 6f bf 5b b8 b3 bd 21 75 d6 3d 02 6b 7a 3f
       -0.9373898 -0.087753974 0.10471559 0.9781953
000270 47 4a 3f 3e 06 d0 3b 3f 4a 46 4c 3e 60 d9 a9 be
       0.18680678 0.73364294 0.19948688 -0.33173656
000280 67 2b 4e bf 44 88 6d 3e 37 0d 55 3f 7c 26 94 3e
       -0.80534977 0.23196512 0.8322329 0.2893561
000290 27 cf a1 3f 60 ff ce be a6 ba 24 bf 0b 07 77 3f
       1.2641343 -0.4042921 -0.643473 0.9649512
0002a0 d2 5b 50 bf 33 9d 61 be 7a fc a4 3e c2 1b 87 be
       -0.81390107 -0.22032623 0.32223874 -0.26388365
0002b0 de 86 68 bf b6 5e 0d be 9f 70 cf 3d b3 4a e5 bd
       -0.9083079 -0.1380566 0.10128903 -0.11195888
0002c0 61 6e 9b 3e e4 64 50 3e 79 0d 6e 3f 81 7f 34 3e
       0.3035765 0.20350987 0.9298931 0.17626764
0002d0 0a 95 f8 bd f3 4f dd bd 4a 68 9a be 7b 5e 01 3e
       -0.12137802 -0.10806265 -0.3015769 0.12633698
0002e0 f3 bf 4d be 8d e7 94 bd 99 64 16 3f ab 0d 99 bd
       -0.20092754 -0.07270727 0.5874725 -0.0747331
0002f0 b1 b7 8a bd a2 71 c3 3e 8e ec 80 3f 17 e8 7c 3f
       -0.067733176 0.38172632 1.0072191 0.9879164
000300 bd 0b dc bf 46 70 b5 3e a9 6f 76 3e ac 83 d8 be
       -1.7191082 0.3543722 0.24066032 -0.42287958
000310 03 5f 23 3e a0 64 0c 3f 07 93 9e be 86 37 5c bf
       0.15954213 0.5484104 -0.30971548 -0.8602222
000320 1f d2 1a 3f 88 4c 09 3e 97 80 60 bf 95 a8 86 3f
       0.6047687 0.134081 -0.8769621 1.0520197
000330 a4 21 31 3f 64 98 04 3d 80 61 97 bc 80 cb ba 3e
       0.69191957 0.032371894 -0.018479109 0.36483383
000340 3b 23 d9 3e 3f f5 8c 3e a4 54 87 3c cd 06 b3 bc
       0.4240969 0.27530858 0.016519852 -0.021853829
000350 d4 de 5c be c7 9e 24 bf 35 b2 94 3e a5 7c 2b bf
       -0.21569377 -0.64304775 0.2904221 -0.6698707
000360 d1 f8 41 3f f8 cd e5 be 09 82 8a be 40 8a cd 3e
       0.7577029 -0.44883704 -0.27052334 0.4014454
000370 79 2a 2a 3f 36 da 51 3d 6e 0e d5 3d a7 70 04 3f
       0.6647106 0.051233493 0.10403143 0.51734394
000380 c5 63 cb be 6b 33 f8 bf a2 0e 83 3f 83 fd e0 3d
       -0.39724556 -1.9390692 1.023884 0.109858535
000390 9e 95 6c be 7b d6 5c bf 51 46 ff 3e 7d 7c 3d 3f
       -0.2310395 -0.8626477 0.49858335 0.7401808
0003a0 7a 19 1e bd 4e 8b 09 c0 dc ec 46 be 63 86 57 3f
       -0.038598515 -2.1491275 -0.19426292 0.8418943
0003b0 22 3c 91 bf b5 56 0f 3e 0b 69 3b be 52 69 41 3f
       -1.1346476 0.1399792 -0.1830179 0.7555133
0003c0 42 e8 9a 3a aa bc 4a 3f 9d 83 87 3f b7 05 b6 3e
       0.0011818486 0.7919413 1.058704 0.35551235
0003d0 40 a3 81 bd 69 e9 5f bf 3a 49 04 3f e8 24 b8 3f
       -0.063299656 -0.8746553 0.51674235 1.4386263
0003e0 2e e7 37 bf 51 bc 35 3e 24 66 5d 3e b8 32 0c bf
       -0.7183713 0.17747618 0.21620995 -0.5476489
0003f0 16 19 cc bf 83 40 42 bf 84 af 24 3e bd 1e 06 3e
       -1.5945156 -0.7587969 0.16082579 0.13097663

fc1.bias f4 [128]
000000 11 24 7e c0 c0 13 0b c0 26 bc b4 bf 69 fb 4f c0
       -3.9709513 -2.1730804 -1.4119918 -3.2497199
000010 3c e3 3d c0 d7 3b 2f c0 e9 09 39 c0 a0 df 44 c0
       -2.9669943 -2.7380273 -2.8912299 -3.076149
000020 33 00 3f c0 71 32 2e bf f9 db f8 bf c3 e5 3d c0
       -2.9843872 -0.6804572 -1.944213 -2.9671485
000030 79 7b 19 c0 fe a9 9e ba 88 53 17 c0 2b 5c 16 c0
       -2.3981612 -0.0012105105 -2.3644733 -2.3493755
000040 cb b8 51 c0 77 41 3d bd 4f 32 27 c0 86 b6 56 c0
       -3.2769039 -0.04620501 -2.6124456 -3.3548903
000050 9f 1a 2f c0 e1 75 ca 3e 76 33 a9 40 df a0 28 c0
       -2.7359998 0.3954306 5.287532 -2.6348188
000060 83 45 27 3f 96 3a 85 bf b1 aa 68 c0 d7 2f 02 bd
       0.6534044 -1.0408504 -3.6354182 -0.031783905
000070 4f 50 51 c0 90 61 13 c0 d4 c0 01 c0 d8 bd 23 3f
       -3.2705266 -2.3028297 -2.0273943 0.63961554
000080 1e ce 38 c0 33 12 20 c0 c7 38 cb bf 09 e4 35 c0
       -2.8875804 -2.5011108 -1.5876702 -2.8420432
000090 47 97 0a c0 5a 4f 33 3f 4b 84 3b c0 8a 68 62 c0
       -2.1654832 0.70042956 -2.9299495 -3.5376306
0000a0 c8 21 2d c0 06 da 33 c0 35 8a 39 bf 14 a5 15 c0
       -2.7051868 -2.810182 -0.7247651 -2.3382006
0000b0 0b d4 73 3f 33 d9 04 c0 37 fe 6f c0 e2 c3 41 c0
       0.95245427 -2.0757568 -3.749891 -3.0275807
0000c0 22 f1 25 c0 6a 43 3e c0 37 de 44 c0 fb 6c eb bf
       -2.5928426 -2.9728646 -3.076063 -1.8392633
0000d0 fe 0a 69 c0 01 19 39 c0 1c a6 44 c0 af 25 3f c0
       -3.641296 -2.892151 -3.0726385 -2.986675
0000e0 e4 23 04 c0 95 51 20 c0 ea a4 1c c0 86 8d 1d bf
       -2.0646906 -2.5049794 -2.4475656 -0.6154407
0000f0 3a 46 45 41 6b bb 46 c0 98 95 39 c0 d4 c6 23 c0
       12.329645 -3.105189 -2.8997555 -2.5590105
000100 c2 f6 a5 3f 88 8c 6c c0 25 f9 37 c0 ba 3d 46 c0
       1.296593 -3.6960773 -2.8745816 -3.0975175
000110 cd e8 3d c0 ea 7f 5e bf bb 35 3a 41 35 bf 63 3f
       -2.967334 -0.8691393 11.638118 0.88963634
000120 ce 91 1f c0 e8 c3 5f c0 ca e2 37 c0 50 4b 96 bf
       -2.4932742 -3.4963322 -2.873217 -1.1741734
000130 3c 3d 15 c0 61 61 36 c0 48 dc 24 c0 70 b7 15 3f
       -2.3318624 -2.8496935 -2.575945 0.5848303
000140 38 53 b8 bf 84 fc 5e c0 5b e8 0a c0 d9 6d 86 c0
       -1.4400396 -3.4841623 -2.1704319 -4.200909
000150 9f 41 4e 3f b4 c5 87 c0 e3 04 68 c0 91 c7 44 c0
       0.8056888 -4.2428837 -3.6252983 -3.0746806
000160 4a cd 46 c0 4a 56 4a c0 9a c6 5a c0 aa 3a 13 c0
       -3.1062799 -3.1615167 -3.4183717 -2.3004556
000170 d6 3c 57 c0 80 e8 2e c0 6c 29 23 40 8a 74 c1 bf
       -3.3630881 -2.7329407 2.5494032 -1.511369
000180 30 ff fc bf c5 06 34 c0 c8 5b 07 c0 78 a6 07 c0
       -1.9765377 -2.8129132 -2.114977 -2.1195354
000190 cd 73 4a c0 68 cf 4a be 62 7d ab 3e 89 4d 82 be
       -3.163318 -0.19805682 0.33494097 -0.2544978
0001a0 fb 63 27 c0 70 a0 2e c0 2f ca 53 c0 06 7a 25 c0
       -2.6154773 -2.7285423 -3.3092153 -2.5855727
0001b0 f4 97 35 41 56 b8 43 c0 8f 50 3d c0 08 cf 3e c0
       11.349598 -3.058126 -2.958042 -2.9813862
0001c0 10 42 1a bf f5 17 5d c0 93 53 51 41 8b 8e 42 c0
       -0.60257053 -3.4545872 13.082904 -3.0399501
0001d0 00 00 43 c0 1e 4f 35 c0 42 4f 19 3f 0f 05 38 c0
       -3.046875 -2.832954 0.5988656 -2.8753088
0001e0 6a 98 2b 41 01 49 23 c0 aa b4 8f 3f cc 8d ad 3f
       10.72471 -2.5513308 1.1227009 1.3558898
0001f0 73 b2 77 c0 be 5e 2f c0 8b 95 4b c0 3a 90 4c bf
       -3.8702667 -2.7401576 -3.1810024 -0.7990757

fc2.weight f4 [128, 128]
000000 6d 2c 83 bc 6a b1 7a 3d d2 e4 6a bc 10 df 8a bc
       -0.016012395 0.06120435 -0.014336782 -0.016952068
000010 f2 10 98 bd 47 4d 7e bd 79 f5 b3 bd 3a ac b8 bc
       -0.07425107 -0.062085416 -0.087870546 -0.022543062
000020 f4 12 df bd 41 43 3c 3c 00 5a 7e 3d 04 cd 3d 3d
       -0.10892287 0.011490644 0.06209755 0.046338096
000030 7b 56 b5 bc 7a 28 11 bd 41 d3 dd bd fd f7 bc bd
       -0.022135964 -0.035438992 -0.10831309 -0.092269875
000040 f4 cd 8f bc bb 2b 2d 3d 37 3f 89 bd 4b b4 56 bd
       -0.01755426 0.042278033 -0.067015104 -0.052418035
000050 36 2a 90 bd b0 0c bf bc 8b e1 95 bd 88 df fb bc
       -0.07039301 -0.02332148 -0.073184095 -0.030746236
000060 63 7f 34 bd b7 fb 57 bd 35 46 0d bd 8c 9e c5 bd
       -0.044066798 -0.05273029 -0.034490783 -0.09649381
000070 98 71 9a bc 2a 6a 83 bd 02 c3 1c bd ca 57 73 bc
       -0.018852994 -0.064167336 -0.03827191 -0.0148524735
000080 ea d2 5c bd e5 6b 86 3c d5 bb 11 3c 11 6f 5f bd
       -0.05391208 0.01640887 0.00889488 -0.05454928
000090 d6 e4 ad bc 18 2f 97 bd e2 d0 c3 3c b1 35 e3 bd
       -0.021227282 -0.07382029 0.023903314 -0.11094225
0000a0 d8 b1 e5 bd b8 9f cc bd e9 74 8e bc 1d 59 8b bd
       -0.11215562 -0.099914014 -0.017389731 -0.068041064
0000b0 37 36 9c bd 24 22 17 3c 60 7b 77 bd 26 9c c7 bd
       -0.07627528 0.009224448 -0.060420394 -0.0974658
0000c0 dd 28 34 3d 1d 96 13 bd 81 f2 8e 3c e9 d1 b1 3c
       0.043984283 -0.03603183 0.01744962 0.021706538
0000d0 aa 49 6a 3d a2 ef 1a 3d f6 9b e7 3c 92 59 a2 3b
       0.057199158 0.037826188 0.02827261 0.0049545253
0000e0 82 02 87 3d aa 0b 13 3d 12 5a 4d 3d ff e3 a7 bd
       0.06592275 0.035899796 0.050134726 -0.08197784
0000f0 23 ef 4b 3c cb b5 2e bd 4c 0b f7 bd de 07 cd bc
       0.012447151 -0.04265384 -0.120627016 -0.025028165
000100 70 ae f3 3c c5 78 c4 bd be 80 f2 3c 97 58 b6 3c
       0.029746264 -0.095933475 0.029602405 0.02225904
000110 54 8e 2c 3d c6 33 d8 bc 42 0b c6 3b cf 3a 21 bd
       0.042127922 -0.026391875 0.0060438225 -0.039362725
000120 95 53 b8 3b c7 10 72 3d 45 2d 78 3b f2 cc d6 bd
       0.005625198 0.05909803 0.003786878 -0.10488309
000130 6b 75 24 bd 00 f1 e7 3b f2 ea d1 bd a3 6e 8e bd
       -0.04015104 0.00707829 -0.102498904 -0.06954696
000140 93 84 84 bd 4a b9 9d bd 89 68 dc bd b6 49 9a bd
       -0.06470599 -0.07701357 -0.10762126 -0.075335905
000150 c8 ae 94 bd 63 b0 e1 bd d5 ed 75 bc 6f 93 59 bd
       -0.072598994 -0.11019971 -0.015010317 -0.05311912
000160 38 d2 7e bd c1 b1 b8 3c 34 de 17 bd 58 19 3f bd
       -0.0622122 0.022545697 -0.037077144 -0.04665503
000170 08 8d 62 bd 4e 1b b9 bd 00 0d af bb 2c 25 80 3d
       -0.05531028 -0.09038411 -0.005342126 0.0625709
000180 2b 3b d4 bc 4c 65 63 bc 91 62 b4 3c 75 f6 e2 bd
       -0.02590712 -0.0138791315 0.022019656 -0.11082164
000190 82 c8 24 bd 8b f3 ac bd 4c 26 29 3d 1e 67 63 bd
       -0.04023028 -0.0844489 0.04129629 -0.055518262
0001a0 00 d1 a7 bc af 77 d3 bd b6 a5 89 bc d2 24 72 bd
       -0.020485401 -0.10325562 -0.01680265 -0.059117146
0001b0 f3 fc e3 bd 13 27 1f bd 3f 43 e3 3c 46 f5 14 bd
       -0.111322306 -0.038855623 0.027742026 -0.036366723
0001c0 53 4f 49 bc da ac b6 bc 86 2f 90 3d 21 a1 58 3d
       -0.012286979 -0.022299219 0.070403144 0.05288804
0001d0 3a 50 94 bd 2e 20 4f bd c2 90 86 3c b5 12 ad bd
       -0.072418645 -0.0505678 0.016426448 -0.08450834
0001e0 40 42 93 bd 0c f2 e7 bd 79 88 f5 bd d9 34 88 bd
       -0.071903706 -0.11325464 -0.11988921 -0.06650705
0001f0 9b a4 51 bc 4c 9a 82 bd 57 3e 4c b8 16 67 a0 bd
       -0.012795593 -0.06377086 -4.869545e-05 -0.07832162
000200 a0 46 80 40 d0 6a ae 3f d6 8d d0 3f 69 e1 00 40
       4.008621 1.3626347 1.6293285 2.013758
000210 8f 1c 66 3e aa d7 cd be 70 97 b3 3f 81 85 5a 40
       0.22471832 -0.402036 1.403059 3.4143984
000220 98 d1 d4 bd b5 8e 14 40 75 1f 4b 40 fc 57 66 40
       -0.10391539 2.3212101 3.173795 3.5991201
000230 07 c6 bf bf c5 68 14 3e e7 ce e7 bf 48 38 08 c0
       -1.4982308 0.14493091 -1.8110017 -2.1284351
000240 0b 97 38 40 86 80 03 be dc 77 d6 3f ae f4 5e 40
       2.884219 -0.12841997 1.6755328 3.483684
000250 8b 47 a1 3e f2 4f 07 bf 38 87 ac 40 09 4c 2d 40
       0.31499895 -0.5285636 5.391506 2.7077658
000260 85 de 3d 40 d5 f4 63 bf 20 ea a8 40 66 2e 20 40
       2.9667065 -0.8904546 5.2785797 2.502832
000270 e6 18 55 40 df c9 e6 40 c3 7d 35 3f 04 68 86 3f
       3.3296447 7.2121425 0.7089502 1.0500493
000280 d1 20 8d 40 12 92 99 3f b8 6a 16 c0 68 65 73 3f
       4.410256 1.1997702 -2.3502636 0.9507661
000290 2d a1 37 3e d8 54 26 bc 79 fb 5a 40 17 68 7f 40
       0.17932577 -0.010152064 3.4215987 3.9907281
0002a0 0d 3f 12 40 5a 77 08 40 75 72 5c 40 15 e0 48 40
       2.2850983 2.1322846 3.444486 3.138677
0002b0 e9 d4 9f bc f6 dd 0d 40 ff ef 78 40 dd fb aa 40
       -0.019510703 2.2166724 3.8896482 5.343245
0002c0 58 9a 08 40 88 74 a8 3f 95 e0 2e 3f 1a 37 83 40
       2.1344204 1.3160563 0.68311435 4.1004763
0002d0 36 d4 99 40 c8 96 b2 40 c3 09 77 40 22 34 27 40
       4.8071547 5.580906 3.8599708 2.612557
0002e0 ba 2f a6 3f 0d 61 d9 bf 38 e8 c0 40 ce 86 82 bf
       1.2983315 -1.6982743 6.028347 -1.0197389
0002f0 e8 65 42 3f a5 e7 0f 40 a4 b1 3c 40 ce 6b 80 40
       0.75936747 2.2485135 2.9483423 4.0131598
000300 78 70 be bd b5 13 6f 40 9b 2a 41 40 50 cb 9a 40
       -0.092987955 3.7355778 3.0182254 4.8373184
000310 0c fc cb 3f 52 f8 ca 3b 6b a5 74 40 f7 5c 04 40
       1.5936294 0.006194153 3.8225963 2.0681741
000320 7a f9 91 40 f8 1c 33 40 49 11 99 40 66 32 82 bf
       4.5617037 2.798643 4.78336 -1.017163
000330 fd 13 33 40 48 58 a5 40 af e2 36 3f 43 fd e5 3e
       2.798095 5.1670265 0.7143964 0.44919786
000340 da 62 42 bf 0b 94 04 40 89 b8 d7 3f ce 75 a3 40
       -0.75932086 2.0715358 1.6853191 5.1081305
000350 90 4d a0 bd cc 8f e9 40 46 fe 5d 40 f9 b9 1b 40
       -0.07827294 7.2988033 3.4686446 2.4332259
000360 a3 bd 85 40 f9 cc dc 40 32 23 4b 40 ee fc d8 be
       4.179399 6.900021 3.1740232 -0.4238047
000370 83 87 82 40 d9 0e fb 3f b8 2f 56 3e 43 92 21 3f
       4.079042 1.9613906 0.20916641 0.631138
000380 88 82 44 c0 05 ed 23 40 18 bf 0a 3f cf 31 ab 3f
       -3.070467 2.5613415 0.54197836 1.3374575
000390 84 e2 a5 3e 29 ec 5a 3a 6b 55 86 3e 0b 61 10 c0
       0.3239938 0.00083512306 0.26237044 -2.255923
0003a0 7b ea fe 3e d5 e6 2f 40 3c 1d 25 40 8b 78 2f 3f
       0.4978827 2.7484639 2.5799093 0.6854331
0003b0 5b f6 7f 3f 1c 94 8c 40 ec ed 9c 40 ec 28 cb 3f
       0.99985284 4.3930798 4.904043 1.5871863
0003c0 8b ce 3b be fd dc c0 40 58 0c 2b 3f 23 a5 02 40
       -0.18340509 6.026976 0.6681571 2.0413291
0003d0 2e ce c0 be 37 71 d7 3e c7 0e 26 40 65 58 a6 40
       -0.37657303 0.42078564 2.594652 5.1982903
0003e0 25 cd 44 3f 89 c5 d1 3f 7a 16 6a 40 a2 3e 8d 3e
       0.76875526 1.6388408 3.6576219 0.27586848
0003f0 f4 ac bb 40 18 3c f9 3f d8 17 28 40 d9 bc 2e bf
       5.8648624 1.9471464 2.6264553 -0.6825691

fc2.bias f4 [128]
000000 b7 26 84 bd a6 f8 7b 3f 7e 19 b1 bd ed 56 7b 3f
       -0.06452697 0.9842628 -0.086474404 0.98179513
000010 d6 d0 37 3d 03 85 7b bd 31 b5 8f 3d 96 35 f7 bc
       0.044876896 -0.061406147 0.070169814 -0.030176919
000020 12 28 0f c0 72 ea 6d 3f f4 21 a9 3f 2e 89 81 3f
       -2.2368207 0.9293586 1.3213487 1.0119989
000030 98 73 59 3f d1 7d 2f 3f 8d 5d 42 c0 dc 35 8b c0
       0.8494201 0.68551356 -3.03696 -4.3503246
000040 d8 02 8e 3f 52 e3 b9 3f 13 ba fd bc eb 00 c5 3f
       1.1094618 1.4522498 -0.030972516 1.5390905
000050 68 96 1e bd 3c 40 d0 3f 54 97 e9 be 3f 08 0e 3f
       -0.038717657 1.6269603 -0.45623267 0.5548133
000060 e1 1b 0e 3f 97 d5 18 c0 55 f0 d7 3f 4c 82 55 40
       0.5551129 -2.3880365 1.6870219 3.3360777
000070 15 84 d3 3f ee e9 4c 3f f8 5a 86 3f c0 d0 ed 3f
       1.6524683 0.8004445 1.0496511 1.857933
000080 04 af d4 3f 5f c2 c8 3f f7 1e b9 40 97 76 55 3e
       1.661591 1.5684317 5.78503 0.2084602
000090 1a 8d 53 c0 fc cc 1c c0 81 77 a4 3f ad 86 36 bd
       -3.3054872 -2.4500113 1.284897 -0.04456203
0000a0 68 0b d6 3f 97 53 9f bd 98 32 eb 3f 54 42 e0 3f
       1.6722231 -0.07779615 1.8374815 1.7520242
0000b0 36 42 f7 bf c0 3c a0 3f 0f c6 c5 3f c7 e7 49 3d
       -1.9317081 1.251854 1.5451068 0.049293306
0000c0 92 92 88 c0 75 a4 1d bd 68 9b 64 bd 7a 60 96 40
       -4.267892 -0.038486917 -0.05581227 4.699277
0000d0 6e 47 41 3e e2 18 60 3f ee 02 81 3f d5 9e 64 3f
       0.18874905 0.8753797 1.0079019 0.8930486
0000e0 c0 bb 90 bb 6d 2d 7d 3e dc 50 2a c0 29 c7 4c 3f
       -0.004416913 0.2472436 -2.6611853 0.79991394
0000f0 28 96 8b 3f fd d8 b9 3d 0c 3b 62 c0 55 62 51 c0
       1.0905199 0.0907459 -3.534854 -3.2716267
000100 bb 23 1c 3f fa af 81 3f ac e4 3b c0 bc ca a1 3f
       0.6099202 1.0131829 -2.935832 1.2639995
000110 5d e3 18 3d 00 43 5e 40 ae 1c 19 3f 5a 07 10 c0
       0.037326206 3.4728394 0.59809387 -2.2504487
000120 c9 8f cf bc 40 f7 a5 3f ea bd f1 3f 7a 66 3c 3f
       -0.025337117 1.296608 1.8886082 0.73593867
000130 5f 5d 67 40 c2 09 33 3f 10 da 87 c0 60 b6 73 bd
       3.615074 0.69936764 -4.245369 -0.0595001
000140 f2 14 64 3d 93 72 09 bd d0 e1 b7 3f 71 b7 84 3f
       0.055684038 -0.033556532 1.4365788 1.0368482
000150 fd 4c 8a 40 27 12 a3 c0 af 5d 7e 40 60 c1 8d 3f
       4.321898 -5.095966 3.974468 1.1074638
000160 3e ec 9d 3f 66 b0 e0 3f 74 14 b2 bc 95 04 f1 bc
       1.233772 1.7553833 -0.021738268 -0.02942113
000170 07 14 5c c0 6d a7 95 3f e9 c5 9a 3f f4 c1 c7 3e
       -3.4387224 1.1691719 1.2091647 0.39015162
000180 5f 72 65 bd 51 26 bc 3f 3d 56 9a 3f 03 f9 8e 3f
       -0.056017276 1.4699193 1.2057568 1.1169742
000190 31 94 bc bd 47 3d 85 40 0a 9a 83 bf 7e a9 ad bd
       -0.09207953 4.16373 -1.0281384 -0.08479594
0001a0 26 24 62 3f a5 d6 ba 3f bc 5f 9f 3e b4 a6 d2 bd
       0.8833641 1.4596754 0.31127727 -0.10285702
0001b0 c3 76 cb 3f 96 c2 48 40 02 6a df 3f 9c cb f2 3f
       1.5895618 3.1368766 1.7454226 1.8968387
0001c0 f0 d8 aa bd 00 16 6c be be 21 8b c0 9a 95 58 3f
       -0.08342159 -0.23055267 -4.347869 0.84603274
0001d0 77 6b b4 3f e7 56 b1 3f 26 50 87 3f a9 a1 ab 3f
       1.4095296 1.3854645 1.0571334 1.340871
0001e0 62 ae c5 3f 5a da ff bc 6e e8 15 be e5 42 9e 3c
       1.5443842 -0.031232048 -0.14639446 0.019319007
0001f0 95 10 93 3f 28 4a 82 3f e0 c5 44 c0 bd 74 b5 3f
       1.1489435 1.0178881 -3.0745773 1.4176251

fc3.weight f4 [4, 128]
000000 19 60 20 3d 52 a8 91 3f 6c 40 40 bd 31 30 9d 3f
       0.039154146 1.1379492 -0.046936437 1.2280332
000010 52 03 36 3d aa c8 85 bc d3 f2 2a bd c3 32 0c bd
       0.04443676 -0.016331036 -0.04173548 -0.034228098
000020 bf 1e ae 3f bc f9 8d 3f f9 79 90 3f e6 a0 27 3f
       1.3603133 1.1091838 1.1287223 0.65479887
000030 97 c6 60 3f 93 bf a8 3f 16 62 15 40 87 ec a1 40
       0.87803024 1.3183464 2.3341117 5.060123
000040 1b b7 af 3f a0 82 a7 3f ca 6a 45 bd ab e6 9f 3f
       1.3727754 1.3086739 -0.048197545 1.2492269
000050 ef 5f 18 37 b9 c6 9b 3f 5b 08 85 3f 75 64 a3 3f
       9.082242e-06 1.217002 1.0393175 1.2765032
000060 89 38 55 3f 5c 85 d1 be 5a dd af 3f d6 40 af 3f
       0.8328939 -0.40922058 1.3739426 1.3691661
000070 ae 4a 62 3f dc 5c 65 3f 54 9e 9f 3f 24 04 99 3f
       0.883952 0.8959482 1.2470193 1.1954389
000080 f2 20 a5 3f 10 b6 63 3f e1 4f 9d bf 54 70 2d 3f
       1.2900679 0.8894968 -1.2290002 0.67749524
000090 b1 be 29 40 00 55 6b bf ce 0c 5b 3f 91 7c 0a bd
       2.6522639 -0.91926575 0.85566413 -0.033810202
0000a0 26 22 a0 3f 04 8a 12 3d 54 48 a1 3f 63 26 af 3f
       1.2510421 0.035776153 1.2600198 1.368359
0000b0 ec 3d b7 3f 9e c5 93 3f b9 1e ae 3f 59 00 79 bb
       1.4315772 1.1544683 1.3603126 -0.0037994592
0000c0 59 f6 63 40 69 f2 32 bd db 91 5a bd 81 d2 82 40
       3.5619109 -0.04368821 -0.053361755 4.0881963
0000d0 15 08 af be e3 b3 90 3f fa e4 a9 3f 68 5e 3d 3f
       -0.34185854 1.1304897 1.3273003 0.7397218
0000e0 69 78 84 3d 7b e6 f8 3e 69 b8 04 40 42 d0 8b 3f
       0.06468279 0.48613343 2.0737555 1.092293
0000f0 61 8b 9c 3f e0 bd 3f 3f a5 a0 21 40 c7 4e 7f 40
       1.2230035 0.748991 2.52543 3.9891832
000100 96 3f 8c 3f c5 ce ab 3f fc 24 8a 40 77 f8 96 3f
       1.0956905 1.3422476 4.3170147 1.1794575
000110 4e eb 9b 3d ae f0 46 40 e1 83 8e 3f f9 8f 2c bf
       0.0761324 3.10844 1.1133996 -0.67407185
000120 95 35 86 bd f1 f7 8d 3f 4c 93 c9 3f 03 f7 df 3f
       -0.06553189 1.1091291 1.5748076 1.7497257
000130 f6 17 20 40 77 dc 36 3f 6b 8d 33 40 b2 b5 9e bc
       2.5014625 0.7143015 2.8055065 -0.019373748
000140 96 bc fe bc ee c3 ce bc 84 7d 85 3f 26 f2 1a 3f
       -0.031095784 -0.02523991 1.0428929 0.6052574
000150 a8 d4 73 40 6b 26 e8 40 42 0a 60 40 71 31 7d 3f
       3.8098545 7.2546897 3.500626 0.98903567
000160 4d f7 5f 3f 1a ca a7 3f 45 4e 1b 3b 20 43 aa bc
       0.87486726 1.3108552 0.0023697775 -0.02078396
000170 cf 94 f8 3f 06 37 6b 3f 22 2c ab 3f 41 1a 4d 3f
       1.9420413 0.91880834 1.3372843 0.80118185
000180 27 ef f2 3c 6b 68 86 3f 65 c4 b5 3f ef 60 9c 3f
       0.029655052 1.0500616 1.420056 1.2217082
000190 53 0c 64 bd 84 9a 86 40 75 29 15 3f b3 44 44 bd
       -0.055675816 4.206362 0.58266383 -0.04791708
0001a0 c1 1c 33 3f 92 cf 8a 3f 3f 94 85 40 39 44 94 bd
       0.6996575 1.0844595 4.1743464 -0.07239575
0001b0 da fe 9e 3f ce a9 a9 3f 52 bf 7c 3f 6f be a5 3f
       1.2421525 1.3254945 0.9872943 1.2948741
0001c0 cd f8 81 bd 3b 71 5e 3f c9 e5 07 41 81 3d 27 3f
       -0.06346283 0.86891526 8.4936 0.6532822
0001d0 b0 d0 41 3f a5 45 a6 3f b0 5b 96 3f 92 c5 a8 3f
       0.75709057 1.2990004 1.1746731 1.3185294
0001e0 69 52 8f 3f ef da db 3c 00 b9 45 40 fe 88 45 3c
       1.1197025 0.026837794 3.0894165 0.012056587
0001f0 50 59 9e 3f f1 bf 5d 3f fe 40 1e 41 31 7a b9 3f
       1.2371006 0.86621004 9.890867 1.4490415
000200 80 b2 eb b9 96 61 fc 3e e0 b4 4c 3c cc ce 34 3f
       -0.00044955686 0.49293202 0.012494296 0.70628047
000210 1b 07 59 bd 12 d5 62 bd 72 f5 7f bd 5b 2e 17 bc
       -0.052985292 -0.05537898 -0.062489934 -0.009227361
000220 c1 bb 3a 40 60 50 10 3f 07 9d 3a 3f cc 1e 46 3f
       2.9177096 0.5637264 0.72895855 0.7739074
000230 55 19 04 3f e2 72 33 3f 40 0d 7b 40 1e 4e b0 40
       0.51601154 0.7009717 3.9226837 5.509536
000240 e8 6d 1f 3f 8d 78 32 3f 48 3c 3d 3d 22 23 5a 3f
       0.6227708 0.69715196 0.046200067 0.8520986
000250 1c 22 20 bd 00 84 5b 3f 1c b5 17 3c 4f 38 b2 3e
       -0.03909503 0.8574829 0.009259488 0.34808585
000260 f2 be c4 3e 8a 3f 6f 40 11 77 7b 3f 5d ab 1f 40
       0.3842693 3.738253 0.98228556 2.4948342
000270 ba fa 87 3f 6f 4e 26 3f 30 e1 bf 3e 71 e7 8e 3f
       1.0623391 0.6496343 0.37476492 1.116438
000280 0a 8e 78 3f 20 05 80 3f 8a 87 dd 40 20 fc de 3e
       0.97091734 1.0001564 6.9227953 0.4355173
000290 99 43 e8 40 a4 d1 73 40 0c d6 6e 3f bf 3e 5d 3c
       7.2582517 3.8096704 0.9329536 0.013503729
0002a0 db 44 7f 3f f9 06 95 bc ec c4 8f 3f 66 cc 82 3f
       0.9971444 -0.018191801 1.1231971 1.0218627
0002b0 5c cf ef 3f 62 74 2e 3f ca 33 45 3f c5 6f 16 bc
       1.8735156 0.68146336 0.7703215 -0.009181921
0002c0 bc bf 91 40 b1 c6 0f bb 9f f4 0e 3b 40 cf ba 40
       4.554655 -0.0021938498 0.0021813286 5.837799
0002d0 89 e4 90 3e 5d 67 00 3f 4d 32 f7 3e e4 49 10 3f
       0.28299358 0.5015772 0.48280564 0.5636275
0002e0 20 a0 af bb ae d7 79 3e a6 5a 8c 40 ab 78 02 3f
       -0.0053596646 0.24398682 4.3860655 0.50965375
0002f0 15 29 03 3f 29 fa ac 3d fa fd 89 40 b4 52 89 40
       0.5123456 0.08446152 4.312253 4.2913456
000300 22 6c a7 3e ae 41 13 3f a7 12 85 40 d1 37 36 3f
       0.32699686 0.57522094 4.158527 0.7117892
000310 bc 3d d8 3b 7a 9e 6f 40 78 94 bc 3e 45 25 10 40
       0.006599156 3.7440476 0.36832023 2.2522748
000320 47 d1 57 bb dc 0f 35 3f 09 65 82 3f 51 74 61 bf
       -0.0032931136 0.70727324 1.0187083 -0.8806811
000330 3c c7 d5 3f dd c9 f8 3e 21 98 92 40 f1 eb a0 3d
       1.6701427 0.4859151 4.5810704 0.07857502
000340 2e 8d 83 bd 81 11 3c 3b a5 04 3f 3f 11 b8 45 3f
       -0.06423412 0.0028696957 0.7461646 0.7723399
000350 04 c0 c7 40 c7 f6 a6 40 7c b4 a6 40 b2 db 42 3f
       6.2421894 5.217624 5.209532 0.7611648
000360 92 bb 67 3f 93 96 82 3f 8c 5a 41 bc 20 40 44 bd
       0.90520585 1.0202202 -0.011801373 -0.047912717
000370 08 2f 85 40 0c bf 39 3f 76 fc 30 3f 97 76 15 3f
       4.161991 0.7255714 0.69135225 0.5838408
000380 d7 34 bc bc 8c da 60 3f 09 44 4e 3f 04 f1 08 3f
       -0.022974415 0.87833476 0.80572563 0.5349276
000390 fa 2d 67 bd 89 a8 af 40 96 90 53 bd 34 39 b3 3c
       -0.05644033 5.489323 -0.05165156 0.021877863
0003a0 7a 71 02 3f c9 a1 7b 3f c0 75 10 3e 08 77 f7 3b
       0.509544 0.9829374 0.14107418 0.0075520314
0003b0 ac 9a 67 3f 40 25 25 40 69 b7 89 3f 70 d3 86 3f
       0.90470386 2.5803986 1.0759097 1.0533276
0003c0 23 b0 ee 3c 41 da 81 bd 68 5e bc 40 ae 3c 1e 3f
       0.029136723 -0.06340457 5.886524 0.6181134
0003d0 ea 52 74 3f 80 c5 1b 3f 64 38 32 3f 62 61 3d 3f
       0.95439017 0.60848236 0.69617295 0.7397672
0003e0 ec fc 61 3f 62 6b 5e 3d 38 4e 03 c0 85 ac 16 3d
       0.88276553 0.054301627 -2.051649 0.03678562
0003f0 81 69 0d 3f f9 fd 50 3f 94 7c 88 40 8e 48 66 3f
       0.5523911 0.8163753 4.2652073 0.8995446

fc3.bias f4 [4]
000000 9c f8 b8 3f 48 bc bc 40 1a 53 0b 3e b7 80 46 bf
       1.445087 5.8979836 0.1360592 -0.77540153
