ai/models/dqn/trained_models/dqn_2048_200.pth (torch, 78975 bytes, 6 tensors)

fc1.weight f4 [128, 16]
000000 66 25 12 bd fb f4 13 bd 95 e5 f1 3c 01 de 89 bd
       -0.035680197 -0.036122303 0.029528419 -0.06731797
000010 12 71 17 be c5 49 d1 3d 2c 11 8a 3e 35 d9 eb bd
       -0.14789227 0.102191485 0.26966226 -0.11516038
000020 f5 9c ac 3e 8a 5c a1 3c 1b f9 65 3e c6 32 1b 3e
       0.337135 0.019697446 0.22458307 0.15156087
000030 51 3b e2 bc 75 e7 61 3e 3b 8a ed 3e e6 f3 a4 3e
       -0.027616175 0.2206095 0.46394524 0.3221733
000040 5d 15 05 3f 49 c5 9b 3d ed 3a c8 3e ff bf d1 3d
       0.5198572 0.076059885 0.39107457 0.102416985
000050 aa da 11 3f 88 85 28 be 6d 86 7e be d7 06 12 3f
       0.5697428 -0.16457188 -0.24855967 0.57041687
000060 85 48 17 bf 5a 19 fc 3e 43 f7 a3 bd cc 52 10 3e
       -0.5909503 0.49238092 -0.08006146 0.14094085
000070 a8 bd fc bd 36 09 bf be e4 5f 75 3e 93 f1 b9 be
       -0.123408616 -0.37311715 0.2396236 -0.3631712
000080 a7 5f 2c 3e 9c ac f3 3e 1c 52 0f 3f 9b dc dd 3e
       0.16833363 0.47592628 0.55984664 0.4333237
000090 6f 15 c1 3e 9d ba 3c be 4b ca b7 3e 9a cd 45 3e
       0.37711665 -0.18430562 0.35896525 0.19316712
0000a0 57 d3 d5 3e 6d 73 da 3d 4e cd 10 be d6 7b 8f 3e
       0.41762802 0.10666547 -0.14140818 0.28024167
0000b0 c2 0e 9b 3e 02 83 55 3d 18 e7 2d be d4 c2 fd bd
       0.30284697 0.052126892 -0.16982687 -0.12390676
0000c0 f6 32 90 be cb 7d 9d bd 07 4a 7e 3e a5 e2 75 be
       -0.2816388 -0.07690009 0.24832927 -0.2401224
0000d0 86 9f f9 3d 1e a4 e4 3d ef 4e 09 3f 99 da 6b be
       0.1218863 0.11164115 0.5363607 -0.23032607
0000e0 f2 ea b1 3e 2e 62 80 3d 9b 9f bf 3d 75 24 2e 3e
       0.34749562 0.06268726 0.09356614 0.17006095
0000f0 56 5e 68 3e 8b bb 76 3d b2 33 a8 3e d4 03 58 be
       0.22692236 0.06023745 0.3285194 -0.2109521
000100 87 9d 9e 3e c0 08 24 3e 08 ea 0f 3f 59 f5 8d 3e
       0.3097956 0.16018963 0.5621648 0.27726248
000110 4c f7 d6 3d e6 3b b2 3d e1 0c fd 3b b6 e3 08 3f
       0.10496387 0.08702831 0.0077224826 0.5347246
000120 30 1f d3 bc a8 2f c2 3d 22 51 0d be da 92 09 3f
       -0.025771707 0.09481746 -0.13800481 0.537397
000130 fd c0 82 3e f8 a4 95 3e b2 da 85 3d c0 5a 9b 3e
       0.25537863 0.29227424 0.065358534 0.30342674
000140 2c fc 80 be 66 81 9c bc 59 f9 f7 3e 9a f6 cf 3e
       -0.25192392 -0.01910467 0.48432425 0.4061783
000150 0a 71 7b be 0b b1 76 3e 75 18 ce bc 27 23 1e 3e
       -0.2455484 0.24090974 -0.025158146 0.15443097
000160 78 98 1e 3e 1f 0b b0 bd 7e 7d 9e 3e 8a 12 ef 3e
       0.1548785 -0.08595871 0.30955118 0.46693832
000170 0b cb a0 3e 19 bd 02 be aa 3d f3 3e 4c 52 02 3f
       0.3140491 -0.12767448 0.47507983 0.50906825
000180 8e 68 3d be 13 c4 79 3e af f3 eb 3e 1c 5c 68 3d
       -0.18496916 0.24391203 0.46084353 0.056728467
000190 08 f0 b8 3e 13 b4 84 3e 64 b9 89 bd 25 a4 04 3f
       0.3612063 0.25918636 -0.067248136 0.51812965
0001a0 69 34 1b bc dc 44 1a 3e 60 c5 88 bd 0c b7 9a 3e
       -0.009472945 0.1506533 -0.06678271 0.3021778
0001b0 3b 0a b0 3e 62 85 58 3e f5 30 d8 3e fe 23 80 3d
       0.34382805 0.21144632 0.4222485 0.06256865
0001c0 84 37 d8 3c 34 8e c8 3e da fd 1a 3d cf d8 03 3e
       0.02639366 0.39170992 0.037839748 0.12875675
0001d0 82 8a 48 3e 86 14 b3 bd 6c 83 6c 3e 62 a7 18 3f
       0.19584087 -0.08744149 0.23097008 0.59630406
0001e0 b5 27 e2 3e 2a b3 ec 3d dd b0 ce 3d 16 67 85 3e
       0.4417092 0.1155761 0.10092328 0.2605521
0001f0 58 f9 2f 3e c4 a3 81 3e 2f 62 8d 3d 94 45 54 3d
       0.17184961 0.25320256 0.06903493 0.051824167
000200 d6 f3 6f 3e e0 5a 81 3d 20 c0 02 3f 01 3f d6 3e
       0.2343286 0.06316161 0.5107441 0.41844943
000210 87 5d ae 3e aa a0 87 bd 70 d4 0b bd 02 0a 2d 3e
       0.3405573 -0.06622441 -0.034138143 0.16898349
000220 11 f5 96 bc 92 fc f9 bd c8 49 ff 3b 06 c8 8a 3e
       -0.018427404 -0.12206377 0.007790778 0.2710573
000230 a7 79 95 3c af a6 15 3e 8c b2 cc 3e b8 59 f1 3e
       0.018246485 0.14614366 0.3997997 0.47138762
000240 a1 6d dd 3e de 2a 7c 3e 5f 3b f2 3e ae d0 c5 3e
       0.43247703 0.24625728 0.47310922 0.38635772
000250 7e c9 8d 3e 81 9f 9d bd 5e eb 58 3e 62 75 cd 3e
       0.2769279 -0.076964386 0.21183535 0.40128618
000260 48 a6 95 3e 8c 76 17 3e 61 3c 2b 3e 94 c9 03 3f
       0.29228425 0.14791316 0.16722251 0.5147946
000270 69 14 d3 3e 27 db 17 3e 36 d1 e6 3e a1 95 9e 3e
       0.4122651 0.14829694 0.4508149 0.30973533
000280 a8 30 1a bd c5 2e bb 3e 35 fa c6 3e 36 de 0c 3f
       -0.03764406 0.3655912 0.38862768 0.55026567
000290 74 e3 eb 3e 66 15 fa bd d0 cc 93 bd 02 b1 a9 3e
       0.4607197 -0.12211113 -0.07216799 0.3314286
0002a0 7c a2 8a 3d 57 ec ac 3b 63 8b 05 3e 45 80 d4 3e
       0.06769273 0.0052771973 0.13041453 0.41504112
0002b0 4a 9a 41 3e 2a 28 01 be 38 5a 52 ba da c1 60 3e
       0.18906513 -0.12612978 -0.0008024308 0.21948949
0002c0 10 75 73 be 66 3f 98 bc 53 ad da 3e d0 3e 2f 3e
       -0.23775125 -0.018584918 0.4271036 0.17113805
0002d0 4a 44 7b be 37 1b 4b bd 25 6a 2b bc a9 07 5b 3e
       -0.24537769 -0.0495865 -0.010462319 0.21389641
0002e0 ed 43 ad bd aa 9b 61 3e d4 fb 4a 3e c2 f3 6f 3e
       -0.084602214 0.22032037 0.19822627 0.2343283
0002f0 39 d4 8b 3d 72 0a 57 3e bc e3 54 3e 01 5e d5 3e
       0.06827588 0.21000078 0.20789999 0.41673282
000300 df e7 e9 bd e0 0d 99 3e 84 27 cd 3d a8 b6 e1 3e
       -0.11421179 0.29893398 0.10017303 0.44084668
000310 43 6e e7 3d 6f a7 67 3e 3b 81 88 bd 68 3a 7a 3e
       0.11300328 0.22622465 -0.06665274 0.24436343
000320 9e 16 be 3e a1 14 4d be 30 49 94 3e 11 9a e9 3e
       0.3712663 -0.200274 0.28962088 0.45625356
000330 95 35 33 3e 97 2b 40 be 03 20 a3 3e a2 94 01 3f
       0.17500909 -0.18766628 0.3186036 0.5061742
000340 2b c6 90 3e 46 8c ec 3e 23 59 87 3e 4c 1e 04 3f
       0.2827619 0.4620077 0.26435193 0.5160873
000350 79 04 64 3e 57 3b a0 bd 51 6c 0d 3e d0 bc 1a 3e
       0.22267331 -0.07823818 0.1381085 0.15111089
000360 74 8b da 3e 2f 7c b4 be 4d 72 37 3e 9d 30 02 3f
       0.4268452 -0.35250995 0.17914696 0.5085543
000370 a9 f7 c4 3e c0 9c 26 bd 3d e1 b9 3e 58 ab ef 3e
       0.384702 -0.040676832 0.36304656 0.46810412
000380 06 f7 d3 3e bd bf 9e 3c 58 e9 ca 3e ca 75 e9 3e
       0.413994 0.019378537 0.39631152 0.45597678
000390 12 0f b1 3e be 8c 56 3d 1e 39 ca 3e 6b 70 18 3f
       0.3458181 0.052380316 0.39496702 0.59546536
0003a0 9c a7 aa 3e ed f7 a4 be 52 ca 3b 3e 16 08 21 3e
       0.33331 -0.32220402 0.18338898 0.15725741
0003b0 a1 1e 2f 3d 1e 65 9c 3e 6d ee 4d 3e 71 2d e5 3e
       0.04275382 0.30545896 0.20110483 0.44761232
0003c0 e3 32 d8 3e 1f 09 eb 3e 47 a8 03 3f 1e 1d 19 3d
       0.42226323 0.45905396 0.51428646 0.037381284
0003d0 32 2f 2a 3e 33 1c 9e bc 49 78 b5 3e 49 6b 2a 3f
       0.16619566 -0.019300556 0.35443333 0.66569954
0003e0 7e ec ce 3c 45 f0 f2 3d 96 00 32 3e 7a 54 b5 3e
       0.025259253 0.11862234 0.17383036 0.35416013
0003f0 51 a8 c8 bd e1 11 f5 bd c6 e8 2e bd bc ad b9 3e
       -0.09797729 -0.11966301 -0.04270246 0.3626536

fc1.bias f4 [128]
000000 98 ca 14 c0 7b 9d f7 bf fc 2b d7 bf 6b e6 1d c0
       -2.3248653 -1.9344934 -1.6810298 -2.4671886
000010 f1 0d ef bf 6b e8 fb bf 2f 72 f7 bf 3d c7 d8 bf
       -1.867613 -1.9680303 -1.9331721 -1.6935803
000020 66 22 f7 bf f5 36 d0 bf d0 34 a9 bf bd 7a f7 bf
       -1.9307373 -1.6266772 -1.3219242 -1.9334332
000030 5a ac c4 bf c3 e1 ad bf 0e 04 cf bf f8 33 d1 bf
       -1.5365098 -1.3584522 -1.6173112 -1.6343985
000040 a2 8e 26 c0 19 8d c3 bf f7 22 bc bf eb 2a 17 c0
       -2.6024556 -1.5277435 -1.469817 -2.3619945
000050 ab 12 d1 bf 4d c2 aa bf 19 2b ca bf c1 24 d7 bf
       -1.6333822 -1.3340546 -1.5794402 -1.6808091
000060 f0 ce 71 bf 5a 00 b3 bf ae 16 31 c0 ad e8 b5 bf
       -0.94456387 -1.3984482 -2.7670093 -1.4211632
000070 93 4c 0e c0 d3 2f e4 bf 97 c8 da bf 3f 7a b8 bf
       -2.2234237 -1.7827095 -1.7092465 -1.4412307
000080 3f eb df bf 82 77 01 c0 f4 24 cc bf 49 51 f0 bf
       -1.7493666 -2.0229192 -1.5948777 -1.8774806
000090 65 f9 c3 bf e0 0b a5 bf 22 11 f7 bf da 54 1c c0
       -1.5310484 -1.2894249 -1.9302104 -2.442679
0000a0 05 e3 c4 bf 7f 05 f4 bf f4 06 a8 bf c5 45 08 c0
       -1.5381781 -1.9064177 -1.3127122 -2.1292584
0000b0 ba fb 93 bf 94 eb c8 bf 7d f9 ed bf bc f4 03 c0
       -1.1561196 -1.5696893 -1.8591763 -2.0618124
0000c0 91 1f 01 c0 33 12 07 c0 f5 83 04 c0 ff 52 f0 bf
       -2.0175517 -2.1104858 -2.070554 -1.8775328
0000d0 40 91 17 c0 86 8d 1a c0 d4 3c d7 bf 28 b4 0c c0
       -2.3682404 -2.414888 -1.6815438 -2.1984959
0000e0 28 cb ed bf 81 26 fd bf c2 9d ad bf 8e ac be bf
       -1.8577623 -1.9777375 -1.3563769 -1.489641
0000f0 6b f1 3e 40 a8 00 0d c0 57 d8 db bf 49 c6 09 c0
       2.983485 -2.203165 -1.7175397 -2.1527274
000100 ec e6 97 bf e4 63 fa bf b9 ff ef bf 44 6f 02 c0
       -1.1867347 -1.9561734 -1.8749915 -2.038041
000110 df fb e5 bf 81 11 ce bf 69 a6 26 40 06 9d c2 bf
       -1.796749 -1.6099092 2.6039069 -1.520417
000120 38 e0 f5 bf 6e 46 09 c0 e5 26 e2 bf 67 e2 a9 bf
       -1.9209051 -2.1449237 -1.766812 -1.3272218
000130 41 a8 dd bf 74 f9 d1 bf 7a ab f9 bf d1 9a b0 bf
       -1.7316972 -1.6404252 -1.9505455 -1.3797246
000140 4a 9f d4 bf 7f 43 1c c0 e5 5a f4 bf 1a 6a 1d c0
       -1.6611111 -2.4416196 -1.9090239 -2.459601
000150 d1 93 9c bf e6 a8 27 c0 f2 52 0d c0 13 f8 0e c0
       -1.223261 -2.6196837 -2.2081876 -2.2338912
000160 9a a6 07 c0 c3 ed 0f c0 1d 0e fb bf 47 5e b3 bf
       -2.1195436 -2.2488868 -1.9613682 -1.4013146
000170 e9 32 13 c0 b6 ae eb bf 99 82 04 40 1c 0a b1 bf
       -2.2999823 -1.8412693 2.070471 -1.383121
000180 10 f6 d8 bf b7 ac 02 c0 b9 61 e0 bf 95 72 b8 bf
       -1.6950092 -2.0417917 -1.7529823 -1.4409968
000190 44 e7 03 c0 7a 17 c1 bf 6a 86 95 bf c1 70 db bf
       -2.0609903 -1.508529 -1.1681645 -1.7143785
0001a0 06 00 e8 bf 6d b3 e4 bf d4 65 0d c0 61 d8 de bf
       -1.8125007 -1.7867256 -2.20934 -1.7409784
0001b0 8a 5a 3d 40 1a d3 0b c0 b0 cb f4 bf 91 42 fb bf
       2.958651 -2.1847596 -1.912466 -1.962969
0001c0 bb 67 b9 bf a1 35 11 c0 9a 47 03 40 e4 ce 1b c0
       -1.4484781 -2.2688982 2.0512452 -2.4345026
0001d0 cc de 03 c0 f0 8b eb bf d0 2a 24 bf 5f 97 fe bf
       -2.0604734 -1.840208 -0.64127827 -1.9889945
0001e0 9c 50 25 40 ce 62 da bf 9b 14 d0 bf 73 eb 9a bf
       2.583045 -1.7061403 -1.6256288 -1.2103103
0001f0 e1 56 1e c0 a6 3f 08 c0 33 96 21 c0 62 de c7 bf
       -2.4740527 -2.1288848 -2.5247924 -1.5614741

fc2.weight f4 [128, 128]
000000 6d 2c 83 bc 6a b1 7a 3d d2 e4 6a bc 10 df 8a bc
       -0.016012395 0.06120435 -0.014336782 -0.016952068
000010 f2 10 98 bd 47 4d 7e bd 79 f5 b3 bd 3a ac b8 bc
       -0.07425107 -0.062085416 -0.087870546 -0.022543062
000020 f4 12 df bd 41 43 3c 3c 00 5a 7e 3d 04 cd 3d 3d
       -0.10892287 0.011490644 0.06209755 0.046338096
000030 7b 56 b5 bc 7a 28 11 bd 41 d3 dd bd fd f7 bc bd
       -0.022135964 -0.035438992 -0.10831309 -0.092269875
000040 f4 cd 8f bc bb 2b 2d 3d 37 3f 89 bd 4b b4 56 bd
       -0.01755426 0.042278033 -0.067015104 -0.052418035
000050 36 2a 90 bd b0 0c bf bc 8b e1 95 bd 88 df fb bc
       -0.07039301 -0.02332148 -0.073184095 -0.030746236
000060 63 7f 34 bd b7 fb 57 bd 35 46 0d bd 8c 9e c5 bd
       -0.044066798 -0.05273029 -0.034490783 -0.09649381
000070 98 71 9a bc 2a 6a 83 bd 02 c3 1c bd ca 57 73 bc
       -0.018852994 -0.064167336 -0.03827191 -0.0148524735
000080 ea d2 5c bd e5 6b 86 3c d5 bb 11 3c 11 6f 5f bd
       -0.05391208 0.01640887 0.00889488 -0.05454928
000090 d6 e4 ad bc 18 2f 97 bd e2 d0 c3 3c b1 35 e3 bd
       -0.021227282 -0.07382029 0.023903314 -0.11094225
0000a0 d8 b1 e5 bd b8 9f cc bd e9 74 8e bc 1d 59 8b bd
       -0.11215562 -0.099914014 -0.017389731 -0.068041064
0000b0 37 36 9c bd 24 22 17 3c 60 7b 77 bd 26 9c c7 bd
       -0.07627528 0.009224448 -0.060420394 -0.0974658
0000c0 dd 28 34 3d 1d 96 13 bd 81 f2 8e 3c e9 d1 b1 3c
       0.043984283 -0.03603183 0.01744962 0.021706538
0000d0 aa 49 6a 3d a2 ef 1a 3d f6 9b e7 3c 92 59 a2 3b
       0.057199158 0.037826188 0.02827261 0.0049545253
0000e0 82 02 87 3d aa 0b 13 3d 12 5a 4d 3d ff e3 a7 bd
       0.06592275 0.035899796 0.050134726 -0.08197784
0000f0 23 ef 4b 3c cb b5 2e bd 4c 0b f7 bd de 07 cd bc
       0.012447151 -0.04265384 -0.120627016 -0.025028165
000100 70 ae f3 3c c5 78 c4 bd be 80 f2 3c 97 58 b6 3c
       0.029746264 -0.095933475 0.029602405 0.02225904
000110 54 8e 2c 3d c6 33 d8 bc 42 0b c6 3b cf 3a 21 bd
       0.042127922 -0.026391875 0.0060438225 -0.039362725
000120 95 53 b8 3b c7 10 72 3d 45 2d 78 3b f2 cc d6 bd
       0.005625198 0.05909803 0.003786878 -0.10488309
000130 6b 75 24 bd 00 f1 e7 3b f2 ea d1 bd a3 6e 8e bd
       -0.04015104 0.00707829 -0.102498904 -0.06954696
000140 93 84 84 bd 4a b9 9d bd 89 68 dc bd b6 49 9a bd
       -0.06470599 -0.07701357 -0.10762126 -0.075335905
000150 c8 ae 94 bd 63 b0 e1 bd d5 ed 75 bc 6f 93 59 bd
       -0.072598994 -0.11019971 -0.015010317 -0.05311912
000160 38 d2 7e bd c1 b1 b8 3c 34 de 17 bd 58 19 3f bd
       -0.0622122 0.022545697 -0.037077144 -0.04665503
000170 08 8d 62 bd 4e 1b b9 bd 00 0d af bb 2c 25 80 3d
       -0.05531028 -0.09038411 -0.005342126 0.0625709
000180 2b 3b d4 bc 4c 65 63 bc 91 62 b4 3c 75 f6 e2 bd
       -0.02590712 -0.0138791315 0.022019656 -0.11082164
000190 82 c8 24 bd 8b f3 ac bd 4c 26 29 3d 1e 67 63 bd
       -0.04023028 -0.0844489 0.04129629 -0.055518262
0001a0 00 d1 a7 bc af 77 d3 bd b6 a5 89 bc d2 24 72 bd
       -0.020485401 -0.10325562 -0.01680265 -0.059117146
0001b0 f3 fc e3 bd 13 27 1f bd 3f 43 e3 3c 46 f5 14 bd
       -0.111322306 -0.038855623 0.027742026 -0.036366723
0001c0 53 4f 49 bc da ac b6 bc 86 2f 90 3d 21 a1 58 3d
       -0.012286979 -0.022299219 0.070403144 0.05288804
0001d0 3a 50 94 bd 2e 20 4f bd c2 90 86 3c b5 12 ad bd
       -0.072418645 -0.0505678 0.016426448 -0.08450834
0001e0 40 42 93 bd 0c f2 e7 bd 79 88 f5 bd d9 34 88 bd
       -0.071903706 -0.11325464 -0.11988921 -0.06650705
0001f0 9b a4 51 bc 4c 9a 82 bd 57 3e 4c b8 16 67 a0 bd
       -0.012795593 -0.06377086 -4.869545e-05 -0.07832162
000200 85 99 18 3f a7 91 84 3f 75 b4 a7 3e d7 2e 75 3f
       0.5960925 1.035695 0.32754865 0.95774597
000210 80 56 f5 3e 07 e1 be 3e 32 39 e2 3e d5 2b 9e 3e
       0.47917557 0.37281057 0.44184262 0.30892816
000220 ea 9f 29 3f 9d db c9 3e 24 cc a8 3e fa 6f cf 3e
       0.66259634 0.39425364 0.32968247 0.4051512
000230 7a 6c a6 3e e5 ff dc 3e 6e 16 ca 3e ab 5a c8 3e
       0.32504636 0.43163982 0.39470237 0.39131674
000240 2e 20 16 40 d0 00 9e 3e 72 cb 9f 3e 2f 8b 4b 3f
       2.345714 0.30859995 0.31209904 0.7950925
000250 5d fb ad 3e d6 e8 c0 3e 51 1d 08 40 b5 25 ca 3e
       0.33980837 0.3767764 2.1267893 0.39481893
000260 46 56 18 40 41 72 f5 3e e5 4e b5 3f f2 8d cc 3f
       2.3802657 0.4793873 1.4164702 1.5980818
000270 36 93 7d 3f a0 d4 17 40 24 2a ea 3e bd c4 7f 3e
       0.9905275 2.3723526 0.45735276 0.24977393
000280 c9 cc c4 3e 79 e0 91 3e f2 c9 b8 3e 2b d2 bb 3e
       0.3843749 0.28491572 0.36091572 0.36683783
000290 e0 ff 12 3f e4 39 8f 3e 8c 81 b3 3e 55 e2 dc 3e
       0.57421684 0.27973855 0.35059774 0.43141428
0002a0 0d df cd 3e f6 aa 97 3e 02 6f ce 3e 39 f1 d9 3f
       0.40209237 0.2962262 0.40319067 1.702674
0002b0 8c 16 aa 3e 2f 2a d3 3e 1a 6f 71 3e ca de 5d 3f
       0.33220327 0.4124312 0.23577538 0.86668074
0002c0 eb 16 06 40 a7 95 ce 3e 53 85 c5 3e 71 11 c8 3f
       2.0951488 0.4034855 0.3857828 1.5630323
0002d0 f1 b0 7d 3f 0b 17 ef 3f 99 df 8d 3e a4 0f 0d 40
       0.99098116 1.8678907 0.27709654 2.2040796
0002e0 25 ca b4 3f 6f ff d1 3e a7 b3 ad 3e 39 14 9c 3e
       1.412419 0.41015193 0.33926126 0.3048418
0002f0 4a 2d 0a bf db 95 0f 3f e3 15 e9 3e af aa d1 3f
       -0.53975356 0.56088036 0.4552451 1.6380213
000300 b2 2f bc 3e 00 eb c5 3f fe a1 ba 3e c3 02 ba 3f
       0.3675514 1.5462341 0.36451715 1.4532093
000310 53 8b 99 3e 86 62 9f 3e 95 c4 8a bf 8b 3a 23 40
       0.29989108 0.31129855 -1.0841242 2.5504482
000320 f0 4b 05 40 48 dc c6 3e 62 87 86 3e 7d eb a1 3e
       2.0827599 0.38839936 0.26275164 0.31624976
000330 89 11 0d 40 fd 24 1f 40 3d cb d1 3e f7 3a d2 3e
       2.2041953 2.4866326 0.4097537 0.41060612
000340 7f 66 d1 3e 3e 68 ef 3f 10 ab 86 3f 39 8b 4d 3f
       0.4089851 1.8703687 1.0520954 0.8029056
000350 b2 50 be 3e 3b b0 1a 40 6a 02 3b 40 b0 e1 ce 3e
       0.3717094 2.4170063 2.9220223 0.4040656
000360 e1 42 85 3f fb 3a 2a 40 e0 76 c3 3e fc e4 91 3e
       1.0411035 2.65985 0.38176632 0.28495014
000370 e3 25 be 3f 4c 73 cc 3f a6 10 a1 bf 6d 98 c2 3e
       1.4855312 1.5972686 -1.2583206 0.38006917
000380 1e 9b bd 3e 0e 65 1c 3f 92 bc 80 3e 7c 16 80 3e
       0.37032408 0.610917 0.25143868 0.25017154
000390 3e 23 c5 3e b9 8c d8 3e c1 53 00 3f b1 36 c7 3e
       0.3850345 0.42294863 0.501278 0.38908914
0003a0 52 67 8c 3e a9 8a c6 3e 78 93 6d 3f bc 4a c0 3e
       0.27422577 0.38777664 0.92803144 0.37557018
0003b0 eb 4f 13 bf e3 4f cd 3f 88 3b ba 3e b2 ab 37 3f
       -0.5754382 1.6040004 0.36373544 0.7174636
0003c0 8b 7e 07 3f c5 d8 1f 3f e4 c1 55 bf 55 18 ea 3f
       0.52927464 0.6244014 -0.8349898 1.8288676
0003d0 fa ab e1 3e 7b 83 f1 3e 2f e3 6f 40 25 96 c9 3f
       0.4407652 0.47170624 3.7482412 1.5748945
0003e0 47 0b 0b bf a8 20 b5 3e 13 be 22 40 a8 2a cb 3e
       -0.5431408 0.35376477 2.5428512 0.39680982
0003f0 ae 56 c2 3f 82 9a 24 3f 40 3a 39 40 72 a0 b2 3e
       1.5182703 0.6429826 2.8941803 0.34888035

fc2.bias f4 [128]
000000 b7 26 84 bd 3b 99 93 bf 7e 19 b1 bd bd 09 83 bf
       -0.06452697 -1.1531137 -0.086474404 -1.0237347
000010 d6 d0 37 3d 03 85 7b bd 31 b5 8f 3d 96 35 f7 bc
       0.044876896 -0.061406147 0.070169814 -0.030176919
000020 ed 92 d1 bf 0a de 9d bf b5 3b 93 bf 1c 7d a1 bf
       -1.6372963 -1.2333386 -1.1502596 -1.2616305
000030 0b 5e a4 bf 71 2a b8 bf 40 c5 e7 bf 7a 05 18 c0
       -1.28412 -1.4387952 -1.8107071 -2.3753343
000040 f7 69 aa bf 43 9f 90 bf 13 ba fd bc 28 3f 86 bf
       -1.3313588 -1.1298603 -0.030972516 -1.0488024
000050 68 96 1e bd 51 af 87 bf 26 db b3 bf 84 64 b0 bf
       -0.038717657 -1.0600377 -1.4051254 -1.3780675
000060 75 80 b3 bf 45 9b c4 bf 39 d2 90 bf 3e cf e0 be
       -1.4023577 -1.5359885 -1.1314155 -0.43908113
000070 24 3f 8a bf dd a3 b8 bf 23 66 87 bf b4 94 88 bf
       -1.0800519 -1.4425007 -1.0578045 -1.067038
000080 5a fe 89 bf 16 f1 8d bf 2e a4 f1 3e 7a d4 bb bf
       -1.0780747 -1.1089199 0.47195572 -1.4674218
000090 91 d3 da bf a2 32 c6 bf 59 90 a8 bf ad 86 36 bd
       -1.7095815 -1.5484202 -1.3169051 -0.04456203
0000a0 24 09 89 bf 97 53 9f bd 86 44 85 bf 68 6b 8c bf
       -1.0705914 -0.07779615 -1.0411537 -1.0970278
0000b0 64 21 c0 bf 43 08 9a bf b9 bd 85 bf c7 e7 49 3d
       -1.501019 -1.2033771 -1.0448524 0.049293306
0000c0 75 d6 32 c0 75 a4 1d bd 68 9b 64 bd b2 c8 86 3f
       -2.7943394 -0.038486917 -0.05581227 1.0529997
0000d0 7a 94 73 3d 93 01 a8 bf cf 78 9d bf 3f eb a0 bf
       0.05946777 -1.312548 -1.2302493 -1.2571791
0000e0 c0 bb 90 bb c7 27 af bf 54 50 c2 bf a7 a9 a8 bf
       -0.004416913 -1.3684014 -1.5180764 -1.3176774
0000f0 e7 18 8e bf cf d6 b4 bf 26 a9 0b c0 38 0b ed bf
       -1.110135 -1.4128054 -2.182199 -1.8519049
000100 dc 14 af bf ea 67 a6 bf 8f 80 cb bf ad 9d 96 bf
       -1.3678241 -1.3000462 -1.5898608 -1.1766869
000110 5d e3 18 3d 69 c2 40 3e ae e8 ab bf 60 66 cb bf
       0.037326206 0.18824162 -1.3430383 -1.5890617
000120 c9 8f cf bc 28 af 8b bf f8 e7 8a bf 0b fb af bd
       -0.025337117 -1.0912828 -1.0852041 -0.085928045
000130 cc 03 38 3e ff e0 a9 bf 57 dc 1b c0 60 b6 73 bd
       0.17970198 -1.3271788 -2.4353235 -0.0595001
000140 f2 14 64 3d 93 72 09 bd e1 9a 82 bf 96 45 9e bf
       0.055684038 -0.033556532 -1.0203515 -1.2364986
000150 b4 55 80 3f 9c d8 34 c0 91 03 89 3f 08 1d ae bf
       1.0026155 -2.8257208 1.0704213 -1.360261
000160 78 2e a2 bf a4 2c 85 bf 74 14 b2 bc 95 04 f1 bc
       -1.2670431 -1.0404248 -0.021738268 -0.02942113
000170 2e 6c fb bf 4a d6 a7 bf 9f c3 95 bf 7c 42 c2 bf
       -1.9642389 -1.3112271 -1.1700324 -1.517654
000180 5f 72 65 bd 41 8f 99 bf 51 87 a8 bf 5d 00 91 bf
       -0.056017276 -1.1996843 -1.3166295 -1.1328236
000190 31 94 bc bd 33 ee 69 3f 67 79 ba bf 28 36 59 bd
       -0.09207953 0.9137909 -1.4568299 -0.053030163
0001a0 56 6e 9c bf 17 22 aa bf 84 8a d6 bc 4a 98 91 bd
       -1.2221172 -1.3291653 -0.026189096 -0.07109125
0001b0 48 ab 8b bf 49 2f 75 3f e7 38 8b bf ce 59 75 bf
       -1.0911646 0.95775276 -1.087674 -0.95840156
0001c0 f0 d8 aa bd d1 01 b7 bf 9b 12 1e c0 a9 e1 aa bf
       -0.08342159 -1.4297429 -2.4698856 -1.3350116
0001d0 8a 7c 99 bf 95 db 85 bf 17 78 ae bf 95 e5 8b bf
       -1.1991131 -1.0457636 -1.3630399 -1.0929438
0001e0 10 bb 97 bf 5a da ff bc c6 48 92 bd e5 42 9e 3c
       -1.1853962 -0.031232048 -0.07142787 0.019319007
0001f0 cb 65 88 bf eb ee a6 bf 3f a3 b6 bf 11 8d a1 bf
       -1.0656065 -1.3041662 -1.4268569 -1.2621175

fc3.weight f4 [4, 128]
000000 19 60 20 3d 34 5a 39 3f 6c 40 40 bd 72 a0 45 3f
       0.039154146 0.72403264 -0.046936437 0.77197945
000010 52 03 36 3d aa c8 85 bc d3 f2 2a bd c3 32 0c bd
       0.04443676 -0.016331036 -0.04173548 -0.034228098
000020 6e fe 1e 3f 2f 51 39 3f 57 74 29 3f b5 70 0e 3f
       0.6210698 0.723895 0.66193146 0.5564073
000030 8e 1f 22 3f e2 88 2d 3f 49 fd 11 3f d8 84 62 3f
       0.633294 0.6778699 0.5702711 0.88483953
000040 80 d1 37 3f 6d 44 36 3f ca 6a 45 bd 97 59 3a 3f
       0.71804047 0.7119816 -0.048197545 0.72792953
000050 ef 5f 18 37 2c 71 2b 3f b6 2c 4b 3f 70 78 32 3f
       9.082242e-06 0.6696956 0.793651 0.69715023
000060 d3 c1 20 3f f7 0e 1a 3f b3 c9 35 3f f9 9d 32 3f
       0.6279575 0.60179085 0.71010894 0.697723
000070 e8 dd 10 3f 5c dd 1d 3f e5 55 40 3f 76 8c 27 3f
       0.565886 0.6166589 0.75131065 0.654487
000080 6c 56 39 3f 96 0f 17 3f 47 5e 86 be ae e8 25 3f
       0.72397494 0.5900816 -0.26243803 0.64808166
000090 1d 6b 9b 3f fc 6a 2f 3f f8 87 11 3f 91 7c 0a bd
       1.2142063 0.6852262 0.56848097 -0.033810202
0000a0 05 66 2e 3f 04 8a 12 3d 5b b4 2c 3f 3b 59 36 3f
       0.6812442 0.035776153 0.674627 0.71229905
0000b0 58 a0 3c 3f b6 7f 29 3f b4 a2 3a 3f 59 00 79 bb
       0.73682165 0.66210496 0.72904515 -0.0037994592
0000c0 86 00 53 3f 69 f2 32 bd db 91 5a bd c7 76 34 40
       0.82422674 -0.04368821 -0.053361755 2.8197496
0000d0 a0 cf 33 3c 98 10 2d 3f cf 5c 3b 3f 46 e2 13 3f
       0.010974795 0.67603445 0.7318849 0.5776714
0000e0 69 78 84 3d 92 3c 18 3f bc a5 3b 3f 31 ee 2e 3f
       0.06468279 0.5946742 0.73299766 0.683322
0000f0 4e 4e 3e 3f ff c9 25 3f f0 08 19 3f 76 70 41 3f
       0.74338233 0.64761347 0.5977926 0.75562227
000100 4e 38 2f 3f 00 3e 3c 3f 48 8d 3d 3f 31 0e 33 3f
       0.6844529 0.73532104 0.74043703 0.6994353
000110 4e eb 9b 3d 65 36 07 40 46 1c 43 3f a0 3f 25 3f
       0.0761324 2.112695 0.76215017 0.6455021
000120 95 35 86 bd 6e 07 30 3f c4 4a 35 3f 53 b2 13 3d
       -0.06553189 0.68761337 0.7081721 0.036058735
000130 68 e5 89 3f 3c 80 1f 3f 00 a1 1a 3f b2 b5 9e bc
       1.0773134 0.62305045 0.60401917 -0.019373748
000140 96 bc fe bc ee c3 ce bc 1c 85 27 3f 91 87 0c 3f
       -0.031095784 -0.02523991 0.65437484 0.5489436
000150 4f 6c 35 40 ad cb 86 3f 17 ad 24 40 4b 53 1c 3f
       2.8347356 1.0530907 2.5730646 0.61064595
000160 90 86 15 3f 0e 76 33 3f 45 4e 1b 3b 20 43 aa bc
       0.5840845 0.7010201 0.0023697775 -0.02078396
000170 6d a9 1b 3f fe af 11 3f 98 4f 3f 3f 5b 84 19 3f
       0.608054 0.5690917 0.74730825 0.59967583
000180 27 ef f2 3c 3a 10 1a 3f 81 88 37 3f 26 25 37 3f
       0.029655052 0.6018101 0.71692663 0.7154106
000190 53 0c 64 bd 56 24 42 40 42 b8 2c 3f b3 44 44 bd
       -0.055675816 3.0334678 0.67468655 -0.04791708
0001a0 9a 35 15 3f fb ea 15 3f dd e9 ac 3d 39 44 94 bd
       0.58284914 0.58561677 0.084430434 -0.07239575
0001b0 b0 a6 34 3f aa 3a 01 3f 2d 9a 13 3f a3 1b 36 3f
       0.70566845 0.5048014 0.5765713 0.7113592
0001c0 cd f8 81 bd eb dc 3b 3f 63 ff 22 3f 13 d2 11 3f
       -0.06346283 0.7338397 0.6367094 0.5696117
0001d0 98 a0 0c 3f 84 0f 3b 3f 73 93 28 3f ef 5e 3d 3f
       0.54932547 0.7307055 0.6584999 0.7397298
0001e0 ed 19 1e 3f ef da db 3c be 87 fe bb fe 88 45 3c
       0.6175831 0.026837794 -0.0077676466 0.012056587
0001f0 93 2f 3d 3f 85 c7 22 3f 7c 3b 39 3f 9e 6b 2d 3f
       0.7390072 0.6358569 0.7235639 0.67742336
000200 80 b2 eb b9 11 d7 19 3f e0 b4 4c 3c e8 7a cf 3e
       -0.00044955686 0.6009379 0.012494296 0.40523458
000210 1b 07 59 bd 12 d5 62 bd 72 f5 7f bd 5b 2e 17 bc
       -0.052985292 -0.05537898 -0.062489934 -0.009227361
000220 6b 8c 2b 3f e6 2b 14 3f 8c ec 23 3f ff 72 34 3f
       0.67011136 0.57879484 0.64032817 0.7048797
000230 e3 8d 18 3f 05 54 3d 3f b2 6a 45 3f 51 c1 48 3f
       0.595915 0.7395633 0.7711593 0.7841998
000240 86 26 2b 3f d2 34 23 3f 48 3c 3d 3d 07 ab 2b 3f
       0.6685566 0.6375247 0.046200067 0.6705784
000250 1c 22 20 bd b3 8f 26 3f ba 4b 1c 3f 79 43 1d 3f
       -0.03909503 0.6506302 0.6105305 0.6143108
000260 f8 a0 1d 3f 00 72 3d 3f e7 ba 35 3f 53 bd 87 3f
       0.61573744 0.74002075 0.70988315 1.0604652
000270 e4 a5 32 3f 25 22 2f 3f 93 d6 0e 3f 3f ff 3c 3f
       0.6978438 0.68411475 0.55796164 0.73826975
000280 1e 6b 38 3f 64 4f 3b 3f c2 ca 9f 3f b7 33 2d 3f
       0.7203845 0.73168015 1.2483752 0.67657036
000290 3c b5 ce 3f 37 31 24 3f c0 42 38 3f bf 3e 5d 3c
       1.6149058 0.64137596 0.7197685 0.013503729
0002a0 a7 26 39 3f f9 06 95 bc 73 f2 39 3f f1 87 31 3f
       0.72324604 -0.018191801 0.72635573 0.69348055
0002b0 7d ef 1c 3f 3e 17 1f 3f 00 c6 1f 3f c5 6f 16 bc
       0.6130293 0.6214484 0.624115 -0.009181921
0002c0 a9 9d 90 3f b1 c6 0f bb 9f f4 0e 3b ab 3c 3f 40
       1.1298114 -0.0021938498 0.0021813286 2.9880779
0002d0 70 a6 6c 3c 33 1b 19 3f 53 e0 19 3f 98 0d 23 3f
       0.014443979 0.5980713 0.60107917 0.6369262
0002e0 20 a0 af bb 1b 05 1f 3f e4 f1 23 3f 8f 96 1a 3f
       -0.0053596646 0.62117165 0.6404097 0.60385984
0002f0 1f dc 12 3f 62 9d 11 3f 70 bb 3f 3f 2a c5 32 3f
       0.5736713 0.5688077 0.7489538 0.698321
000300 0c 93 1a 3f 56 4a 28 3f 03 0d 1e 3f d7 c2 26 3f
       0.60380626 0.6573843 0.61738604 0.6514105
000310 bc 3d d8 3b 01 5e fd 3f cb c8 22 3f b6 12 19 3f
       0.006599156 1.9794313 0.63587636 0.59794176
000320 47 d1 57 bb 11 c7 22 3f 38 af 34 3f 0c ba cf bc
       -0.0032931136 0.63585 0.7057986 -0.025357269
000330 6a e9 4b 3f ea 5e 1d 3f 2f d2 58 3f f1 eb a0 3d
       0.79653037 0.6147295 0.84695715 0.07857502
000340 2e 8d 83 bd 81 11 3c 3b e8 bc 1d 3f 9b f3 3a 3f
       -0.06423412 0.0028696957 0.61616373 0.7302796
000350 d2 26 55 40 fc d2 b7 3f 87 c2 2f 40 e3 4b 35 3f
       3.3304944 1.4361262 2.746248 0.7081892
000360 92 d6 3e 3f 2d 01 35 3f 8c 5a 41 bc 20 40 44 bd
       0.7454616 0.7070492 -0.011801373 -0.047912717
000370 03 04 2d 3f dd c5 2d 3f 7c a4 1f 3f 95 ca 3b 3f
       0.67584246 0.6788004 0.6236036 0.7335599
000380 d7 34 bc bc 56 ff 32 3f e6 13 30 3f e8 10 12 3f
       -0.022974415 0.6992086 0.6878036 0.57057047
000390 fa 2d 67 bd de 68 3b 40 51 85 21 3f 34 39 b3 3c
       -0.05644033 2.9282756 0.6309405 0.021877863
0003a0 38 10 1c 3f c3 03 40 3f c8 ea 1e 3c 08 77 f7 3b
       0.6096225 0.7500574 0.009699531 0.0075520314
0003b0 75 08 2b 3f 39 f5 69 3e 2e 5a 3a 3f aa dd 36 3f
       0.6680978 0.22847451 0.72793853 0.7143198
0003c0 23 b0 ee 3c c3 e0 12 3f c3 77 65 3f e5 3f 2a 3f
       0.029136723 0.5737421 0.89635867 0.66503745
0003d0 54 a5 39 3f bb 35 1b 3f 6a e6 2f 3f a4 5f 17 3f
       0.72517896 0.6062886 0.6871096 0.5913031
0003e0 52 d9 33 3f 62 6b 5e 3d 6a f3 09 bd 85 ac 16 3d
       0.7025348 0.054301627 -0.033679403 0.03678562
0003f0 f8 7b 13 3f 78 50 3c 3f 29 c9 92 3f 7d 87 3e 3f
       0.57611036 0.73560286 1.1467639 0.7442549

fc3.bias f4 [4]
000000 54 34 23 be 5f 28 36 bd 05 ee 8e bf 9b f8 6c be
       -0.1593793 -0.044472095 -1.1166388 -0.2314171
