ai/models/dqn/trained_models/dqn_2048_600.pth (torch, 78975 bytes, 6 tensors)

fc1.weight f4 [128, 16]
000000 74 86 76 be c6 ae bd bd 20 da 4a 3d 9b ae aa 3e
       -0.24074727 -0.09261851 0.049524426 0.33336338
000010 b5 bf 8f be 0c a8 9c bd 5c 7a bb 3d 38 55 87 be
       -0.28075948 -0.0764924 0.091541976 -0.26432204
000020 26 4d 00 3f 24 79 34 be 10 20 21 be ae b1 63 be
       0.5011772 -0.17624336 -0.15734887 -0.22235748
000030 76 bc 94 be 2c 18 32 be 85 eb 14 3f b5 90 7f 3f
       -0.29050034 -0.17392033 0.58171874 0.9983018
000040 7b b3 54 3f cd 97 9d 3e 60 f7 f1 be 0b 4e b7 3e
       0.83086365 0.30779877 -0.47259045 0.3580173
000050 51 ce 50 3f 63 cf 67 be c7 44 bc be 0c 89 e3 3e
       0.81564814 -0.22637706 -0.36771223 0.44440496
000060 29 35 45 bf 44 84 12 3f fe f3 d5 be 2b 45 3e 3f
       -0.7703424 0.5723307 -0.41787714 0.7432429
000070 3a c6 c8 be 83 95 85 be ed d6 34 3f 5e a9 e4 be
       -0.39213735 -0.2609063 0.7064045 -0.44660467
000080 80 ad 49 bd 97 b5 26 3f e5 d9 8d 3f 2d e3 85 bd
       -0.049237728 0.65120834 1.1082121 -0.06537471
000090 14 ac e8 3d 1f 75 2a be 06 a6 a3 3e 85 65 9e 3e
       0.11360946 -0.1664624 0.31962603 0.30936828
0000a0 21 95 b5 3b c7 8a 29 be aa 8d 19 bf e6 3f 8f 3c
       0.005541459 -0.16556846 -0.5998179 0.017486524
0000b0 40 c4 01 3f 31 28 14 be ae e6 32 bf b1 da c3 3b
       0.5069008 -0.14468457 -0.6988324 0.005976998
0000c0 81 e4 f8 3c 8d b3 e9 bd 56 6f d6 3d 62 5d 1f bf
       0.030382397 -0.114112 0.104704544 -0.62251866
0000d0 27 38 90 3e a8 71 5d bd bb 0b 3e 3f b3 b6 af be
       0.2816784 -0.05406347 0.7423665 -0.34319076
0000e0 49 f7 e7 3e 68 f0 84 bd 0c 2e 43 bd f7 cf f5 3e
       0.4530585 -0.06491166 -0.047651336 0.48010227
0000f0 50 b3 1d be 18 b8 c2 be b5 e9 7d 3f 5a 13 a8 be
       -0.15400434 -0.38031077 0.99184734 -0.32827264
000100 d2 fc 16 3e ca 1c b2 3d 20 46 0f 3f 2a cd d1 3d
       0.14744881 0.08696897 0.5596638 0.1024421
000110 f7 b2 11 3d 2c af 83 bd 44 07 0c be d5 ce bf 3e
       0.035571065 -0.06429896 -0.13674647 0.37462488
000120 59 78 03 be df 75 bc 3d 54 c7 d9 be 2f 2f ca 3e
       -0.12838878 0.092021696 -0.42534888 0.39489123
000130 00 2f 56 3e db 2c b8 3e f0 59 b1 3d f3 8d b1 3e
       0.20916367 0.35971722 0.08659732 0.3467861
000140 4b 34 0e bf 66 6d ed 3d 38 38 e9 3e 90 a7 27 3e
       -0.5554854 0.11593132 0.45550704 0.16372514
000150 e0 7c 14 bf b9 97 38 3e 5c ab c5 bd 5b 6f 1e 3e
       -0.58003044 0.18026628 -0.09651825 0.15472166
000160 27 09 7b 3e d1 d7 2e bd 83 96 94 3d c8 21 b1 3e
       0.2451521 -0.042686287 0.0725527 0.34596086
000170 6f 61 f8 3e 01 50 f9 bb de 7f 83 3e 30 34 b2 3e
       0.48511836 -0.007608414 0.25683492 0.3480544
000180 60 63 2a bf 94 6c 77 3e d6 85 93 3e 90 47 be be
       -0.66557884 0.24162513 0.28813046 -0.37163973
000190 72 1d cf 3e e2 3c 2e 3e ce 83 09 be a3 6c 1e 3f
       0.40452152 0.17015412 -0.13429186 0.61884516
0001a0 3a 6f 0b bd 82 68 18 3e 99 c4 2f be fe 9e 2b 3e
       -0.03404162 0.14883617 -0.1716484 0.1675987
0001b0 a9 65 c3 3e 3e ee 20 3e fb 05 08 3f 1b f7 bb 3d
       0.38163498 0.15715882 0.53134125 0.09177991
0001c0 d5 1b f2 bd ca ed 18 3f 13 be 0a bf 54 d7 54 be
       -0.11821715 0.5973784 -0.5419628 -0.20785266
0001d0 66 8c 2e 3d da 2a 10 bf a7 b2 9c 3e a4 93 0b 3f
       0.042614363 -0.56315386 0.3060505 0.54522157
0001e0 b3 ea ef 3e 11 67 8c 3d c6 e1 10 bd 6b 4a 69 3e
       0.4685875 0.06855596 -0.035371564 0.22782294
0001f0 41 51 8c bd b0 7f dd 3e be 0e e4 3d c7 a1 d5 bd
       -0.068514355 0.4326148 0.11135624 -0.10431247
000200 cd e6 d9 3d 20 bd 85 3e e3 b5 08 3f 6c 31 88 3e
       0.10639725 0.26120853 0.5340254 0.26600206
000210 55 22 df 3e 87 b1 80 bc 57 f3 97 bd d4 d0 a5 3d
       0.4358088 -0.015709652 -0.0741946 0.080964714
000220 b5 1a 90 3c 99 35 46 bd 60 db d5 bd 7c d5 18 3e
       0.01759086 -0.04839096 -0.10442233 0.14925188
000230 e3 f0 d3 bc 17 d4 39 3e 3d 38 d1 3e 41 a2 e1 3e
       -0.0258717 0.18147312 0.4086322 0.44069102
000240 07 54 d8 3e cf 14 cf 3e c5 22 09 3f 02 b1 61 3e
       0.42251608 0.40445563 0.5356868 0.2204018
000250 82 94 f3 3d 95 79 79 be 84 c6 e9 3d 11 a0 c4 3e
       0.1189356 -0.24362786 0.11414817 0.3840337
000260 ac 46 81 3e 99 a5 f1 3c 50 ef a7 bd 30 f8 bd 3e
       0.2524923 0.029497908 -0.08199942 0.37103415
000270 c5 43 33 3f 82 e4 82 3d e2 fa 44 3e 7b 4a fc 3e
       0.70025283 0.06391241 0.19236329 0.49275574
000280 7a bd d5 be 21 6e 47 3d 6b 8f b6 3e dd 0e df 3e
       -0.41746122 0.04868901 0.35656294 0.43566027
000290 87 96 32 3f 1d f0 d1 be 90 20 a4 be fa e3 6c 3e
       0.69760936 -0.41003504 -0.32056093 0.23133841
0002a0 9e ab fd 3b 00 9f f4 bd d9 59 72 3c 7f 66 11 3d
       0.0077414056 -0.11944389 0.014791929 0.03549814
0002b0 da 7b 72 3c 53 89 82 be 9f 9b f6 bd 6a dd 02 3f
       0.014800036 -0.25495395 -0.12041401 0.511191
0002c0 cc 21 05 bf 30 0f 72 3e 94 e4 eb 3e 12 32 c8 3e
       -0.52004695 0.23638606 0.4607283 0.391007
0002d0 14 fd 9d be df a2 8e be 2a 76 d2 bd aa 49 32 be
       -0.30857146 -0.27858636 -0.10276444 -0.17410913
0002e0 c1 58 28 be 9d 14 a5 be a2 73 9d 3e 1d 18 83 3e
       -0.16440107 -0.3224229 0.30752283 0.25604334
0002f0 36 87 09 bf fc 58 0a be 59 a0 0c 3f ab 49 74 3f
       -0.5372194 -0.13510507 0.5493217 0.9542491
000300 72 25 0c bf 70 c3 00 3f c3 3e 08 bd dc 8d 61 3e
       -0.54744637 0.50298214 -0.03326298 0.22026771
000310 01 e8 b4 3c b6 ee 2c 3e 79 48 71 be 2a 27 3d 3e
       0.022083284 0.16887936 -0.23562802 0.18471971
000320 99 fb c0 3e ef e9 3a be 4d df 91 3d 19 91 dd 3e
       0.37691954 -0.18253301 0.07122669 0.43274763
000330 40 0c 93 3e b0 3c 41 be 0d fc 13 3e cc 6e 15 3f
       0.28720284 -0.18870807 0.14451618 0.5837219
000340 a9 e0 90 3e ad 7e 24 3f bc ef a3 3e bf b1 f3 3e
       0.28296402 0.6425579 0.3201884 0.47596547
000350 1d c1 a9 3d 03 14 58 be d1 e5 9e 3d c3 26 1c 3e
       0.082887866 -0.21101384 0.07758678 0.15249161
000360 a2 7d f1 3e 8b 54 f8 be 05 e3 9c 3c c0 0f e2 3e
       0.47166163 -0.48502 0.01915122 0.4415264
000370 0a c9 22 3f 31 d7 1d be 1c 77 6b 3e c6 45 2c 3f
       0.6358801 -0.1541412 0.22994655 0.67293966
000380 19 51 98 3e 83 23 b9 3d 7d 70 0b 3f 60 fc be 3e
       0.29749373 0.090399764 0.5446852 0.37301922
000390 8e 24 79 3e 3a 9f 13 be e3 38 b6 3e 7e e1 1a 3f
       0.24330351 -0.14416209 0.35590276 0.60500324
0003a0 b7 ac 3f 3e 5d 55 14 bf 12 6d 8b bd 53 bf 06 be
       0.18718229 -0.57942754 -0.06807913 -0.13158922
0003b0 4b cf 0e 3e d0 aa 8a 3d 26 0a 20 3c f2 31 01 3f
       0.13946263 0.06770861 0.009768045 0.50466835
0003c0 a4 d3 eb 3c 6d 7c da 3e 9a 7b 28 3f 8f 03 07 be
       0.028787442 0.42673054 0.658136 -0.13184951
0003d0 96 04 12 be fa d4 6c be d3 88 99 3e 1d 0d 24 3f
       -0.14259562 -0.23128119 0.299872 0.6408251
0003e0 a2 b5 ba be 62 31 55 3c f9 c7 01 3d ad 04 16 3e
       -0.364667 0.013012262 0.03168485 0.14650221
0003f0 50 3a bc be d8 5e 29 be 85 51 70 be 2b 47 ee 3e
       -0.3676324 -0.16540086 -0.23468597 0.46538672

fc1.bias f4 [128]
000000 f8 fc 71 c0 db 4f 07 c0 0f cf a7 bf 7a 80 4b c0
       -3.781065 -2.114249 -1.3110064 -3.1797166
000010 69 c2 29 c0 7d c5 2a c0 65 cc 34 c0 7c 6f 24 c0
       -2.6524909 -2.6683037 -2.8249753 -2.5693045
000020 d0 0e 2c c0 11 f0 fa be 7f dc c7 bf c4 90 38 c0
       -2.688404 -0.4901128 -1.5614165 -2.8838358
000030 67 19 fd bf fc a6 7f 3d c9 32 9a bf 91 74 05 c0
       -1.9773377 0.062415108 -1.2046748 -2.0852396
000040 5c 2d 52 c0 9a 53 d7 be 34 0a 04 c0 70 0c 47 c0
       -3.2840185 -0.4205597 -2.0631227 -3.1101341
000050 9f 5f 18 c0 9d 6c 72 3e 89 e3 79 40 34 0f 22 c0
       -2.3808362 0.23674245 3.9045126 -2.532178
000060 04 8e 05 3f e3 d4 a8 bf 9f e1 5d c0 9a ad c3 bd
       0.52169824 -1.3189968 -3.4668958 -0.09554596
000070 10 ce 4e c0 39 5e f2 bf 47 59 e3 bf ba 51 7a be
       -3.231327 -1.8935004 -1.776162 -0.24445239
000080 26 7c 1f c0 34 d1 2c c0 7f 29 02 c0 3c a5 2d c0
       -2.4919524 -2.7002687 -2.0337827 -2.71321
000090 d0 6a f8 bf 14 31 ff 3e 31 63 2d c0 62 a3 56 c0
       -1.9407597 0.4984213 -2.7091792 -3.353722
0000a0 34 18 0a c0 cd ff 35 c0 53 a6 61 bf bf 00 03 c0
       -2.1577272 -2.8437378 -0.88144416 -2.0469205
0000b0 b0 79 33 3f 4b 85 08 c0 e4 f1 36 c0 64 5c 29 c0
       0.70107555 -2.1331356 -2.8585138 -2.646264
0000c0 01 16 27 c0 f3 c3 3a c0 ff 3a 45 c0 e2 82 03 c0
       -2.610718 -2.9182098 -3.0817258 -2.0548635
0000d0 0d 22 5b c0 44 ab 41 c0 0a 38 1d c0 ca be 39 c0
       -3.4239533 -3.0260782 -2.4565454 -2.9022698
0000e0 9d 28 12 c0 bf 45 34 c0 f1 7c e7 bf ef 33 4d bf
       -2.2837288 -2.816757 -1.8085004 -0.8015737
0000f0 87 b4 29 41 f5 34 48 c0 40 27 17 c0 ea 94 17 c0
       10.606574 -3.1282322 -2.3617706 -2.368464
000100 4e 3b e3 3e c8 95 50 c0 8e c5 2f c0 35 02 3e c0
       0.44381183 -3.259142 -2.7464328 -2.9688847
000110 4c bd 34 c0 4d e4 07 bf 67 a5 1b 41 32 2b 00 be
       -2.8240538 -0.53082734 9.727881 -0.12516478
000120 e5 85 0e c0 4a 8a 49 c0 ad 74 27 c0 4a 86 88 bf
       -2.2269223 -3.1490655 -2.6164963 -1.0665982
000130 0f 44 0f c0 8d d5 1c c0 86 a6 33 c0 ef 86 f0 3d
       -2.238529 -2.450534 -2.8070388 0.117444865
000140 c8 5a c6 bf 91 a8 58 c0 13 17 09 c0 d2 24 66 c0
       -1.5496454 -3.3852885 -2.1420333 -3.5959973
000150 12 a0 03 3f 4a b7 73 c0 ab 62 44 c0 57 50 3e c0
       0.5141612 -3.808062 -3.0685222 -2.9736536
000160 08 f3 26 c0 06 8a 27 c0 89 53 3a c0 6f 54 ea bf
       -2.6085835 -2.6177993 -2.9113486 -1.8307017
000170 45 02 44 c0 ba 6d 27 c0 6b 38 0f 40 4b 21 dd bf
       -3.0626385 -2.6160722 2.2378185 -1.7275785
000180 db 5c c2 bf 39 eb 2b c0 0d ca 12 c0 6f 22 04 c0
       -1.5184587 -2.6862319 -2.2935822 -2.0646017
000190 f9 d6 3e c0 69 b5 93 be da 85 a7 3e 98 8b 99 bf
       -2.981871 -0.28849342 0.32719308 -1.1995726
0001a0 48 23 2f c0 e7 ee 1f c0 b9 50 43 c0 d9 c9 1f c0
       -2.7365284 -2.4989564 -3.051802 -2.4966948
0001b0 77 f1 1a 41 9c ef 2c c0 3e 01 2d c0 ef df 32 c0
       9.683951 -2.7021246 -2.7032008 -2.7949178
0001c0 81 c4 fe be 6b c8 4a c0 b2 09 2d 41 5b 4b 40 c0
       -0.49759296 -3.1684825 10.814867 -3.0045993
0001d0 89 2b 36 c0 d8 4f 23 c0 0d cc 8b 3e f1 fb 15 c0
       -2.8464072 -2.5517483 0.27304116 -2.3435023
0001e0 4e c7 12 41 1e 74 1a c0 ab 23 48 3f 2b 15 be 3e
       9.173658 -2.4133372 0.78179425 0.37125525
0001f0 75 e6 5f c0 3e 59 27 c0 96 1d 52 c0 1b f4 d4 be
       -3.498441 -2.614822 -3.2830558 -0.41592488

fc2.weight f4 [128, 128]
000000 6d 2c 83 bc 6a b1 7a 3d d2 e4 6a bc 10 df 8a bc
       -0.016012395 0.06120435 -0.014336782 -0.016952068
000010 f2 10 98 bd 47 4d 7e bd 79 f5 b3 bd 3a ac b8 bc
       -0.07425107 -0.062085416 -0.087870546 -0.022543062
000020 f4 12 df bd 41 43 3c 3c 00 5a 7e 3d 04 cd 3d 3d
       -0.10892287 0.011490644 0.06209755 0.046338096
000030 7b 56 b5 bc 7a 28 11 bd 41 d3 dd bd fd f7 bc bd
       -0.022135964 -0.035438992 -0.10831309 -0.092269875
000040 f4 cd 8f bc bb 2b 2d 3d 37 3f 89 bd 4b b4 56 bd
       -0.01755426 0.042278033 -0.067015104 -0.052418035
000050 36 2a 90 bd b0 0c bf bc 8b e1 95 bd 88 df fb bc
       -0.07039301 -0.02332148 -0.073184095 -0.030746236
000060 63 7f 34 bd b7 fb 57 bd 35 46 0d bd 8c 9e c5 bd
       -0.044066798 -0.05273029 -0.034490783 -0.09649381
000070 98 71 9a bc 2a 6a 83 bd 02 c3 1c bd ca 57 73 bc
       -0.018852994 -0.064167336 -0.03827191 -0.0148524735
000080 ea d2 5c bd e5 6b 86 3c d5 bb 11 3c 11 6f 5f bd
       -0.05391208 0.01640887 0.00889488 -0.05454928
000090 d6 e4 ad bc 18 2f 97 bd e2 d0 c3 3c b1 35 e3 bd
       -0.021227282 -0.07382029 0.023903314 -0.11094225
0000a0 d8 b1 e5 bd b8 9f cc bd e9 74 8e bc 1d 59 8b bd
       -0.11215562 -0.099914014 -0.017389731 -0.068041064
0000b0 37 36 9c bd 24 22 17 3c 60 7b 77 bd 26 9c c7 bd
       -0.07627528 0.009224448 -0.060420394 -0.0974658
0000c0 dd 28 34 3d 1d 96 13 bd 81 f2 8e 3c e9 d1 b1 3c
       0.043984283 -0.03603183 0.01744962 0.021706538
0000d0 aa 49 6a 3d a2 ef 1a 3d f6 9b e7 3c 92 59 a2 3b
       0.057199158 0.037826188 0.02827261 0.0049545253
0000e0 82 02 87 3d aa 0b 13 3d 12 5a 4d 3d ff e3 a7 bd
       0.06592275 0.035899796 0.050134726 -0.08197784
0000f0 23 ef 4b 3c cb b5 2e bd 4c 0b f7 bd de 07 cd bc
       0.012447151 -0.04265384 -0.120627016 -0.025028165
000100 70 ae f3 3c c5 78 c4 bd be 80 f2 3c 97 58 b6 3c
       0.029746264 -0.095933475 0.029602405 0.02225904
000110 54 8e 2c 3d c6 33 d8 bc 42 0b c6 3b cf 3a 21 bd
       0.042127922 -0.026391875 0.0060438225 -0.039362725
000120 95 53 b8 3b c7 10 72 3d 45 2d 78 3b f2 cc d6 bd
       0.005625198 0.05909803 0.003786878 -0.10488309
000130 6b 75 24 bd 00 f1 e7 3b f2 ea d1 bd a3 6e 8e bd
       -0.04015104 0.00707829 -0.102498904 -0.06954696
000140 93 84 84 bd 4a b9 9d bd 89 68 dc bd b6 49 9a bd
       -0.06470599 -0.07701357 -0.10762126 -0.075335905
000150 c8 ae 94 bd 63 b0 e1 bd d5 ed 75 bc 6f 93 59 bd
       -0.072598994 -0.11019971 -0.015010317 -0.05311912
000160 38 d2 7e bd c1 b1 b8 3c 34 de 17 bd 58 19 3f bd
       -0.0622122 0.022545697 -0.037077144 -0.04665503
000170 08 8d 62 bd 4e 1b b9 bd 00 0d af bb 2c 25 80 3d
       -0.05531028 -0.09038411 -0.005342126 0.0625709
000180 2b 3b d4 bc 4c 65 63 bc 91 62 b4 3c 75 f6 e2 bd
       -0.02590712 -0.0138791315 0.022019656 -0.11082164
000190 82 c8 24 bd 8b f3 ac bd 4c 26 29 3d 1e 67 63 bd
       -0.04023028 -0.0844489 0.04129629 -0.055518262
0001a0 00 d1 a7 bc af 77 d3 bd b6 a5 89 bc d2 24 72 bd
       -0.020485401 -0.10325562 -0.01680265 -0.059117146
0001b0 f3 fc e3 bd 13 27 1f bd 3f 43 e3 3c 46 f5 14 bd
       -0.111322306 -0.038855623 0.027742026 -0.036366723
0001c0 53 4f 49 bc da ac b6 bc 86 2f 90 3d 21 a1 58 3d
       -0.012286979 -0.022299219 0.070403144 0.05288804
0001d0 3a 50 94 bd 2e 20 4f bd c2 90 86 3c b5 12 ad bd
       -0.072418645 -0.0505678 0.016426448 -0.08450834
0001e0 40 42 93 bd 0c f2 e7 bd 79 88 f5 bd d9 34 88 bd
       -0.071903706 -0.11325464 -0.11988921 -0.06650705
0001f0 9b a4 51 bc 4c 9a 82 bd 57 3e 4c b8 16 67 a0 bd
       -0.012795593 -0.06377086 -4.869545e-05 -0.07832162
000200 f4 19 4d 40 f3 15 d5 3f c1 d1 21 3e 27 31 10 40
       3.204709 1.6647323 0.15802671 2.253
000210 fc 26 2a 3f ca 1d c6 3e eb 8f 4d 3f 36 3e 62 3f
       0.66465735 0.38694602 0.80297726 0.88376176
000220 39 69 12 3f 34 70 a8 3e af 8c 9e 3e 3a 40 26 40
       0.5719181 0.32898104 0.30966708 2.59767
000230 de 20 6e 3e 58 a6 ce 3e 3e 70 5b 3e 13 06 9c 3e
       0.23254725 0.40361285 0.21429536 0.30473384
000240 b6 b5 43 40 5c 17 54 3e 08 15 d4 3e 3e fd 02 40
       3.0579658 0.20712036 0.41422296 2.0467067
000250 81 f0 a9 3e 86 13 9f 3e 1c a1 ad 40 b0 b2 8b 3e
       0.33191302 0.31069583 5.4259167 0.27284765
000260 9e 45 4a 40 66 53 ec 3e 4f 5b 52 40 50 5e 1d 40
       3.160499 0.46157378 3.286823 2.4588814
000270 04 c5 71 40 04 a7 93 40 2f 3b bc 3e 7e c8 5d 3e
       3.7776499 4.6141376 0.36763903 0.21658513
000280 55 db 35 3f 7b b6 ee 3f 5d 69 84 3e f6 b0 dd 3e
       0.710378 1.8649439 0.25861636 0.43299073
000290 f5 87 0c 3f ce 26 98 3e fd 8e be 3e 57 d1 6b 40
       0.54894954 0.29717106 0.37218466 3.684652
0002a0 c2 d1 31 3f 62 2d 95 3f fc f7 61 3e 44 66 81 40
       0.6946069 1.1654475 0.22067255 4.0437336
0002b0 21 a1 c4 3e c0 c9 58 3f 07 dc c5 3f c1 b7 1d 40
       0.38404182 0.84682846 1.5457772 2.4643404
0002c0 03 34 16 40 5b c4 3c 3f 06 ba 97 3f ab bd 02 40
       2.3469245 0.73737115 1.1853645 2.0428264
0002d0 0b b0 02 40 97 ec 7e 40 1a 6f 3d 3f ab 00 33 40
       2.0419948 3.9831903 0.7399765 2.7969158
0002e0 2b 34 fd 3f 1d f2 d6 3e 83 e0 f8 3e 33 2e 3f bc
       1.9781545 0.41981593 0.4860879 -0.01166873
0002f0 63 0e 0e 3f 05 74 d6 3f 03 11 fb 3e 77 7f 76 40
       0.554907 1.6754156 0.49036416 3.8515298
000300 08 79 97 3e 6a 01 53 40 6d d6 ac 3f b6 b1 27 40
       0.29584527 3.2969613 1.3502938 2.6202216
000310 c7 0c ae 3f 83 94 88 3e 28 41 c4 3f 51 2f 33 40
       1.3597649 0.26675805 1.5332384 2.799763
000320 00 89 6c 40 55 eb 22 3f 64 7b e7 3e 28 27 20 3e
       3.6958618 0.6364034 0.45211327 0.15639937
000330 55 6b 30 40 4c 11 45 40 9c 3a b4 3f 36 49 b1 3e
       2.756551 3.0791807 1.4080386 0.34626168
000340 cd 88 56 3e 5a dc 31 40 dc b7 19 40 d2 64 58 40
       0.20950623 2.7790742 2.401847 3.3811536
000350 f4 e0 bb 3e 48 3c ae 40 63 b5 56 40 44 5f 9e 3f
       0.36695063 5.4448586 3.354821 1.2372823
000360 03 97 6b 40 44 6f a2 40 2f cf d8 3f 8e f6 f7 3e
       3.681092 5.076082 1.6938227 0.48430294
000370 f2 53 28 40 7f f8 23 40 85 11 4e bf ca 8f 9e 3e
       2.6301236 2.562042 -0.8049548 0.30969077
000380 ab fa 88 3e e0 32 34 40 7c a7 ec 3e 51 b8 7d 3e
       0.26753744 2.8156052 0.4622153 0.24777342
000390 f2 b9 42 3f 8e 50 bd 3e 0a ae 00 3f e2 c4 93 3e
       0.7606498 0.3697552 0.5026556 0.28861147
0003a0 69 b3 4a 3f d9 24 ef 3e 6b 8f 19 40 4d 31 e8 3e
       0.7918001 0.467078 2.3993785 0.45350114
0003b0 9a 87 55 3f dd 50 71 40 19 7e 5a 40 38 f1 f8 3f
       0.83410037 3.7705605 3.4139464 1.9448614
0003c0 9f 28 cd 3e 42 d1 37 40 93 7f 9d 3e 6e 42 53 40
       0.40070054 2.872147 0.30761394 3.3009295
0003d0 aa e6 e4 3e e0 58 0f 3f 92 84 6b 40 c7 44 5a 40
       0.44707233 0.5599499 3.6799664 3.4104478
0003e0 43 a2 19 3f ba a7 5b 3f a9 a3 69 40 57 28 ac 3e
       0.60013217 0.85802805 3.650614 0.33624527
0003f0 3d 25 94 40 72 ed 11 40 80 5f 60 40 c1 9b ad 3e
       4.6295457 2.2801175 3.5058289 0.33907893

fc2.bias f4 [128]
000000 b7 26 84 bd 2b 9a 0c 3f 7e 19 b1 bd 0c 72 f4 3e
       -0.06452697 0.5492274 -0.086474404 0.4774326
000010 d6 d0 37 3d 03 85 7b bd 31 b5 8f 3d 96 35 f7 bc
       0.044876896 -0.061406147 0.070169814 -0.030176919
000020 bb f4 e9 bf 28 d6 0e 3f fa 9c 62 3f 4f 3b 0f 3f
       -1.8277811 0.55795527 0.8852078 0.5594987
000030 ef ef d5 3e 9a 7e 5d 3e 28 b3 2e c0 19 ba 80 c0
       0.41784617 0.21630326 -2.7296848 -4.022717
000040 c6 d4 0d 3f d2 a1 69 3f 13 ba fd bc 21 73 87 3f
       0.5540279 0.91262543 -0.030972516 1.058201
000050 68 96 1e bd 9c c3 8e 3f 1c 3a 2e bf b1 30 06 3e
       -0.038717657 1.1153445 -0.6805742 0.13104512
000060 99 01 c0 3d 5e 7f e0 bf 6f 74 9a 3f f8 a3 3e 40
       0.09375305 -1.7538869 1.2066783 2.9787579
000070 78 1c 98 3f b9 ff ab 3e 12 b8 18 3f 8e da ab 3f
       1.1883688 0.33593538 0.5965587 1.3426073
000080 8d 18 94 3f fe 11 89 3f c8 63 98 40 a9 8f 26 be
       1.1569992 1.0708616 4.7621803 -0.1626574
000090 83 4c 50 c0 98 63 ff bf 01 02 44 3f ad 86 36 bd
       -3.25467 -1.9952269 0.7656556 -0.04456203
0000a0 1d 89 99 3f 97 53 9f bd 31 5f af 3f 3d 38 a6 3f
       1.1994969 -0.07779615 1.3700925 1.2985913
0000b0 ac 72 b7 bf 34 f5 42 3f 3b 50 87 3f c7 e7 49 3d
       -1.433187 0.761554 1.0571359 0.049293306
0000c0 09 33 90 c0 75 a4 1d bd 68 9b 64 bd 04 53 7f 40
       -4.50623 -0.038486917 -0.05581227 3.9894419
0000d0 7a 94 73 3d 8b 2b d6 3e c6 e5 0a 3f be 1e e3 3e
       0.05946777 0.41830096 0.54256856 0.44359392
0000e0 c0 bb 90 bb 33 2b 27 be 38 ee 09 c0 49 bd cb 3e
       -0.004416913 -0.16325073 -2.1551647 0.3979285
0000f0 da df 2b 3f 64 cd 8a be 29 c9 5a c0 d3 29 3f c0
       0.67138445 -0.27109826 -3.4185278 -2.9869277
000100 98 ca 27 3e ef db 04 3f 07 b8 2c c0 6e 5e 49 3f
       0.16385877 0.5189809 -2.6987321 0.78659713
000110 5d e3 18 3d b1 b3 41 40 d8 0f 2e 3e d0 eb ff bf
       0.037326206 3.0265925 0.16998231 -1.9993839
000120 c9 8f cf bc ce 56 57 3f 06 25 ae 3f 0b fb af bd
       -0.025337117 0.8411683 1.3605049 -0.085928045
000130 62 4b 2e 40 65 60 97 3e 62 ff 80 c0 60 b6 73 bd
       2.723351 0.2956573 -4.0311747 -0.0595001
000140 f2 14 64 3d 93 72 09 bd 78 02 77 3f 12 9b 06 3f
       0.055684038 -0.033556532 0.9648814 0.5258037
000150 09 1c 69 40 84 c8 8f c0 79 72 56 40 be dc 15 3f
       3.6423361 -4.493227 3.3507369 0.5853995
000160 e9 6b 41 3f 0c 8f a6 3f 74 14 b2 bc 95 04 f1 bc
       0.7555528 1.3012404 -0.021738268 -0.02942113
000170 4c 8c 51 c0 b2 81 1e 3f 82 f6 4b 3f 79 c5 d8 bd
       -3.274188 0.6191665 0.79673016 -0.1058454
000180 5f 72 65 bd b0 b0 6a 3f 04 48 3f 3f 9e d7 31 3f
       -0.056017276 0.91675854 0.7471926 0.6946963
000190 31 94 bc bd 6c 1e 60 40 85 7d 65 bf 28 36 59 bd
       -0.09207953 3.5018568 -0.8964465 -0.053030163
0001a0 14 a5 de 3e 6f 15 63 3f 84 8a d6 bc b4 a6 d2 bd
       0.4348532 0.8870458 -0.026189096 -0.10285702
0001b0 8a c4 8c 3f 03 23 46 40 97 f0 9b 3f 82 ba b1 3f
       1.0997479 3.095887 1.2182797 1.3885043
0001c0 f0 d8 aa bd 08 1c 17 bf dd 15 83 c0 d7 19 bf 3e
       -0.08342159 -0.5902715 -4.096419 0.37324402
0001d0 36 bd 65 3f 84 48 63 3f db 4f 10 3f af 4f 6c 3f
       0.8974184 0.88782525 0.5637185 0.9230909
0001e0 c4 fb 7a 3f 5a da ff bc c6 48 92 bd e5 42 9e 3c
       0.98040414 -0.031232048 -0.07142787 0.019319007
0001f0 b8 0f 3d 3f 27 60 14 3f 35 17 39 c0 10 a4 61 3f
       0.7385211 0.57959217 -2.8920414 0.88140965

fc3.weight f4 [4, 128]
000000 19 60 20 3d 08 4d 91 3f 6c 40 40 bd fc 20 9d 3f
       0.039154146 1.1351633 -0.046936437 1.2275691
000010 52 03 36 3d aa c8 85 bc d3 f2 2a bd c3 32 0c bd
       0.04443676 -0.016331036 -0.04173548 -0.034228098
000020 8e 29 86 3f 83 74 92 3f 5a 81 8c 3f 54 7c 70 3f
       1.0481431 1.1441807 1.0976975 0.9393971
000030 98 4b 83 3f f5 6c 91 3f 16 cb f0 3f 04 6a 80 40
       1.0257444 1.1361376 1.8811977 4.0129414
000040 a7 4b 95 3f be a4 94 3f ca 6a 45 bd b6 5c 96 3f
       1.1663712 1.1612775 -0.048197545 1.1747043
000050 ef 5f 18 37 8b 8a 8f 3f b6 d0 97 3f 3d e9 90 3f
       9.082242e-06 1.1214155 1.1860569 1.1321179
000060 22 37 81 3f 7b 21 6e 3f 8c f1 97 3f f4 89 a0 3f
       1.009495 0.9301984 1.1870589 1.25421
000070 f3 46 7f 3f b3 40 82 3f 90 6f 95 3f dc af 8e 3f
       0.99717635 1.0175995 1.1674671 1.1147418
000080 7b 2b 97 3f 87 a9 80 3f 73 cb fb be 86 c5 80 3f
       1.1810144 1.0051736 -0.49178657 1.0060279
000090 fb ed 25 40 a5 de 7f 3f f6 1b 7c 3f 91 7c 0a bd
       2.5926502 0.99949104 0.98480165 -0.033810202
0000a0 b1 52 91 3f 04 8a 12 3d c2 38 92 3f 86 89 98 3f
       1.135336 0.035776153 1.1423571 1.1916969
0000b0 75 2b 93 3f 5f e1 8b 3f 35 53 98 3f 59 00 79 bb
       1.1497637 1.0928153 1.1900393 -0.0037994592
0000c0 24 02 84 40 69 f2 32 bd db 91 5a bd b3 ab 78 40
       4.1252613 -0.04368821 -0.053361755 3.8854797
0000d0 a0 cf 33 3c a4 d9 8c 3f 5b 3d 95 3f 75 a0 77 3f
       0.010974795 1.1003919 1.1659349 0.96729213
0000e0 69 78 84 3d 36 51 6f 3f bb 1a bd 3f 5c 8d 8d 3f
       0.06468279 0.93483293 1.4773782 1.1058764
0000f0 41 22 96 3f 03 5f 7f 3f fe 61 17 40 c3 7a 29 40
       1.1729203 0.9975435 2.365356 2.6481178
000100 2f 34 8a 3f b7 39 97 3f 55 f5 0c 40 89 02 90 3f
       1.0797175 1.1814488 2.2024739 1.1250774
000110 4e eb 9b 3d 2d 14 35 40 f0 89 93 3f db e0 68 3f
       0.0761324 2.8293564 1.152647 0.909681
000120 95 35 86 bd 4b 65 8e 3f 0e 58 9b 3f 53 b2 13 3d
       -0.06553189 1.1124662 1.2136247 0.036058735
000130 d5 4c f1 3f 4a e7 7c 3f 87 cb 6d 40 b2 b5 9e bc
       1.8851572 0.9879042 3.7155473 -0.019373748
000140 96 bc fe bc ee c3 ce bc 5c 3b 8a 3f e2 e0 6b 3f
       -0.031095784 -0.02523991 1.0799365 0.9214002
000150 bf 9d 70 40 e9 88 8d 40 23 9f 63 40 48 42 84 3f
       3.759628 4.4229627 3.556588 1.0332727
000160 10 8e 80 3f 57 26 96 3f 45 4e 1b 3b 20 43 aa bc
       1.0043354 1.173045 0.0023697775 -0.02078396
000170 66 2c 08 40 51 c0 7a 3f f8 a5 98 3f ad 27 7e 3f
       2.1277099 0.979497 1.192565 0.9927929
000180 27 ef f2 3c cf 72 84 3f 3f b4 97 3f ac 6d 92 3f
       0.029655052 1.0347537 1.1851882 1.1439719
000190 53 0c 64 bd c3 44 82 40 08 ba 83 3f b3 44 44 bd
       -0.055675816 4.070894 1.0291147 -0.04791708
0001a0 dc 6e 73 3f e6 78 84 3f dd e9 ac 3d 39 44 94 bd
       0.95091033 1.0349395 0.084430434 -0.07239575
0001b0 37 14 93 3f af 42 a4 3f 05 ca 81 3f 58 5c 95 3f
       1.1490544 1.283285 1.0139776 1.1668806
0001c0 cd f8 81 bd 29 e6 89 3f ae cb 6d 40 83 e9 6f 3f
       -0.06346283 1.0773364 3.7155566 0.93715686
0001d0 ff 38 73 3f d5 68 96 3f 19 6a 8b 3f eb 98 98 3f
       0.95008844 1.1750742 1.0891753 1.1921667
0001e0 ce bb 86 3f ef da db 3c be 87 fe bb fe 88 45 3c
       1.0526063 0.026837794 -0.0077676466 0.012056587
0001f0 ef 52 96 3f 6b 3d 84 3f 42 e6 62 40 67 aa 94 3f
       1.1744059 1.0331243 3.5453038 1.1614503
000200 80 b2 eb b9 c1 b4 3c 3f e0 b4 4c 3c 0d 35 62 3f
       -0.00044955686 0.7371331 0.012494296 0.883622
000210 1b 07 59 bd 12 d5 62 bd 72 f5 7f bd 5b 2e 17 bc
       -0.052985292 -0.05537898 -0.062489934 -0.009227361
000220 5e a1 86 3f 41 94 3e 3f ae ba 5a 3f 41 98 5a 3f
       1.0517995 0.7444497 0.854411 0.8538857
000230 ea 8f 3a 3f e9 23 5c 3f 63 2d 03 40 11 8b 92 40
       0.72875845 0.85992295 2.0496452 4.579476
000240 be 2b 58 3f 54 11 62 3f 48 3c 3d 3d 43 75 75 3f
       0.84441745 0.8830769 0.046200067 0.9588205
000250 1c 22 20 bd 68 c2 78 3f 44 b5 08 3f e9 ef 29 3f
       -0.03909503 0.9717164 0.5340159 0.663817
000260 12 53 2c 3f b0 b1 90 3f 16 69 84 3f 55 a9 0d 40
       0.67314255 1.1304226 1.034457 2.2134602
000270 bd 44 87 3f e0 f8 50 3f 6e 33 2a 3f 1e 6d 90 3f
       1.0567852 0.81629753 0.66484725 1.12833
000280 54 96 84 3f 89 9b 84 3f e2 fe c8 40 4e 46 28 3f
       1.0358377 1.0359966 6.2811136 0.65732276
000290 72 a6 ab 40 d2 fc 8c 3f dd 09 7d 3f bf 3e 5d 3c
       5.364068 1.1014655 0.98843175 0.013503729
0002a0 d0 99 84 3f f9 06 95 bc 73 e6 8d 3f f4 a6 86 3f
       1.035944 -0.018191801 1.1085953 1.05197
0002b0 aa 69 4d 3f 2a 0b 58 3f 54 73 68 3f c5 6f 16 bc
       0.80239356 0.84392035 0.90800977 -0.009181921
0002c0 85 79 90 40 b1 c6 0f bb 9f f4 0e 3b 61 1d b3 40
       4.514834 -0.0021938498 0.0021813286 5.5973363
0002d0 70 a6 6c 3c b7 7f 3d 3f e5 83 3c 3f 5d 24 40 3f
       0.014443979 0.74023 0.73638755 0.75055486
0002e0 20 a0 af bb 92 9e 10 3f 6a d8 a9 3f e4 17 39 3f
       -0.0053596646 0.5649196 1.3269169 0.7230208
0002f0 94 f8 3c 3f db 73 fa 3e f7 f9 4b 40 09 f4 45 40
       0.738168 0.48916516 3.1871316 3.0930197
000300 b7 c7 25 3f 12 b4 4d 3f a1 19 ec 3f a5 d0 5d 3f
       0.64757866 0.8035289 1.8445321 0.8664649
000310 bc 3d d8 3b ad b5 63 40 57 0b 2d 3f 51 d2 64 3f
       0.006599156 3.5579636 0.6759543 0.8938342
000320 47 d1 57 bb f9 1f 5b 3f b5 4f 89 3f 0c ba cf bc
       -0.0032931136 0.8559566 1.072745 -0.025357269
000330 6f 51 dd 3f a4 cc 30 3f f8 e1 a4 40 f1 eb a0 3d
       1.7290477 0.69062257 5.152584 0.07857502
000340 2e 8d 83 bd 81 11 3c 3b 62 b5 62 3f 15 24 62 3f
       -0.06423412 0.0028696957 0.8855802 0.88336307
000350 26 9a c0 40 95 66 a9 40 b4 12 a1 40 9b dc 67 3f
       6.018817 5.293772 5.033533 0.9057099
000360 e2 a3 76 3f 0d 8d 86 3f 8c 5a 41 bc 20 40 44 bd
       0.96343815 1.0511795 -0.011801373 -0.047912717
000370 4d 93 36 40 fa b4 5f 3f b1 a8 55 3f a4 4e 4d 3f
       2.8527405 0.87385523 0.8346053 0.8019812
000380 d7 34 bc bc 95 6e 7b 3f fa 03 6a 3f 87 4e 3f 3f
       -0.022974415 0.9821561 0.9141232 0.747292
000390 fa 2d 67 bd 92 c3 a9 40 b7 c2 0f 3f 34 39 b3 3c
       -0.05644033 5.3051233 0.56156486 0.021877863
0003a0 58 d2 34 3f 03 55 87 3f c8 ea 1e 3c 08 77 f7 3b
       0.7063346 1.0572819 0.009699531 0.0075520314
0003b0 32 e5 7d 3f 31 97 f0 3f 81 4f 8b 3f 21 04 8c 3f
       0.9917785 1.879614 1.0883638 1.093876
0003c0 23 b0 ee 3c f9 a5 ee 3e 0c 42 a5 40 84 cf 48 3f
       0.029136723 0.46611002 5.1643124 0.78441644
0003d0 e5 e6 7e 3f 2f 19 51 3f ca 3a 5d 3f 52 d4 5c 3f
       0.9957107 0.8167905 0.8641783 0.86261475
0003e0 56 12 7c 3f 62 6b 5e 3d 6a f3 09 bd 85 ac 16 3d
       0.9846548 0.054301627 -0.033679403 0.03678562
0003f0 22 da 3f 3f cc f0 67 3f b2 d5 8c 40 d7 9c 7e 3f
       0.7494222 0.906018 4.401086 0.9945807

fc3.bias f4 [4]
000000 6f 22 9e 3f f2 45 ad 40 22 5e 85 bf d6 d0 42 bf
       1.2354258 5.4147882 -1.0419352 -0.7609991
