ai/models/dqn/trained_models/dqn_2048_400.pth (torch, 78975 bytes, 6 tensors)

fc1.weight f4 [128, 16]
0	0xbe3e6044	-0.1859141
1	0xbeb4f9a5	-0.35346714
2	0xbc866f45	-0.01641048
3	0x3eb34e4c	0.35020673
4	0xbd94889b	-0.07252618
5	0xbe774d06	-0.24150476
6	0x3e2c54b5	0.16829188
7	0xbef00d58	-0.4688518
8	0x3ea1a57d	0.3157157
9	0xbcaa2929	-0.02077158
10	0x3e9edc86	0.3102762
11	0xbe37b86a	-0.17941442
12	0x3d67a8cc	0.05655746
13	0x3d182dd4	0.03715308
14	0x3ee2dcf5	0.44309202
15	0x3f5702a9	0.83988434
16	0x3f4491b5	0.7678483
17	0x3d8bc021	0.06823755
18	0xbe68b659	-0.2272581
19	0x3dd8304c	0.10556087
20	0x3f28428c	0.6572654
21	0xbe8f8f68	-0.28039098
22	0xbe63f697	-0.22262035
23	0x3f21dab7	0.6322436
24	0xbf8d4dc7	-1.1039361
25	0x3f0b8ecc	0.54514766
26	0xbe8c995a	-0.27460748
27	0x3f0474a8	0.51740503
28	0xbce9e5df	-0.028551994
29	0xbe813776	-0.25237626
30	0x3f59748b	0.84943455
31	0xbf0da15c	-0.5532434
32	0x3e52f920	0.20602846
33	0x3ef511df	0.47865197
34	0x3f2ebabf	0.682537
35	0x3efa007c	0.48828495
36	0x3ea776af	0.32707736
37	0xbea1b66e	-0.31584495
38	0x3ea7b76c	0.32757127
39	0x3e869f19	0.26293257
40	0x3f15150f	0.5823526
41	0x3de6806a	0.11254962
42	0xbe5b41b0	-0.21411777
43	0x3e9b544f	0.3033776
44	0x3edea228	0.4348309
45	0xbcf1436e	-0.029451098
46	0xbe834be0	-0.25643826
47	0xbd832dfc	-0.06405255
48	0xbeca3b3b	-0.39498314
49	0xbd61d3b0	-0.05513352
50	0x3e7c473b	0.24636547
51	0xbea1bf0a	-0.31591064
52	0x3e2caf49	0.16863741
53	0x3d1a43d8	0.037662357
54	0x3f1ed92a	0.62050116
55	0xbeaeb38c	-0.34121358
56	0x3efd84fb	0.4951552
57	0x3dfa4a68	0.12221223
58	0xbc9dc185	-0.019257316
59	0x3e9de58a	0.30839187
60	0x3e121410	0.14265466
61	0x3bfef2c6	0.0077804057
62	0x3f0b0903	0.54310626
63	0xbe91aa39	-0.28450182
64	0x3c5d3fb6	0.013503959
65	0x3dc9d7f7	0.09855645
66	0x3f1fd6bb	0.6243703
67	0x3e8e3884	0.27777493
68	0xbd332822	-0.043739446
69	0x3ced931c	0.029000811
70	0xbdcfe9c3	-0.101520084
71	0x3f17d758	0.59312963
72	0xbd2e13d5	-0.042499382
73	0x3de7a8db	0.113115035
74	0xbe624b86	-0.22099122
75	0x3f140328	0.57817316
76	0x3d3d87cd	0.046272088
77	0x3e6d9de4	0.23204762
78	0xbc386089	-0.0112534845
79	0x3eaa8f3e	0.3331241
80	0xbea09e40	-0.31370735
81	0x3d2e2da1	0.042523984
82	0x3f1c168c	0.60971904
83	0x3ec59815	0.38592592
84	0xbece3824	-0.40277207
85	0x3e7c996f	0.24667905
86	0xbda34eb8	-0.07973999
87	0x3dc83960	0.097765684
88	0x3ecae91e	0.3963098
89	0xbd53dde3	-0.05172528
90	0x3e3e2650	0.18569303
91	0x3f046c33	0.517276
92	0x3ed81e73	0.4221073
93	0xbc80e20d	-0.01573279
94	0x3ec4f707	0.38469717
95	0x3ef18b79	0.47176722
96	0xbef7904e	-0.48352283
97	0x3e34ae34	0.17644578
98	0x3ee12a5b	0.43977627
99	0xbeb5478e	-0.35406154
100	0x3e999090	0.29993105
101	0x3dfbfe94	0.12304416
102	0xbe50031c	-0.20313686
103	0x3f0b28fa	0.543594
104	0x3cbb471a	0.022861052
105	0x3e4dc3d8	0.2009424
106	0xbe90a50a	-0.28250915
107	0x3e87e7d3	0.26544055
108	0x3e4aa576	0.19789681
109	0x3d95a99b	0.0730774
110	0x3eae7d66	0.34080046
111	0xbddeab1a	-0.10872479
112	0xbe89ad81	-0.26890185
113	0x3ec13661	0.377368
114	0xbcf00113	-0.029297387
115	0xbb69f26b	-0.003569747
116	0xbce958e3	-0.028484767
117	0xbe7a5f6b	-0.24450462
118	0x3e0f9f0e	0.14025518
119	0x3f1c8b33	0.611499
120	0x3ef737ed	0.48284855
121	0x3d808643	0.062756084
122	0xbd20b0f9	-0.039231274
123	0x3e6b90b1	0.23004414
124	0x3df844c9	0.12122495
125	0x3e6e8121	0.23291446
126	0xbd63111c	-0.05543624
127	0xbdb4aa32	-0.08821525
128	0x3ca5cdd1	0.020239742
129	0x3d4207d1	0.047370736
130	0x3f1d9cfa	0.6156765
131	0x3ede6a6f	0.43440577
132	0x3e90ed80	0.28306198
133	0xbdb52ff4	-0.08847037
134	0xbdf1e393	-0.118109845
135	0x3e425422	0.18977407
136	0x3c8acf8b	0.016944667
137	0xbd084e97	-0.033278074
138	0xbd2e2246	-0.042513154
139	0x3eab5e07	0.33470175
140	0xbe404b39	-0.18778695
141	0x3db8ec13	0.090294026
142	0x3e9f72d1	0.31142285
143	0x3ef0b3e2	0.4701224
144	0x3f160624	0.5860312
145	0x3e8d90fd	0.2764968
146	0x3f1b5a4f	0.60684675
147	0x3ef22795	0.47295824
148	0x3e91d5fe	0.28483576
149	0xbe3ef86d	-0.18649454
150	0x3e42ec36	0.1903542
151	0x3ef4e9b9	0.47834566
152	0x3ef55158	0.47913623
153	0x3e179724	0.1480375
154	0x3dc8183a	0.09770246
155	0x3f162f2f	0.58665746
156	0x3f19e21b	0.60110635
157	0x3dc99111	0.09842122
158	0x3ebf1d3a	0.37326986
159	0x3edbb61c	0.42912376
160	0xbeb8d923	-0.36103162
161	0x3e993624	0.2992412
162	0x3ef9a0b7	0.48755428
163	0x3f279775	0.6546548
164	0x3eecde7b	0.4626349
165	0xbe81f44f	-0.25381705
166	0xbe64f2e6	-0.22358283
167	0x3ede5aa0	0.43428516
168	0x3c52e285	0.012871389
169	0x3caac5f9	0.020846354
170	0x3d9c34d3	0.07627263
171	0x3efa5d02	0.48899084
172	0xbc5e2ddf	-0.013560741
173	0xbeafa96f	-0.34308955
174	0xbe0c998a	-0.13730446
175	0x3ebc2cb6	0.36752862
176	0xbec2d405	-0.38052383
177	0xbb6a420c	-0.0035744933
178	0x3ed6d345	0.4195806
179	0x3e05d704	0.13070303
180	0xbe7a4355	-0.24439748
181	0xbed8a16f	-0.42310664
182	0xbe302b5f	-0.17204045
183	0xbe3b3743	-0.182828
184	0xbe1ed172	-0.15509585
185	0xbd527e8c	-0.051390216
186	0x3ec85f73	0.39135322
187	0x3ec67c29	0.38766602
188	0xbc822031	-0.01588449
189	0x3b5f2b38	0.003405286
190	0x3e3bfad3	0.183574
191	0x3f5eb012	0.8698741
192	0xbeeb8d8d	-0.46006432
193	0x3ea069ec	0.31330812
194	0x3e0d3c4f	0.13792537
195	0x3ee423bc	0.44558513
196	0xbcf46c15	-0.029836694
197	0x3e3a611b	0.18201105
198	0xbe0f6ffe	-0.14007565
199	0x3e87385a	0.2641018
200	0x3eeb24c8	0.459265
201	0xbe3825d4	-0.1798318
202	0x3e27f885	0.16403396
203	0x3f086bfc	0.5328977
204	0x3df638df	0.12022566
205	0xbe613f8c	-0.21996897
206	0x3e5997d3	0.21249323
207	0x3f12eadf	0.57389635
208	0x3eca5ed9	0.39525488
209	0x3f00a219	0.5024734
210	0x3eccca20	0.3999796
211	0x3f1d6693	0.6148464
212	0x3e626e65	0.22112425
213	0xbe25e5f6	-0.16201004
214	0x3de5a505	0.112131156
215	0x3e897b98	0.26852107
216	0x3f1d25c4	0.6138575
217	0xbebd5c28	-0.36984372
218	0x3df81727	0.12113791
219	0x3f1ae7f3	0.60510176
220	0x3f0faa78	0.5611949
221	0xbdefbc62	-0.11705853
222	0x3e98d78c	0.2985195
223	0x3f1d6614	0.61483884
224	0x3ef78f02	0.48351294
225	0xba922199	-0.0011148929
226	0x3f0a41d8	0.5400672
227	0x3f0cad66	0.54952085
228	0x3eacd497	0.33755943
229	0xbdc6d6d2	-0.097089425
230	0x3eb70f04	0.35753644
231	0x3f2e88fa	0.6817776
232	0x3eedd1d5	0.46449152
233	0xbec043a5	-0.3755161
234	0x3dcfdb54	0.101492554
235	0x3e43b90f	0.19113563
236	0x3d77e9c8	0.060525686
237	0x3e52fbe5	0.20603903
238	0x3db72e57	0.089443855
239	0x3f1261bc	0.5718038
240	0x3ed84e75	0.42247358
241	0x3ee5af7a	0.4486044
242	0x3f1a3f87	0.60253185
243	0x3d510e01	0.051038746
244	0x3d094064	0.033508673
245	0xbe31054c	-0.17287177
246	0x3e8d708a	0.27624923
247	0x3f351c20	0.7074604
248	0x3ccb447c	0.02481293
249	0x3e11f704	0.14254385
250	0x3dc1c003	0.094604515
251	0x3ec7489b	0.3892258
252	0xbe89c711	-0.26909688
253	0xbe408329	-0.18800034
254	0xbe3b337f	-0.18281363
255	0x3eec5225	0.4615642

fc1.bias f4 [128]
0	0xc040ba63	-3.0113761
1	0xbfd041aa	-1.6270039
2	0xbf8c1517	-1.0943936
3	0xc03313db	-2.798087
4	0xc000bade	-2.0114055
5	0xc000cad3	-2.0123794
6	0xc014f12b	-2.3272197
7	0xbffc36f7	-1.9704274
8	0xc0059f80	-2.08786
9	0xbf36b85e	-0.7137507
10	0xbf8865b7	-1.0656041
11	0xc0106c80	-2.2566223
12	0xbfbace6f	-1.4594249
13	0xbeb41e46	-0.35179347
14	0xbf78573b	-0.97008103
15	0xbfba7c41	-1.4569169
16	0xc036a6f4	-2.85394
17	0xbf20135d	-0.62529546
18	0xbfb798f6	-1.4343555
19	0xc02e6985	-2.7251904
20	0xbfe81b5a	-1.8133347
21	0xbe8deaef	-0.27718303
22	0x3daf3ecc	0.085568994
23	0xbff6c5e4	-1.9279141
24	0xbd8bb703	-0.06822016
25	0xbf6e1c9a	-0.9301239
26	0xc03c4eb7	-2.9423044
27	0xbf0238d9	-0.5086799
28	0xc01e4088	-2.4726887
29	0xbfd119a7	-1.6335953
30	0xbfa0e164	-1.2568784
31	0xbf03d6fb	-0.5149991
32	0xbfe081ae	-1.7539575
33	0xc01121e3	-2.2676933
34	0xbfc58648	-1.5431604
35	0xc0032f88	-2.049776
36	0xbfb5f911	-1.4216634
37	0xbe02e604	-0.12783056
38	0xc003a1f3	-2.0567596
39	0xc0393c5a	-2.8943086
40	0xbfcf6cd9	-1.6205093
41	0xc00eaea2	-2.2294087
42	0xbf305a1c	-0.68887496
43	0xc00c7f9c	-2.1952887
44	0x3d7fcefb	0.06245325
45	0xbfb294ef	-1.3951701
46	0xc017181b	-2.3608463
47	0xc016a3b7	-2.3537424
48	0xc0082b7a	-2.1276536
49	0xc021b549	-2.5266898
50	0xc01f03ac	-2.484599
51	0xbff51c21	-1.9149209
52	0xc039ff3b	-2.906203
53	0xc032a84e	-2.7915225
54	0xbfd6ed83	-1.6791233
55	0xc02652ca	-2.598803
56	0xc000cda6	-2.0125518
57	0xc00ab1d5	-2.167104
58	0xbfa02476	-1.2511127
59	0xbf3d5c9d	-0.7396944
60	0x40f52c30	7.661644
61	0xc02973e4	-2.6476984
62	0xbfdc2ea3	-1.7201732
63	0xc00dd05e	-2.2158427
64	0xbdc71092	-0.097199574
65	0xc02c0185	-2.6875927
66	0xc006056e	-2.0940814
67	0xc01ac1f5	-2.4180882
68	0xc0151b3d	-2.3297875
69	0xbf38941d	-0.72101
70	0x40c59b82	6.175233
71	0xbf2f6f96	-0.6852964
72	0xbfff67c4	-1.9953542
73	0xc020cc49	-2.5124686
74	0xbff6b2cc	-1.9273314
75	0xbf3fd4c8	-0.74934053
76	0xbff53b78	-1.9158773
77	0xc00223d9	-2.033438
78	0xc00b1cc7	-2.1736314
79	0xbe9cb2b8	-0.30605102
80	0xbf908517	-1.1290616
81	0xc03ac342	-2.9181676
82	0xc000e6c3	-2.0140846
83	0xc032fe62	-2.7967763
84	0xbd847192	-0.06466974
85	0xc04ea004	-3.2285166
86	0xc020f0eb	-2.5147045
87	0xc0214c85	-2.5202954
88	0xc00d5ea5	-2.2089016
89	0xc014bab8	-2.3238964
90	0xc01c70c2	-2.4443822
91	0xbf9b9bf3	-1.2156967
92	0xc02b17b8	-2.6733227
93	0xc0068acd	-2.1022217
94	0x3fd63617	1.6735257
95	0xbf9dbb4f	-1.2322787
96	0xbf9b76b0	-1.2145596
97	0xc009bcfb	-2.1521595
98	0xbfedad4c	-1.8568511
99	0xbfbe3ffa	-1.4863274
100	0xc017eda1	-2.3738787
101	0xbf107eb9	-0.56443363
102	0xbe06b83c	-0.13156217
103	0xbf851481	-1.0396882
104	0xc00bd697	-2.1849725
105	0xbff46813	-1.9094261
106	0xc02391e1	-2.5557787
107	0xbff72eda	-1.9311173
108	0x40e0e976	7.0284986
109	0xc018b1d6	-2.3858542
110	0xc00a56b4	-2.161542
111	0xc010b1df	-2.2608564
112	0xbf1b5002	-0.6066896
113	0xc0239f08	-2.5565815
114	0x40afec10	5.497566
115	0xc0329329	-2.790232
116	0xc0106d92	-2.2566876
117	0xbff97267	-1.9488038
118	0xbcd03cda	-0.025419641
119	0xc0022774	-2.033658
120	0x40d5b19c	6.677931
121	0xbfe189bf	-1.7620162
122	0xbe3355cd	-0.17513199
123	0xbe2b4439	-0.16725244
124	0xc0349ca5	-2.8220608
125	0xc017008d	-2.3594086
126	0xc034ebbe	-2.8268886
127	0xbf233787	-0.63756603

fc2.weight f4 [128, 128]
0	0xbc832c6d	-0.016012395
1	0x3d7ab16a	0.06120435
2	0xbc6ae4d2	-0.014336782
3	0xbc8adf10	-0.016952068
4	0xbd9810f2	-0.07425107
5	0xbd7e4d47	-0.062085416
6	0xbdb3f579	-0.087870546
7	0xbcb8ac3a	-0.022543062
8	0xbddf12f4	-0.10892287
9	0x3c3c4341	0.011490644
10	0x3d7e5a00	0.06209755
11	0x3d3dcd04	0.046338096
12	0xbcb5567b	-0.022135964
13	0xbd11287a	-0.035438992
14	0xbdddd341	-0.10831309
15	0xbdbcf7fd	-0.092269875
16	0xbc8fcdf4	-0.01755426
17	0x3d2d2bbb	0.042278033
18	0xbd893f37	-0.067015104
19	0xbd56b44b	-0.052418035
20	0xbd902a36	-0.07039301
21	0xbcbf0cb0	-0.02332148
22	0xbd95e18b	-0.073184095
23	0xbcfbdf88	-0.030746236
24	0xbd347f63	-0.044066798
25	0xbd57fbb7	-0.05273029
26	0xbd0d4635	-0.034490783
27	0xbdc59e8c	-0.09649381
28	0xbc9a7198	-0.018852994
29	0xbd836a2a	-0.064167336
30	0xbd1cc302	-0.03827191
31	0xbc7357ca	-0.0148524735
32	0xbd5cd2ea	-0.05391208
33	0x3c866be5	0.01640887
34	0x3c11bbd5	0.00889488
35	0xbd5f6f11	-0.05454928
36	0xbcade4d6	-0.021227282
37	0xbd972f18	-0.07382029
38	0x3cc3d0e2	0.023903314
39	0xbde335b1	-0.11094225
40	0xbde5b1d8	-0.11215562
41	0xbdcc9fb8	-0.099914014
42	0xbc8e74e9	-0.017389731
43	0xbd8b591d	-0.068041064
44	0xbd9c3637	-0.07627528
45	0x3c172224	0.009224448
46	0xbd777b60	-0.060420394
47	0xbdc79c26	-0.0974658
48	0x3d3428dd	0.043984283
49	0xbd13961d	-0.03603183
50	0x3c8ef281	0.01744962
51	0x3cb1d1e9	0.021706538
52	0x3d6a49aa	0.057199158
53	0x3d1aefa2	0.037826188
54	0x3ce79bf6	0.02827261
55	0x3ba25992	0.0049545253
56	0x3d870282	0.06592275
57	0x3d130baa	0.035899796
58	0x3d4d5a12	0.050134726
59	0xbda7e3ff	-0.08197784
60	0x3c4bef23	0.012447151
61	0xbd2eb5cb	-0.04265384
62	0xbdf70b4c	-0.120627016
63	0xbccd07de	-0.025028165
64	0x3cf3ae70	0.029746264
65	0xbdc478c5	-0.095933475
66	0x3cf280be	0.029602405
67	0x3cb65897	0.02225904
68	0x3d2c8e54	0.042127922
69	0xbcd833c6	-0.026391875
70	0x3bc60b42	0.0060438225
71	0xbd213acf	-0.039362725
72	0x3bb85395	0.005625198
73	0x3d7210c7	0.05909803
74	0x3b782d45	0.003786878
75	0xbdd6ccf2	-0.10488309
76	0xbd24756b	-0.04015104
77	0x3be7f100	0.00707829
78	0xbdd1eaf2	-0.102498904
79	0xbd8e6ea3	-0.06954696
80	0xbd848493	-0.06470599
81	0xbd9db94a	-0.07701357
82	0xbddc6889	-0.10762126
83	0xbd9a49b6	-0.075335905
84	0xbd94aec8	-0.072598994
85	0xbde1b063	-0.11019971
86	0xbc75edd5	-0.015010317
87	0xbd59936f	-0.05311912
88	0xbd7ed238	-0.0622122
89	0x3cb8b1c1	0.022545697
90	0xbd17de34	-0.037077144
91	0xbd3f1958	-0.04665503
92	0xbd628d08	-0.05531028
93	0xbdb91b4e	-0.09038411
94	0xbbaf0d00	-0.005342126
95	0x3d80252c	0.0625709
96	0xbcd43b2b	-0.02590712
97	0xbc63654c	-0.0138791315
98	0x3cb46291	0.022019656
99	0xbde2f675	-0.11082164
100	0xbd24c882	-0.04023028
101	0xbdacf38b	-0.0844489
102	0x3d29264c	0.04129629
103	0xbd63671e	-0.055518262
104	0xbca7d100	-0.020485401
105	0xbdd377af	-0.10325562
106	0xbc89a5b6	-0.01680265
107	0xbd7224d2	-0.059117146
108	0xbde3fcf3	-0.111322306
109	0xbd1f2713	-0.038855623
110	0x3ce3433f	0.027742026
111	0xbd14f546	-0.036366723
112	0xbc494f53	-0.012286979
113	0xbcb6acda	-0.022299219
114	0x3d902f86	0.070403144
115	0x3d58a121	0.05288804
116	0xbd94503a	-0.072418645
117	0xbd4f202e	-0.0505678
118	0x3c8690c2	0.016426448
119	0xbdad12b5	-0.08450834
120	0xbd934240	-0.071903706
121	0xbde7f20c	-0.11325464
122	0xbdf58879	-0.11988921
123	0xbd8834d9	-0.06650705
124	0xbc51a49b	-0.012795593
125	0xbd829a4c	-0.06377086
126	0xb84c3e57	-4.869545e-05
127	0xbda06716	-0.07832162
128	0x400baf15	2.1825612
129	0x3ff1e6b5	1.8898531
130	0x3e970759	0.29497793
131	0x3fba04f0	1.4532757
132	0x3ee6338c	0.44961202
133	0x3eb4fc56	0.35348767
134	0x3f12a510	0.57283115
135	0x3e9ac6dd	0.30229846
136	0x3f149353	0.580373
137	0x3ecfdbee	0.4059748
138	0x3e89dccd	0.2692627
139	0x3fac4ab1	1.3460294
140	0x3e8a4976	0.2700917
141	0x3eed813b	0.46387658
142	0x3eb6515e	0.35608953
143	0x3eb2005c	0.347659
144	0x402f3b17	2.7379816
145	0x3e9cc765	0.30620876
146	0x3e586ff7	0.21136461
147	0x3fff41e2	1.9941981
148	0x3e95dd8f	0.29270598
149	0x3ec95dab	0.39329275
150	0x40555a09	3.3336203
151	0x3ea4f097	0.32214805
152	0x4045a955	3.0884602
153	0x3eee1517	0.46500465
154	0x4035bb8c	2.839572
155	0x401b3faa	2.4257607
156	0x405bc4f7	3.4338968
157	0x40634c76	3.5515418
158	0x3ed4fd32	0.41599423
159	0x3e8a9d75	0.27073255
160	0x3ea29d2e	0.31760544
161	0x3fcc24c4	1.594872
162	0x3ea91190	0.33021212
163	0x3ea8a73f	0.329401
164	0x3f0b7398	0.5447326
165	0x3ea44d1c	0.3209008
166	0x3ebc83e7	0.36819384
167	0x3ff88587	1.9415749
168	0x3eb2e64d	0.3494133
169	0x3e70ece4	0.23527867
170	0x3ecf12af	0.40443942
171	0x40539db2	3.3065
172	0x3ed899e0	0.42304897
173	0x3eae34ad	0.34024563
174	0x3f1019fd	0.56289655
175	0x400fd1bc	2.2471762
176	0x401e6b56	2.4753013
177	0x3ec800da	0.3906315
178	0x3f889508	1.0670481
179	0x401dd835	2.4663212
180	0x3fd435d3	1.6578926
181	0x403a12b1	2.9073908
182	0x3e511b7d	0.20420642
183	0x40263bc3	2.5973976
184	0x400c8b4f	2.1960027
185	0x3eb7b439	0.35879686
186	0x3e896e08	0.2684176
187	0x3e898e0a	0.2686618
188	0x3e5d90cb	0.21637265
189	0x3fcdd12b	1.6079458
190	0x3ede1d3a	0.43381673
191	0x403624f8	2.8460064
192	0x3ecb4cde	0.39707083
193	0x402e3a81	2.7223208
194	0x3e9a6b9b	0.3016022
195	0x4003026b	2.0470226
196	0x3f5edc5e	0.87055004
197	0x3ea2156b	0.31656966
198	0xbe62d828	-0.2215277
199	0x40342ea0	2.8153458
200	0x4041a3fa	3.0256333
201	0x3ed538b7	0.41644832
202	0x3e69400b	0.22778337
203	0x3e8ad32f	0.27114245
204	0x402f7b2c	2.7418928
205	0x404988c6	3.148973
206	0x3e9c1523	0.30484876
207	0x3ee3654c	0.4441322
208	0x3eb08d94	0.34483016
209	0x401a321c	2.4093084
210	0x3fb05195	1.3774897
211	0x40001003	2.0009773
212	0x3ee0b4e5	0.43888012
213	0x406aba92	3.6676373
214	0x404c5c59	3.1931365
215	0x3f58dbc4	0.84710336
216	0x4018d48d	2.387973
217	0x406b80d2	3.6797376
218	0x3fa9fb21	1.3279763
219	0x3e71eabb	0.23624699
220	0x402adb6a	2.669642
221	0x4018c129	2.3867896
222	0xbf5b4cf1	-0.8566428
223	0x3eafaf10	0.3431325
224	0x3ead1ac9	0.33809498
225	0x3fe49ea3	1.7860912
226	0x3e20ab82	0.15690425
227	0x3e52547d	0.20540042
228	0x3eb66a7b	0.35628113
229	0x3ee2db82	0.44308096
230	0x3f116c00	0.5680542
231	0x3eb3a5cd	0.35087433
232	0x3e116da3	0.1420198
233	0x3eb71823	0.35760602
234	0x400620b5	2.0957463
235	0x3ea59913	0.3234335
236	0x3ed1d6a7	0.4098408
237	0x405d4350	3.4572334
238	0x400c2434	2.1897097
239	0x3fe6d124	1.8032575
240	0x3f0547fa	0.5206295
241	0x4002eacc	2.0455809
242	0xbd81ac4d	-0.06331692
243	0x4049910d	3.1494782
244	0x3ec56d3e	0.38559908
245	0x3ed3c324	0.41359818
246	0x40760a8b	3.8443935
247	0x400feb3f	2.2487333
248	0x3e77aad5	0.24186261
249	0x3e9907ee	0.29888862
250	0x405cea9f	3.4518201
251	0x3ed3bdd5	0.41355768
252	0x40773c9b	3.863074
253	0x3fc71845	1.5554281
254	0x4051797e	3.2730403
255	0x3eb8063a	0.3594225

fc2.bias f4 [128]
0	0xbd8426b7	-0.06452697
1	0xbd499282	-0.049211986
2	0xbdb1197e	-0.086474404
3	0xbd9f73b3	-0.0778574
4	0x3d37d0d6	0.044876896
5	0xbd7b8503	-0.061406147
6	0x3d8fb531	0.070169814
7	0xbcf73596	-0.030176919
8	0xbf94dc69	-1.1629764
9	0xbdab82bd	-0.08374546
10	0x3e37c4f5	0.17946227
11	0xbdf29434	-0.11844674
12	0xbe44abd4	-0.19206172
13	0xbed81be3	-0.42208776
14	0xbffcabb6	-1.9739902
15	0xc045c89a	-3.0903687
16	0xbdc7ff0d	-0.09765444
17	0x3e785e0a	0.24254623
18	0xbcfdba13	-0.030972516
19	0x3eb0d17f	0.34534833
20	0xbd1e9668	-0.038717657
21	0x3ec93440	0.39297676
22	0xbf4905cf	-0.7852449
23	0xbee1ceda	-0.44103128
24	0xbeea736f	-0.45791194
25	0xbf8cfb94	-1.1014276
26	0x3ed3ffcf	0.41406104
27	0x3fdee990	1.7415028
28	0x3ecf467b	0.4048346
29	0xbea3baa0	-0.3197832
30	0x3ce21204	0.027596481
31	0x3f08cc2b	0.53436536
32	0x3ecb4d46	0.39707392
33	0x3ea450cb	0.3209289
34	0x40658318	3.5861263
35	0xbf29b3bd	-0.66289884
36	0xc01902fc	-2.3908072
37	0xbfabfa6b	-1.3435796
38	0x3d2c0511	0.04199702
39	0xbd3686ad	-0.04456203
40	0x3ed3b825	0.4135143
41	0xbd9f5397	-0.07779615
42	0x3f0ae8a4	0.5426123
43	0x3ef694cd	0.481604
44	0xbf804b87	-1.0023049
45	0x3dcc6f49	0.099821635
46	0x3eb5c198	0.35499263
47	0x3d49e7c7	0.049293306
48	0xc0623ac5	-3.534837
49	0xbd1da475	-0.038486917
50	0xbd649b68	-0.05581227
51	0x403fa513	2.9944503
52	0x3d73947a	0.05946777
53	0xbe44ceb0	-0.1921947
54	0xbd9e7d8f	-0.07738792
55	0xbe3082e2	-0.17237428
56	0xbb90bbc0	-0.004416913
57	0xbf2062df	-0.62650865
58	0xbf9f0090	-1.2422047
59	0xbe685886	-0.22690019
60	0x3d426463	0.047459017
61	0xbf3145a1	-0.6924687
62	0xc0378c6a	-2.8679452
63	0xc0180121	-2.375069
64	0xbecb58f2	-0.39716297
65	0xbdfc865d	-0.12330315
66	0xbfe5d791	-1.7956411
67	0x3ddf0d5e	0.108912215
68	0x3d18e35d	0.037326206
69	0x3ffc4cf9	1.971099
70	0xbecba8c3	-0.39777192
71	0xbfb4b378	-1.411727
72	0xbccf8fc9	-0.025337117
73	0x3e32b797	0.17452846
74	0x3f0ae64d	0.5425766
75	0xbdaffb0b	-0.085928045
76	0x3ff7eed7	1.9369763
77	0xbe9c6273	-0.3054386
78	0xc04bbe54	-3.1834917
79	0xbd73b660	-0.0595001
80	0x3d6414f2	0.055684038
81	0xbd097293	-0.033556532
82	0x3e93eede	0.2889318
83	0xbe017f7c	-0.12646288
84	0x402da604	2.7132578
85	0xc0636ccf	-3.5535161
86	0x402173d5	2.5226948
87	0xbdb7391c	-0.089464396
88	0x3ca351db	0.019936493
89	0x3efdd057	0.49573013
90	0xbcb21474	-0.021738268
91	0xbcf10495	-0.02942113
92	0xc02a1bd7	-2.6579492
93	0xbd386bb0	-0.045024574
94	0x3dcbf535	0.09958879
95	0xbf1fd50e	-0.6243447
96	0xbd65725f	-0.056017276
97	0x3e4fd91c	0.20297664
98	0x3be43cd8	0.006965261
99	0x3d823a61	0.06358791
100	0xbdbc9431	-0.09207953
101	0x4026409b	2.5976932
102	0xbf56faab	-0.8397624
103	0xbd593628	-0.053030163
104	0xbe258fb2	-0.16168097
105	0x3e089b76	0.13340554
106	0xbcd68a84	-0.026189096
107	0xbd91984a	-0.07109125
108	0x3eb767ad	0.35821286
109	0x3ffb85c2	1.9650195
110	0x3ee2d543	0.4430333
111	0x3f1950df	0.59889024
112	0xbdaad8f0	-0.08342159
113	0xbf50ca0f	-0.81558317
114	0xc04db2d0	-3.2140388
115	0xbe82011c	-0.2539147
116	0x3e2b06b7	0.1670178
117	0x3e76aeb1	0.24090077
118	0xbe00e848	-0.12588608
119	0x3e646346	0.22303495
120	0x3e82e414	0.25564635
121	0xbcffda5a	-0.031232048
122	0xbd9248c6	-0.07142787
123	0x3c9e42e5	0.019319007
124	0x3dc6ee6d	0.09713445
125	0xbe046126	-0.12927684
126	0xc0012577	-2.0179117
127	0x3de879ea	0.11351378

fc3.weight f4 [4, 128]
0	0x3d206019	0.039154146
1	0x3f80e8ee	1.0071084
2	0xbd40406c	-0.046936437
3	0x3f910ff0	1.1332989
4	0x3d360352	0.04443676
5	0xbc85c8aa	-0.016331036
6	0xbd2af2d3	-0.04173548
7	0xbd0c32c3	-0.034228098
8	0x3f5c7665	0.86118156
9	0x3f8278c8	1.019311
10	0x3f6dc26d	0.92874795
11	0x3f4ba3ac	0.7954662
12	0x3f676329	0.9038568
13	0x3f6d7f07	0.92771953
14	0x3f3b5a68	0.73184824
15	0x3ff6649a	1.9249451
16	0x3f7d2784	0.9888842
17	0x3f7c1a5a	0.9847771
18	0xbd456aca	-0.048197545
19	0x3f7dfbe0	0.99212456
20	0x37185fef	9.082242e-06
21	0x3f6d9991	0.9281245
22	0x3f8ba345	1.0909201
23	0x3f7ba5d6	0.9829992
24	0x3f64de70	0.8940191
25	0x3f53a874	0.82678914
26	0x3f786096	0.9702238
27	0x3f66805a	0.900396
28	0x3f4cc62f	0.79989904
29	0x3f5dda97	0.86661667
30	0x3f866452	1.0499365
31	0x3f648774	0.89269185
32	0x3f7a50b0	0.9777937
33	0x3f508515	0.8145307
34	0xbfb41586	-1.4069068
35	0x3f68a41b	0.90875405
36	0x3ffabc07	1.9588631
37	0x3f7acdf1	0.9797049
38	0x3f4c3401	0.7976685
39	0xbd0a7c91	-0.033810202
40	0x3f6e7485	0.93146545
41	0x3d128a04	0.035776153
42	0x3f6c2c24	0.92254853
43	0x3f79c48c	0.9756553
44	0x3f82991b	1.0202974
45	0x3f6d9702	0.92808545
46	0x3f811425	1.0084273
47	0xbb790059	-0.0037994592
48	0x400b2f10	2.1747475
49	0xbd32f269	-0.04368821
50	0xbd5a91db	-0.053361755
51	0x405d0f2c	3.454051
52	0x3c33cfa0	0.010974795
53	0x3f74f0e2	0.9568006
54	0x3f81c461	1.0138055
55	0x3f55f043	0.83569735
56	0x3d847869	0.06468279
57	0x3f5de1a3	0.8667242
58	0x3f8093c7	1.0045098
59	0x3f798004	0.9746096
60	0x3f843f31	1.0331784
61	0x3f6e8d9e	0.9318484
62	0x3f8123fc	1.0089107
63	0x3f87f27a	1.0620873
64	0x3f749ac7	0.9554867
65	0x3f81a76d	1.0129219
66	0x3f817608	1.0114145
67	0x3f77d12c	0.96803546
68	0x3d9beb4e	0.0761324
69	0x401d05d9	2.453482
70	0x3f8545cb	1.0411924
71	0x3f72067e	0.94541156
72	0xbd863595	-0.06553189
73	0x3f762a98	0.9615874
74	0x3f77eb15	0.9684308
75	0x3d13b253	0.036058735
76	0x3fcd3b8d	1.6033798
77	0x3f63b003	0.8894045
78	0x3fb617c1	1.4225999
79	0xbc9eb5b2	-0.019373748
80	0xbcfebc96	-0.031095784
81	0xbccec3ee	-0.02523991
82	0x3f6a64b4	0.9155991
83	0x3f460831	0.7735625
84	0x405628c3	3.346238
85	0x4023332d	2.5499985
86	0x404ac81e	3.1684642
87	0x3f5bc867	0.85852665
88	0x3f50a839	0.8150669
89	0x3f75866f	0.95908254
90	0x3b1b4e45	0.0023697775
91	0xbcaa4320	-0.02078396
92	0x3f840ffa	1.0317376
93	0x3f500396	0.8125547
94	0x3f83e8e2	1.0305445
95	0x3f5326e8	0.8248124
96	0x3cf2ef27	0.029655052
97	0x3f562a18	0.8365798
98	0x3f7a7819	0.97839504
99	0x3f806b48	1.003274
100	0xbd640c53	-0.055675816
101	0x406bb415	3.6828663
102	0x3f70e235	0.94095165
103	0xbd4444b3	-0.04791708
104	0x3f55cd0d	0.8351601
105	0x3f506fde	0.81420696
106	0x3dace9dd	0.084430434
107	0xbd944439	-0.07239575
108	0x3f775510	0.9661417
109	0x3f6ae4e7	0.9175553
110	0x3f4e56a1	0.80600935
111	0x3f76ad5b	0.9635827
112	0xbd81f8cd	-0.06346283
113	0x3f83227d	1.02449
114	0x3fc9b712	1.5758994
115	0x3f4f2fab	0.8093211
116	0x3f44ab25	0.76823646
117	0x3f81e069	1.014661
118	0x3f67e1af	0.9057874
119	0x3f83fce2	1.0311549
120	0x3f5a5e1d	0.85299855
121	0x3cdbdaef	0.026837794
122	0xbbfe87be	-0.0077676466
123	0x3c4588fe	0.012056587
124	0x3f8451fb	1.0337518
125	0x3f5fc666	0.87412107
126	0x3fb4aea6	1.4115798
127	0x3f6b339f	0.9187564
128	0xb9ebb280	-0.00044955686
129	0x3f3abc2e	0.7294339
130	0x3c4cb4e0	0.012494296
131	0x3f385f84	0.72020745
132	0xbd59071b	-0.052985292
133	0xbd62d512	-0.05537898
134	0xbd7ff572	-0.062489934
135	0xbc172e5b	-0.009227361
136	0x3f46078c	0.77355266
137	0x3f378cd4	0.7169926
138	0x3f4c4ee5	0.79807884
139	0x3f54ac4e	0.83075416
140	0x3f3847be	0.7198447
141	0x3f610e15	0.8791211
142	0x3f8db697	1.1071347
143	0x3ff5c17e	1.9199674
144	0x3f51e816	0.8199476
145	0x3f514026	0.8173851
146	0x3d3d3c48	0.046200067
147	0x3f5e5bd5	0.86858875
148	0xbd20221c	-0.03909503
149	0x3f5d4b40	0.8644295
150	0x3f2db53d	0.6785467
151	0x3f38b707	0.7215428
152	0x3f369988	0.7132802
153	0x3f51f59c	0.82015395
154	0x3f6ac970	0.9171362
155	0x3fd7ae22	1.6850016
156	0x3f6bee0b	0.921601
157	0x3f4f647f	0.8101272
158	0x3f2e7164	0.6814177
159	0x3f7aa7e5	0.97912437
160	0x3f6e0b3d	0.929859
161	0x3f6e7eaf	0.93162054
162	0x408b3a9d	4.350905
163	0x3f4119e8	0.75430155
164	0x401b1288	2.423006
165	0x3f2aae1d	0.66671926
166	0x3f66b248	0.90115786
167	0x3c5d3ebf	0.013503729
168	0x3f6c167b	0.922218
169	0xbc9506f9	-0.018191801
170	0x3f75d4c0	0.96027756
171	0x3f6b1ac6	0.9183773
172	0x3f34b289	0.70584923
173	0x3f4aa8c6	0.7916378
174	0x3f5137f9	0.8172603
175	0xbc166fc5	-0.009181921
176	0x400ac403	2.1682136
177	0xbb0fc6b1	-0.0021938498
178	0x3b0ef49f	0.0021813286
179	0x40968cc2	4.7046824
180	0x3c6ca670	0.014443979
181	0x3f39f58e	0.7264031
182	0x3f3b61e8	0.7319627
183	0x3f40c86d	0.75305825
184	0xbbafa020	-0.0053596646
185	0x3f2cc561	0.67488676
186	0x3f460a2f	0.7735929
187	0x3f380af7	0.7189173
188	0x3f37d9cc	0.71816707
189	0x3f1e4fe0	0.6184063
190	0x3fcfc876	1.6233051
191	0x3fb44096	1.408221
192	0x3f34b0e3	0.7058241
193	0x3f4a5151	0.7903033
194	0x3f6af613	0.9178173
195	0x3f50a8a2	0.81507313
196	0x3bd83dbc	0.006599156
197	0x4039bc94	2.902135
198	0x3f3ae1db	0.7300088
199	0x3f20cc74	0.6281197
200	0xbb57d147	-0.0032931136
201	0x3f4c50bc	0.7981069
202	0x3f6fbf12	0.93650925
203	0xbccfba0c	-0.025357269
204	0x3faf9142	1.3716204
205	0x3f36c4af	0.71393865
206	0x3ffc9c07	1.9735116
207	0x3da0ebf1	0.07857502
208	0xbd838d2e	-0.06423412
209	0x3b3c1181	0.0028696957
210	0x3f4e7ede	0.80662334
211	0x3f5d8026	0.86523664
212	0x40a42ee9	5.1307263
213	0x401d6cb3	2.4597595
214	0x40868b22	4.204484
215	0x3f5c3382	0.86016095
216	0x3f668ccc	0.9005859
217	0x3f6d0c54	0.92596936
218	0xbc415a8c	-0.011801373
219	0xbd444020	-0.047912717
220	0x3fb8a45f	1.4425162
221	0x3f55efec	0.83569217
222	0x3f475f6d	0.77879983
223	0x3f5cbf17	0.8622908
224	0xbcbc34d7	-0.022974415
225	0x3f64f1d6	0.8943151
226	0x3f597530	0.8494444
227	0x3f36efd2	0.71459687
228	0xbd672dfa	-0.05644033
229	0x408f5819	4.479504
230	0x3f31a3e6	0.69390714
231	0x3cb33934	0.021877863
232	0x3f3a0551	0.7266436
233	0x3f72d7ea	0.9486071
234	0x3c1eeac8	0.009699531
235	0x3bf77708	0.0075520314
236	0x3f61a22f	0.881381
237	0x3f95e6c1	1.1711046
238	0x3f74d7bc	0.95641685
239	0x3f748e5b	0.9552972
240	0x3ceeb023	0.029136723
241	0x3f2157ab	0.63024396
242	0x40032eea	2.0497384
243	0x3f495b58	0.78655005
244	0x3f68f596	0.90999734
245	0x3f458992	0.7716304
246	0x3f5629c4	0.8365748
247	0x3f46d85a	0.77673876
248	0x3f6692b9	0.9006763
249	0x3d5e6b62	0.054301627
250	0xbd09f36a	-0.033679403
251	0x3d16ac85	0.03678562
252	0x3f38b6fa	0.721542
253	0x3f5e392d	0.86805993
254	0x40120b1d	2.2819283
255	0x3f6cff0e	0.9257668

fc3.bias f4 [4]
0	0x3f4923f8	0.7857051
1	0x406a847c	3.6643362
2	0xbf776115	-0.9663251
3	0xbf5ec7bd	-0.87023526
