ai/models/dqn/trained_models/dqn_2048_500.pth (torch, 78975 bytes, 6 tensors)

fc1.weight f4 [128, 16]
-0.0863534 -0.3096011 -0.009575103 0.19397138 -0.45012146 -0.29888073 0.018436372 -0.39837268
0.45849258 0.04406717 0.15569322 -0.18149588 -0.075387485 0.04347575 0.5957663 0.877662
0.8915361 0.3095348 -0.6295452 0.092329815 0.8306852 -0.3156741 -0.25458694 0.5716521
-0.9782412 0.55667156 -0.30794007 0.42239237 -0.07769704 -0.54600686 0.90283024 -0.5764283
-0.011549411 0.70823413 0.4820691 0.3402274 0.23972924 -0.31180167 0.22366996 0.20272341
0.41867894 0.07074623 -0.14552331 0.25206634 0.54560345 -0.15816274 -0.28102562 0.020838194
-0.08991706 -0.2230082 0.09563185 -0.40301248 0.22228104 0.016389541 0.74215275 -0.367636
0.34816107 0.08436659 -0.19265719 0.36793226 -0.13627651 -0.018751815 0.74360895 -0.4931567
0.054470677 0.13108854 0.51084816 0.19267453 -0.006628909 0.021345433 -0.13197139 0.52343667
-0.11762119 0.112335145 -0.25976217 0.4966144 0.11363984 0.24482203 0.074320726 0.34452775
-0.4377468 0.18610255 0.4666444 0.27716362 -0.47711393 0.23533583 -0.12959915 0.06422573
0.27894154 -0.09739007 0.1516898 0.45384023 0.4595038 -0.09491484 0.3827404 0.4338285
-0.5273772 0.1588468 0.35593545 -0.30194315 0.31132042 0.18819746 -0.1286507 0.5779732
-0.027307324 0.18011013 -0.2656948 0.20555615 0.2770595 0.12960863 0.5071999 -0.016089356
-0.12912354 0.4098486 -0.34093922 -0.11145543 -0.0028699834 -0.46406108 0.26330343 0.52560395
0.4404944 0.15851288 -0.051563866 0.3237574 -0.042256944 0.3500042 0.067837715 -0.19427449
0.100600645 0.10486564 0.5760607 0.34106466 0.36570626 -0.021034893 -0.12327696 0.146431
-0.013422576 0.0050335447 -0.050056607 0.26110592 -0.11352946 0.12817788 0.43349507 0.49763152
0.48352683 0.44814909 0.44518098 0.37130848 0.21671402 -0.22110824 0.12655848 0.3928756
0.34815237 0.08096403 0.09842597 0.52784675 0.6795739 -0.01334415 0.32872704 0.4657335
-0.46178713 0.16262962 0.36238512 0.5725891 0.5885654 -0.23257533 -0.28749022 0.3300278
-0.022820015 0.036719937 0.06987564 0.3755745 0.068362355 -0.33791864 -0.03890705 0.47709173
-0.3291908 -0.04005675 0.22220556 0.062121354 -0.45228007 -0.3932687 -0.28823122 -0.23883727
-0.025239823 -0.12826136 0.3541142 0.25578418 -0.2970564 -0.018308233 0.38760725 0.8691798
-0.5797916 0.36932415 0.012747713 0.30686715 -0.05580316 0.21606947 -0.19195643 0.20544578
0.41120672 -0.21870492 0.11931105 0.4622514 0.19113708 -0.26035285 0.2338942 0.56677973
0.314118 0.62812966 0.28044388 0.5420238 0.16777839 -0.19129287 0.081718445 0.19501634
0.5168438 -0.42976984 0.13098164 0.55327827 0.61992455 -0.1990247 0.28600276 0.65533954
0.3848328 0.04185896 0.44945928 0.4489907 0.2421912 -0.1702543 0.29677635 0.6177458
0.3022662 -0.48436424 0.074051596 0.0909015 0.061930373 0.07848284 0.098295905 0.5908787
0.24849759 0.531941 0.43700513 -0.12788744 0.02577574 -0.20380676 0.16775142 0.6241873
-0.08917477 0.13322747 0.127025 0.28573862 -0.16850096 -0.19762544 -0.096200496 0.5760779
00000000: 0dda b0bd 0984 9ebe e5e0 1cbc 6fa0 463e
00000010: 5276 e6be e506 99be e007 973c 81f7 cbbe
00000020: 8abf ea3e c77f 343d 0b6e 1f3e 0eda 39be
00000030: c164 9abd a113 323d 2484 183f 75ae 603f
00000040: b63b 643f 587b 9e3e e029 21bf 6a17 bd3d
00000050: c9a7 543f 09a0 a1be 3859 82be cb57 123f
00000060: 046e 7abf 0782 0e3f 52aa 9dbe d043 d83e
00000070: a01f 9fbd 1bc7 0bbf e21f 673f ce90 13bf
00000080: be39 3dbc d54e 353f c3d1 f63e 4932 ae3e
00000090: 957b 753e 78a4 9fbe bd09 653e ba96 4f3e
000000a0: 165d d63e 66e3 903d 1004 15be d70e 813e
000000b0: abac 0b3f 6af5 21be 97e2 8fbe dcb4 aa3c
000000c0: 7026 b8bd 435c 64be a2da c33d a757 cebe
000000d0: a49d 633e 5c43 863c b9fd 3d3f c93a bcbe
000000e0: 2b42 b23e 64c8 ac3d ed47 45be 9e61 bc3e
000000f0: 128c 0bbe 689d 99bc 285d 3e3f 097f fcbe
00000100: a51c 5f3d 133c 063e f2c6 023f 794c 453e
00000110: 5237 d9bb 9edc ae3c 8223 07be f2ff 053f
00000120: 61e3 f0bd f80f e63d 8cff 84be 3e44 fe3e
00000130: 01bc e83d a0b2 7a3e 7735 983d f165 b03e
00000140: 5920 e0be ab91 3e3e 04ec ee3e 64e8 8d3e
00000150: 4748 f4be e0fb 703e a4b5 04be c888 833d
00000160: 6dd1 8e3e 7274 c7bd 9254 1b3e bf5d e83e
00000170: 1544 eb3e b662 c2bd 8df6 c33e c51e de3e
00000180: 3102 07bf bca8 223e 2c3d b63e 4b98 9abe
00000190: 6465 9f3e d6b6 403e 02bd 03be 0df6 133f
000001a0: 9cb3 dfbc ca6e 383e 2609 88be 507d 523e
000001b0: beda 8d3e 20b8 043e dad7 013f d3cd 83bc
000001c0: f638 04be add7 d13e 968f aebe bf42 e4bd
000001d0: 5516 3cbb 6a99 edbe b5cf 863e fb8d 063f
000001e0: 7b88 e13e 3351 223e a234 53bd 88c3 a53e
000001f0: 9e15 2dbd c033 b33e 80ee 8a3d e4ef 46be
00000200: b607 ce3d ccc3 d63d b778 133f 07a0 ae3e
00000210: da3d bb3e 5e51 acbc a178 fcbd 02f2 153e
00000220: 5dea 5bbc 6ff0 a43b 2808 4dbd adaf 853e
00000230: 2282 e8bd 1041 033e 11f3 dd3e 8fc9 fe3e
00000240: d490 f73e cc73 e53e c3ee e33e 251c be3e
00000250: 48ea 5d3e 336a 62be 8c98 013e fe26 c93e
00000260: 0741 b23e 78d0 a53d 8e93 c93d f720 073f
00000270: 8ef8 2d3f 6ca1 5abc e94e a83e 9f74 ee3e
00000280: 5d6f ecbe 6188 263e 8b8a b93e 3395 123f
00000290: 39ac 163f 3a28 6ebe eb31 93be 67f9 a83e
000002a0: 0af1 babc a567 163d f61a 8f3d 4d4b c03e
000002b0: 9001 8c3d ac03 adbe 005d 1fbd 5e45 f43e
000002c0: b28b a8be 8c12 24bd db89 633e f672 7e3d
000002d0: 4191 e7be 845a c9be 0b93 93be c291 74be
000002e0: bfc3 cebc f256 03be 754e b53e 25f6 823e
000002f0: c717 98be 26fb 95bc 7574 c63e 9182 5e3f
00000300: 396d 14bf 0e18 bd3e c9db 503c b11d 9d3e
00000310: db91 64bd 5141 5d3e 3a90 44be 6160 523e
00000320: b089 d23e 2ff4 5fbe 5a59 f43d 37ac ec3e
00000330: 70b9 433e f84c 85be f681 6f3e 7a18 113f
00000340: 13d4 a03e 1bcd 203f 5796 8f3e 12c2 0a3f
00000350: 19ce 2b3e 47e2 43be 005c a73d 5db2 473e
00000360: e04f 043f cb0a dcbe 0d20 063e a5a3 0d3f
00000370: 60b3 1e3f 22cd 4bbe f46e 923e 55c4 273f
00000380: ce08 c53e 4d74 2b3d 871f e63e 1ce2 e53e
00000390: f800 783e 2557 2ebe 12f3 973e 9724 1e3f
000003a0: a3c2 9a3e 97fe f7be 5da8 973d 912a ba3d
000003b0: b4aa 7d3d 9cbb a03d 5d4f c93d d443 173f
000003c0: 2776 7e3e 492d 083f 23bf df3e edf4 02be
000003d0: a527 d33c b8b2 50be 07c7 2b3e bdca 1f3f
000003e0: 43a1 b6bd c86c 083e d712 023e 554c 923e
000003f0: 848b 2cbe 535e 4abe c404 c5bd d779 133f

fc1.bias f4 [128]
-3.4172215 -1.9086047 -1.2085797 -3.0027344 -2.3504338 -2.359275 -2.6027925 -2.2522125
-2.3845067 -0.51962256 -1.2610761 -2.5864472 -1.7659965 -0.055077303 -1.0194373 -1.7580345
-3.0742023 -0.42581022 -1.7195101 -2.995122 -2.1206732 0.06680668 2.2853692 -2.2834988
0.3203642 -1.0920398 -3.3395877 -0.23284343 -3.0060105 -1.8343742 -1.555982 -0.33004984
-2.114771 -2.5259814 -1.7945869 -2.4087794 -1.7135112 0.2581997 -2.3887908 -3.146269
-1.873552 -2.5269167 -0.72614264 -2.1729498 0.4636638 -1.7687942 -2.612427 -2.5077832
-2.378951 -2.708713 -2.7899535 -1.9371432 -3.187959 -2.9399064 -2.02885 -2.6665843
-2.0720074 -2.5174234 -1.5082029 -0.74761486 9.352119 -2.9379566 -2.0577319 -2.354037
0.2471948 -2.9196732 -2.3721206 -2.638953 -2.63627 -0.5330611 8.087347 -0.3704979
-1.9787614 -2.8759916 -2.2449064 -0.861502 -2.0876243 -2.299618 -2.5078838 0.0076005254
-1.3020978 -3.2452826 -2.0168602 -3.233552 0.31893346 -3.5876667 -2.7717807 -2.6993387
-2.4272308 -2.562408 -2.7017746 -1.5184361 -2.736654 -2.293192 1.9671304 -1.4809366
-1.3559301 -2.352888 -2.1365702 -1.7946826 -2.7025678 -0.33578554 0.17791533 -1.0481032
-2.438663 -2.2689664 -2.828745 -2.217717 8.551843 -2.5499995 -2.5508358 -2.4989333
-0.45740825 -2.8577375 8.742253 -2.8994896 -2.548445 -2.2674186 0.11822836 -2.161941
8.113084 -2.0906453 0.4495834 0.18254676 -3.269178 -2.4386134 -3.0819075 -0.43750748
00000000: c2b3 5ac0 294d f4bf bdb2 9abf cd2c 40c0
00000010: 826d 16c0 5dfe 16c0 2794 26c0 4024 10c0
00000020: c29b 18c0 fc05 05bf f16a a1bf 5a88 25c0
00000030: 2c0c e2bf bd98 61bd ec7c 82bf 4607 e1bf
00000040: bbbf 44c0 cc03 dabe e818 dcbf 14b0 3fc0
00000050: 1cb9 07c0 f1d1 883d 7d43 1240 d824 12c0
00000060: c706 a43e f6c7 8bbf cebb 55c0 826e 6ebe
00000070: 7a62 40c0 c6cc eabf 6b2a c7bf 4bfc a8be
00000080: 6858 07c0 aea9 21c0 06b5 e5bf 7129 1ac0
00000090: 5654 dbbf c032 843e f3e1 18c0 795c 49c0
000000a0: 8dd0 efbf 01b9 21c0 7ce4 39bf 9c11 0bc0
000000b0: 5765 ed3e d967 e2bf 0132 27c0 857f 20c0
000000c0: bc40 18c0 8e5b 2dc0 998e 32c0 4ff4 f7bf
000000d0: 8507 4cc0 6d27 3cc0 aed8 01c0 51a9 2ac0
000000e0: c59b 04c0 771d 21c0 cb0c c1bf b063 3fbf
000000f0: 48a2 1541 7b07 3cc0 e1b1 03c0 8ba8 16c0
00000100: a220 7d3e eddb 3ac0 d3d0 17c0 9be4 28c0
00000110: a6b8 28c0 b176 08bf c665 0141 e7b1 bdbe
00000120: 0e48 fdbf 3f10 38c0 8cac 0fc0 658b 5cbf
00000130: a39b 05c0 f12c 13c0 2b81 20c0 d40d f93b
00000140: 24ab a6bf b6b2 4fc0 3d14 01c0 84f2 4ec0
00000150: 3f4b a33e 559c 65c0 db64 31c0 f7c1 2cc0
00000160: c057 1bc0 7efe 23c0 e0e9 2cc0 1d5c c2bf
00000170: 5725 2fc0 a8c3 12c0 eeca fb3f 558f bdbf
00000180: 1e8f adbf b895 16c0 91bd 08c0 29b8 e5bf
00000190: dff6 2cc0 15ec abbe 702f 363e 3f28 86bf
000001a0: 0e13 1cc0 bf36 11c0 280a 35c0 13ef 0dc0
000001b0: 59d4 0841 3133 23c0 e540 23c0 86ee 1fc0
000001c0: 6a31 eabe 2ce5 36c0 45e0 0b41 3d91 39c0
000001d0: b919 23c0 631d 11c0 b621 f23d 3e5d 0ac0
000001e0: 31cf 0141 22cd 05c0 cc2f e63e 8aed 3a3e
000001f0: 363a 51c0 3e12 1cc0 f93d 45c0 fb00 e0be

fc2.weight f4 [128, 128]
-0.016012395 0.06120435 -0.014336782 -0.016952068 -0.07425107 -0.062085416 -0.087870546 -0.022543062
-0.10892287 0.011490644 0.06209755 0.046338096 -0.022135964 -0.035438992 -0.10831309 -0.092269875
-0.01755426 0.042278033 -0.067015104 -0.052418035 -0.07039301 -0.02332148 -0.073184095 -0.030746236
-0.044066798 -0.05273029 -0.034490783 -0.09649381 -0.018852994 -0.064167336 -0.03827191 -0.0148524735
-0.05391208 0.01640887 0.00889488 -0.05454928 -0.021227282 -0.07382029 0.023903314 -0.11094225
-0.11215562 -0.099914014 -0.017389731 -0.068041064 -0.07627528 0.009224448 -0.060420394 -0.0974658
0.043984283 -0.03603183 0.01744962 0.021706538 0.057199158 0.037826188 0.02827261 0.0049545253
0.06592275 0.035899796 0.050134726 -0.08197784 0.012447151 -0.04265384 -0.120627016 -0.025028165
0.029746264 -0.095933475 0.029602405 0.02225904 0.042127922 -0.026391875 0.0060438225 -0.039362725
0.005625198 0.05909803 0.003786878 -0.10488309 -0.04015104 0.00707829 -0.102498904 -0.06954696
-0.06470599 -0.07701357 -0.10762126 -0.075335905 -0.072598994 -0.11019971 -0.015010317 -0.05311912
-0.0622122 0.022545697 -0.037077144 -0.04665503 -0.05531028 -0.09038411 -0.005342126 0.0625709
-0.02590712 -0.0138791315 0.022019656 -0.11082164 -0.04023028 -0.0844489 0.04129629 -0.055518262
-0.020485401 -0.10325562 -0.01680265 -0.059117146 -0.111322306 -0.038855623 0.027742026 -0.036366723
-0.012286979 -0.022299219 0.070403144 0.05288804 -0.072418645 -0.0505678 0.016426448 -0.08450834
-0.071903706 -0.11325464 -0.11988921 -0.06650705 -0.012795593 -0.06377086 -4.869545e-05 -0.07832162
2.6457958 2.321964 0.20087527 1.8828017 0.41080636 0.38512805 0.6132478 0.55487174
0.55507666 0.37150612 0.2399751 1.542839 0.34331867 0.46049702 0.25743315 0.3104109
2.9241266 0.27034202 0.17739743 2.2632115 0.3155807 0.36941218 4.3204207 0.308649
3.4420602 0.43703243 3.2479784 2.295744 4.086111 4.15576 0.37701967 0.23982531
0.24691297 1.8282206 0.29716137 0.35991412 0.5642677 0.32064363 0.32454008 2.7579415
0.47908834 0.37726763 0.3020556 3.2655792 0.42557883 0.2826902 0.7363619 2.4088988
2.3533325 0.54352254 1.131716 2.1832328 2.0260234 3.4248676 0.118659176 2.933286
2.2414093 0.37760055 0.1886174 0.18159278 0.42961973 1.813727 0.42715526 3.4654267
0.32289642 3.1831043 0.4547051 2.3354576 1.0856513 0.29467884 0.18798655 2.7281308
4.1407104 0.48402068 0.1584143 0.23515297 2.846558 3.3309534 0.62833273 0.3999102
0.26377755 2.680826 2.1495826 3.0855439 0.42094654 4.7691526 3.4164128 1.1670148
3.108445 3.8798876 1.6114281 0.18524228 2.7377408 2.5439262 -0.83630055 0.35035765
0.30655137 2.6362815 0.30067775 0.2128887 0.51814985 0.4076165 0.53946185 0.32965323
0.39841646 0.4142901 2.4785388 0.30844912 0.6888308 3.7090685 2.4434671 1.9016663
0.47788057 2.5274677 0.16800018 3.2142146 0.3778859 0.47066525 3.7106016 3.158437
0.4649474 0.44711688 3.5687249 0.37600195 4.1490865 2.0649505 3.7395272 0.32991695
00000000: 6d2c 83bc 6ab1 7a3d d2e4 6abc 10df 8abc
00000010: f210 98bd 474d 7ebd 79f5 b3bd 3aac b8bc
00000020: f412 dfbd 4143 3c3c 005a 7e3d 04cd 3d3d
00000030: 7b56 b5bc 7a28 11bd 41d3 ddbd fdf7 bcbd
00000040: f4cd 8fbc bb2b 2d3d 373f 89bd 4bb4 56bd
00000050: 362a 90bd b00c bfbc 8be1 95bd 88df fbbc
00000060: 637f 34bd b7fb 57bd 3546 0dbd 8c9e c5bd
00000070: 9871 9abc 2a6a 83bd 02c3 1cbd ca57 73bc
00000080: ead2 5cbd e56b 863c d5bb 113c 116f 5fbd
00000090: d6e4 adbc 182f 97bd e2d0 c33c b135 e3bd
000000a0: d8b1 e5bd b89f ccbd e974 8ebc 1d59 8bbd
000000b0: 3736 9cbd 2422 173c 607b 77bd 269c c7bd
000000c0: dd28 343d 1d96 13bd 81f2 8e3c e9d1 b13c
000000d0: aa49 6a3d a2ef 1a3d f69b e73c 9259 a23b
000000e0: 8202 873d aa0b 133d 125a 4d3d ffe3 a7bd
000000f0: 23ef 4b3c cbb5 2ebd 4c0b f7bd de07 cdbc
00000100: 70ae f33c c578 c4bd be80 f23c 9758 b63c
00000110: 548e 2c3d c633 d8bc 420b c63b cf3a 21bd
00000120: 9553 b83b c710 723d 452d 783b f2cc d6bd
00000130: 6b75 24bd 00f1 e73b f2ea d1bd a36e 8ebd
00000140: 9384 84bd 4ab9 9dbd 8968 dcbd b649 9abd
00000150: c8ae 94bd 63b0 e1bd d5ed 75bc 6f93 59bd
00000160: 38d2 7ebd c1b1 b83c 34de 17bd 5819 3fbd
00000170: 088d 62bd 4e1b b9bd 000d afbb 2c25 803d
00000180: 2b3b d4bc 4c65 63bc 9162 b43c 75f6 e2bd
00000190: 82c8 24bd 8bf3 acbd 4c26 293d 1e67 63bd
000001a0: 00d1 a7bc af77 d3bd b6a5 89bc d224 72bd
000001b0: f3fc e3bd 1327 1fbd 3f43 e33c 46f5 14bd
000001c0: 534f 49bc daac b6bc 862f 903d 21a1 583d
000001d0: 3a50 94bd 2e20 4fbd c290 863c b512 adbd
000001e0: 4042 93bd 0cf2 e7bd 7988 f5bd d934 88bd
000001f0: 9ba4 51bc 4c9a 82bd 573e 4cb8 1667 a0bd
00000200: b854 2940 0f9b 1440 3fb2 4d3e a5ff f03f
00000210: 3655 d23e 812f c53e cffd 1c3f 130c 0e3f
00000220: 8119 0e3f 0d36 be3e 08bc 753e c07b c53f
00000230: 77c7 af3e 44c6 eb3e 47ce 833e 2dee 9e3e
00000240: e424 3b40 456a 8a3e aca7 353e 75d8 1040
00000250: cb93 a13e 9823 bd3e e340 8a40 3e07 9e3e
00000260: b74a 5c40 b7c2 df3e e1de 4f40 78ed 1240
00000270: 6cc1 8240 fcfb 8440 b908 c13e c494 753e
00000280: c1d6 7c3e 2203 ea3f 8925 983e aa46 b83e
00000290: d973 103f 672b a43e 1e2a a63e 1d82 3040
000002a0: 114b f53e 3929 c13e 08a7 9a3e 40ff 5040
000002b0: 78e5 d93e c5bc 903e 3782 3c3f 662b 1a40
000002c0: 009d 1640 4b24 0b3f 12dc 903f 16ba 0b40
000002d0: 5eaa 0140 0831 5b40 9503 f33d f5ba 3b40
000002e0: 4073 0f40 dc54 c13e eb24 413e 75f3 393e
000002f0: 1ef7 db3e 3528 e83f 18b4 da3e 8dc9 5d40
00000300: ae52 a53e fbb7 4b40 1bcf e83e 2378 1540
00000310: 9ff6 8a3f 25e0 963e 8c7f 403e b299 2e40
00000320: b380 8440 8fd1 f73e 5c37 223e f1cb 703e
00000330: 022e 3640 572e 5540 6ada 203f 08c1 cc3e
00000340: da0d 873e a792 2b40 c392 0940 8d79 4540
00000350: 4e86 d73e e69c 9840 82a6 5a40 be60 953f
00000360: c3f0 4640 1450 7840 4743 ce3f 27b0 3d3e
00000370: 2537 2f40 b0cf 2240 cb17 56bf 1462 b33e
00000380: 4df4 9c3e d6b8 2840 6ff2 993e 7fff 593e
00000390: 78a5 043f 1cb3 d03e 2c1a 0a3f 4fc8 a83e
000003a0: 3efd cb3e d51d d43e 61a0 1e40 0bed 9d3e
000003b0: 3757 303f 6161 6d40 c461 1c40 cd69 f33f
000003c0: c3ac f43e 08c2 2140 3d08 2c3e b1b5 4d40
000003d0: 437a c13e 09fb f03e 7f7a 6d40 d523 4a40
000003e0: 960d ee3e 81ec e43e fd65 6440 5483 c03e
000003f0: 51c5 8440 2628 0440 6a54 6f40 e0ea a83e

fc2.bias f4 [128]
-0.06452697 0.31900284 -0.086474404 0.24838164 0.044876896 -0.061406147 0.070169814 -0.030176919
-1.4387676 0.33311528 0.63709325 0.32302874 0.18956977 -0.03591244 -2.457438 -3.5877764
0.29730454 0.65364283 -0.030972516 0.8017036 -0.038717657 0.8515285 -0.71475506 -0.1001228
-0.13199614 -1.3217084 0.9363964 2.65577 0.9268091 0.0954662 0.36768135 1.0650798
0.89001 0.80900365 4.35384 -0.3728432 -2.8473456 -1.632662 0.50621146 -0.04456203
0.9328481 -0.07779615 1.0973397 1.0281204 -1.1356342 0.5129483 0.8002387 0.049293306
-4.061781 -0.038486917 -0.05581227 3.6436174 0.05946777 0.18188904 0.30307195 0.21397321
-0.004416913 -0.36494932 -1.7278366 0.16967909 0.43883574 -0.4713193 -3.244936 -2.827503
-0.06424834 0.27182123 -2.3435822 0.5374804 0.037326206 2.7216287 -0.056415092 -1.6589929
-0.025337117 0.5978902 1.078392 -0.085928045 2.3992639 0.07706782 -3.6559675 -0.0595001
0.055684038 -0.033556532 0.7174506 0.2843083 3.315445 -4.062419 3.0526059 0.3304537
0.5007094 1.0330496 -0.021738268 -0.02942113 -3.0367537 0.36427182 0.5541505 -0.3411078
-0.056017276 0.6511431 0.48926628 0.4597259 -0.09207953 3.1814747 -0.84699947 -0.053030163
0.20919499 0.6111935 -0.026189096 -0.07109125 0.8380254 2.9042277 0.94635916 1.1151258
-0.08342159 -0.73127085 -3.7058933 0.14008835 0.63979584 0.63934606 0.30977505 0.67925596
0.711318 -0.031232048 -0.07142787 0.019319007 0.5050434 0.33675343 -2.4636831 0.6078188
00000000: b726 84bd 5754 a33e 7e19 b1bd c257 7e3e
00000010: d6d0 373d 0385 7bbd 31b5 8f3d 9635 f7bc
00000020: 8929 b8bf 168e aa3e 8b18 233f 0664 a53e
00000030: 941e 423e ec18 13bd aa46 1dc0 219e 65c0
00000040: 4d38 983e 2355 273f 13ba fdbc 723c 4d3f
00000050: 6896 1ebd c6fd 593f 30fa 36bf 2f0d cdbd
00000060: ff29 07be be2d a9bf adb7 6f3f 23f8 2940
00000070: 5c43 6d3f c883 c33d bb40 bc3e 8954 883f
00000080: b2d7 633f dd1a 4f3f a852 8b40 4ee5 bebe
00000090: e93a 36c0 12fb d0bf 1397 013f ad86 36bd
000000a0: 22cf 6e3f 9753 9fbd a175 8c3f 7399 833f
000000b0: 765c 91bf 9450 033f 72dc 4c3f c7e7 493d
000000c0: 1cfa 81c0 75a4 1dbd 689b 64bd 0731 6940
000000d0: 7a94 733d 1f41 3a3e 3f2c 9b3e cb1b 5b3e
000000e0: c0bb 90bb a3da babe c029 ddbf 5bc0 2d3e
000000f0: 14af e03e c350 f1be 08ad 4fc0 cff5 34c0
00000100: a294 83bd 272c 8b3e 40fd 15c0 5198 093f
00000110: 5de3 183d 2a2f 2e40 8313 67bd e159 d4bf
00000120: c98f cfbc 550f 193f c008 8a3f 0bfb afbd
00000130: 8a8d 1940 bcd5 9d3d 5ffb 69c0 60b6 73bd
00000140: f214 643d 9372 09bd d8aa 373f dc90 913e
00000150: 4030 5440 56ff 81c0 e55d 4340 3a31 a93e
00000160: 7e2e 003f f83a 843f 7414 b2bc 9504 f1bc
00000170: 2c5a 42c0 d681 ba3e cfdc 0d3f aea5 aebe
00000180: 5f72 65bd 50b1 263f 1c81 fa3e 3161 eb3e
00000190: 3194 bcbd 489d 4b40 f5d4 58bf 2836 59bd
000001a0: 3637 563e 2d77 1c3f 848a d6bc 4a98 91bd
000001b0: d588 563f dede 3940 9844 723f 71bc 8e3f
000001c0: f0d8 aabd 9134 3bbf 5b2d 6dc0 5273 0f3e
000001d0: a9c9 233f 2fac 233f d69a 9e3e b8e3 2d3f
000001e0: f018 363f 5ada ffbc c648 92bd e542 9e3c
000001f0: 864a 013f f26a ac3e fcac 1dc0 039a 1b3f

fc3.weight f4 [4, 128]
0.039154146 1.1179503 -0.046936437 1.2713524 0.04443676 -0.016331036 -0.04173548 -0.034228098
0.9997316 1.1261019 1.0447869 0.91272527 1.0152819 1.0525149 1.2281996 2.8073535
1.1071362 1.103906 -0.048197545 1.1133388 9.082242e-06 1.0531657 1.1901879 1.0947675
1.0109141 0.95507133 1.0947207 1.0670891 0.9252518 0.9817215 1.1563 1.0227667
1.1025497 0.9379424 -0.999303 1.0097206 2.5286927 1.0937861 0.92578393 -0.033810202
1.0516258 0.035776153 1.0469617 1.0971247 1.1400325 1.0454025 1.1271865 -0.0037994592
3.020331 -0.04368821 -0.053361755 3.8352833 0.010974795 1.0693455 1.1246417 0.95207703
0.06468279 0.9721808 1.2118648 1.0898086 1.1442819 1.0327818 1.6826307 1.8621329
1.0640858 1.1287453 1.5054705 1.077271 0.0761324 2.6819618 1.1458076 1.0705345
-0.06553189 1.0760034 1.0948282 0.036058735 1.8141214 0.9955172 2.4550247 -0.019373748
-0.031095784 -0.02523991 1.0359843 0.8943457 3.7186298 3.3739133 3.5616162 0.9794804
0.9413057 1.0816143 0.0023697775 -0.02078396 1.5959874 0.9336194 1.1422507 0.9445001
0.029655052 0.96622163 1.0994639 1.1157851 -0.055675816 4.0578227 1.0487388 -0.04791708
0.9482093 0.946177 0.084430434 -0.07239575 1.0831432 1.1253533 0.9353561 1.0845573
-0.06346283 1.1230692 2.5424247 0.92189395 0.8927292 1.132639 1.0226353 1.1476324
0.9790451 0.026837794 -0.0077676466 0.012056587 1.143877 0.98845685 2.2012553 1.0486794
-0.00044955686 0.72738 0.012494296 0.8129798 -0.052985292 -0.05537898 -0.062489934 -0.009227361
0.7528858 0.7230417 0.8259459 0.82682943 0.71453327 0.857932 1.5677519 3.3541548
0.83890265 0.8652925 0.046200067 0.92174757 -0.03909503 0.93230504 0.5770571 0.6819529
0.6764497 0.76016515 0.9853834 1.9934758 0.99233043 0.8006608 0.67190605 1.0656781
0.9951256 0.9863382 5.643116 0.6682339 3.452801 0.62963223 0.9450291 0.013503729
0.9838285 -0.018191801 1.0448002 0.9974875 0.6434694 0.81991875 0.87474 -0.009181921
3.5155723 -0.0021938498 0.0021813286 5.279295 0.014443979 0.73051953 0.7355059 0.7362496
-0.0053596646 0.58631355 0.92926973 0.71019936 0.7288348 0.5254918 2.5057428 2.3848429
0.66528755 0.8008422 1.4364768 0.84370273 0.006599156 3.297996 0.6881436 0.5452393
-0.0032931136 0.82655597 1.0256878 -0.025357269 1.6210834 0.682691 3.530859 0.07857502
-0.06423412 0.0028696957 0.8505344 0.8582375 5.701965 3.8322783 4.735809 0.88409597
0.9257749 0.99871767 -0.011801373 -0.047912717 2.2034392 0.85422933 0.80271286 0.8160934
-0.022974415 0.94682866 0.8822441 0.7307963 -0.05644033 5.008881 0.5942693 0.021877863
0.7033181 1.0150855 0.009699531 0.0075520314 0.9452385 1.5062579 1.0311227 1.0380642
0.029136723 0.5208743 3.5550756 0.7680395 0.9487024 0.8022922 0.8496098 0.8215028
0.9520219 0.054301627 -0.033679403 0.03678562 0.7333137 0.86808085 3.4074774 0.96918726
00000000: 1960 203d ff18 8f3f 6c40 40bd adbb a23f
00000010: 5203 363d aac8 85bc d3f2 2abd c332 0cbd
00000020: 69ee 7f3f 1b24 903f 94bb 853f 5da8 693f
00000030: c2f4 813f cfb8 863f a535 9d3f aeab 3340
00000040: a4b6 8d3f cb4c 8d3f ca6a 45bd e381 8e3f
00000050: ef5f 1837 22ce 863f 1458 983f 5721 8c3f
00000060: a265 813f 8e7f 743f cf1f 8c3f 6096 883f
00000070: 4ddd 6c3f 1a52 7b3f a301 943f 05ea 823f
00000080: 5920 8d3f fe1c 703f 52d2 7fbf 863e 813f
00000090: 1ad6 2140 2f01 8c3f 2d00 6d3f 917c 0abd
000000a0: ad9b 863f 048a 123d d702 863f 956e 8c3f
000000b0: 96ec 913f c0cf 853f a647 903f 5900 79bb
000000c0: 1a4d 4140 69f2 32bd db91 5abd 4875 7540
000000d0: a0cf 333c 50e0 883f 42f4 8f3f 52bb 733f
000000e0: 6978 843d d7e0 783f 631e 9b3f d97e 8b3f
000000f0: d477 923f 3232 843f 7160 d73f 5f5a ee3f
00000100: f733 883f ba7a 903f 42b3 c03f 04e4 893f
00000110: 4eeb 9b3d 43a5 2b40 d3a9 923f 4607 893f
00000120: 9535 86bd 7bba 893f 5523 8c3f 53b2 133d
00000130: 2135 e83f 37da 7e3f 201f 1d40 b2b5 9ebc
00000140: 96bc febc eec3 cebc 229b 843f d7f3 643f
00000150: 08fe 6d40 32ee 5740 85f1 6340 3abf 7a3f
00000160: 69f9 703f 5672 8a3f 454e 1b3b 2043 aabc
00000170: 5149 cc3f ae01 6f3f 4535 923f c2ca 713f
00000180: 27ef f23c 4d5a 773f 3cbb 8c3f 0cd2 8e3f
00000190: 530c 64bd afd9 8140 133d 863f b344 44bd
000001a0: d8bd 723f a838 723f dde9 ac3d 3944 94bd
000001b0: 70a4 8a3f 940b 903f 7f73 6f3f c6d2 8a3f
000001c0: cdf8 81bd bbc0 8f3f 16b7 2240 3e01 6c3f
000001d0: e789 643f 51fa 903f b7e5 823f 9ee5 923f
000001e0: b3a2 7a3f efda db3c be87 febb fe88 453c
000001f0: 906a 923f 820b 7d3f 5ee1 0c40 203b 863f
00000200: 80b2 ebb9 9335 3a3f e0b4 4c3c 721f 503f
00000210: 1b07 59bd 12d5 62bd 72f5 7fbd 5b2e 17bc
00000220: 20bd 403f 4319 393f 3171 533f 18ab 533f
00000230: a7eb 363f 6ea1 5b3f 18ac c83f 79aa 5640
00000240: 53c2 563f cf83 5d3f 483c 3d3d a6f7 6b3f
00000250: 1c22 20bd 8bab 6e3f 04ba 133f 7794 2e3f
00000260: cf2b 2d3f 2f9a 423f 1642 7c3f 372a ff3f
00000270: 5e09 7e3f 1bf8 4c3f 0902 2c3f 2468 883f
00000280: 8dc0 7e3f a980 7c3f 6894 b440 6011 2b3f
00000290: b1fa 5c40 942f 213f 6ded 713f bf3e 5d3c
000002a0: 2fdc 7b3f f906 95bc 03bc 853f 575b 7f3f
000002b0: 69ba 243f 32e6 513f f6ee 5f3f c56f 16bc
000002c0: 23ff 6040 b1c6 0fbb 9ff4 0e3b fcef a840
000002d0: 70a6 6c3c 5403 3b3f 1d4a 3c3f db7a 3c3f
000002e0: 20a0 afbb a518 163f 9fe4 6d3f a0cf 353f
000002f0: eb94 3a3f a186 063f 175e 2040 44a1 1840
00000300: 4950 2a3f ff03 4d3f 79de b73f e7fc 573f
00000310: bc3d d83b 5e12 5340 2e2a 303f ce94 0b3f
00000320: 47d1 57bb 2c99 533f bd49 833f 0cba cfbc
00000330: a97f cf3f d6c4 2e3f 98f9 6140 f1eb a03d
00000340: 2e8d 83bd 8111 3c3b 9fbc 593f 74b5 5b3f
00000350: 7f76 b640 0c44 7540 bf8b 9740 1d54 623f
00000360: 95ff 6c3f f6ab 7f3f 8c5a 41bc 2040 44bd
00000370: 2605 0d40 c6ae 5a3f 977e 4d3f 7feb 503f
00000380: d734 bcbc 5d63 723f c0da 613f 7715 3b3f
00000390: fa2d 67bd c148 a040 0822 183f 3439 b33c
000003a0: a80c 343f 52ee 813f c8ea 1e3c 0877 f73b
000003b0: 26fb 713f 0fcd c03f d4fb 833f 4adf 843f
000003c0: 23b0 ee3c 0558 053f 5c86 6340 3d9e 443f
000003d0: 29de 723f 0663 4d3f 0780 593f 024e 523f
000003e0: b5b7 733f 626b 5e3d 6af3 09bd 85ac 163d
000003f0: 72ba 3b3f 8c3a 5e3f 1c14 5a40 a81c 783f

fc3.bias f4 [4]
1.0700936 4.993818 -1.2556845 -0.57185024
00000000: d4f8 883f 5bcd 9f40 45ba a0bf c764 12bf
