ai/models/dqn/trained_models/dqn_2048_200.pth (torch, 78975 bytes, 6 tensors)

fc1.weight f4 [128, 16]
0	0xbf001b6e	-0.50041854
1	0x3ec5d8b8	0.38641906
2	0x3f0a17b5	0.53942424
3	0x3dbd5867	0.09245377
4	0x3eac6b93	0.33675823
5	0xbe142c71	-0.14470078
6	0x3d4cb715	0.049979288
7	0xbd4480cb	-0.04797439
8	0xbe272d29	-0.16325821
9	0x3ef40750	0.4766183
10	0x3ea0b066	0.3138458
11	0x3d4b0ef3	0.049574804
12	0xbe95130e	-0.291161
13	0x3ca5be24	0.020232268
14	0xbf0662c5	-0.5249446
15	0x3e1725ef	0.14760564
16	0xbd6a6035	-0.057220656
17	0x3ea69ca2	0.32541376
18	0x3c89dab6	0.016827922
19	0x3edfd368	0.43715978
20	0xbde5146c	-0.11185536
21	0x3e95d3f9	0.29263285
22	0xbdbcd5c9	-0.09220464
23	0x3dd773e9	0.10520155
24	0xbd2f7169	-0.042832766
25	0xbe86339b	-0.26211247
26	0x3e8c18cf	0.27362677
27	0x3d9ad7eb	0.07560714
28	0x3e525e4a	0.20543781
29	0x3f080686	0.53134954
30	0x3f0dbc7c	0.5536573
31	0x3ed98c86	0.42490023
32	0x3d3ec4af	0.04657429
33	0x3e03fc97	0.12889324
34	0xbee2a18f	-0.44263884
35	0xbd9538a6	-0.072861955
36	0x3d89b550	0.06724036
37	0x3ef9a62d	0.48759595
38	0xbea053ec	-0.31314027
39	0xbc08b940	-0.008344948
40	0x3c16ff27	0.0092161065
41	0x3ecb3707	0.3969042
42	0x3f21959c	0.6311891
43	0xbe171237	-0.14753042
44	0xbeb14648	-0.34623933
45	0x3e869d5d	0.26291934
46	0xbcf159bf	-0.02946174
47	0xbd6d19d0	-0.057885945
48	0x3e3f1175	0.18659003
49	0xbe9c2fba	-0.30505162
50	0x3dd223b7	0.10260718
51	0x3ed17ad7	0.40914032
52	0xbea298a8	-0.31757092
53	0x3e30183d	0.17196746
54	0xbe174222	-0.14771321
55	0xbede9fe1	-0.43481353
56	0x3e88a212	0.2668615
57	0xbe080f48	-0.1328708
58	0x3e7a99a6	0.24472675
59	0x3e93a50a	0.28836852
60	0xb8a74c00	-7.977337e-05
61	0x3e8f95cd	0.28043976
62	0x3ed1fbce	0.41012424
63	0xbe0de198	-0.13855588
64	0x3e8dee79	0.27721003
65	0x3b0b1772	0.0021223691
66	0x3d88ec60	0.0668571
67	0x3ed9e1b5	0.42555013
68	0x3e28991e	0.1646466
69	0x3d17ac1c	0.03702937
70	0x3e42512c	0.18976277
71	0x3f096559	0.5367027
72	0x3dc47836	0.09593241
73	0x3ce607c2	0.028079871
74	0xbd2d5bdf	-0.042323943
75	0x3d851b73	0.06499376
76	0x3ed270d3	0.41101703
77	0x3d2f0007	0.042724635
78	0x3ec77876	0.38959092
79	0x3da44b49	0.08022172
80	0x3e41a508	0.1891061
81	0x3e3acfe8	0.18243372
82	0x3e229631	0.15877606
83	0x3df597d0	0.119918466
84	0x3e2d6a71	0.16935135
85	0x3e0f9910	0.14023232
86	0x3d7aa7e4	0.06119527
87	0x3df29357	0.11844509
88	0x3e86fc26	0.2636425
89	0x3e3faf4c	0.18719214
90	0x3dea1411	0.114296086
91	0x3ec0675a	0.3757885
92	0x3ed68aa5	0.41902652
93	0x3cda14d2	0.026621256
94	0x3e9bf492	0.3046003
95	0x3e262fe4	0.16229206
96	0xbdb0166b	-0.08598026
97	0x3e7d98e2	0.24765351
98	0xbef7aa46	-0.48372096
99	0x3e42fba6	0.19041309
100	0x3e55fa95	0.2089637
101	0x3dab016a	0.08349879
102	0x3e645a94	0.22300178
103	0xb9a2e9d6	-0.0003107327
104	0xbbe1d949	-0.0068923575
105	0x3e187236	0.14887318
106	0x3e06ef0e	0.1317713
107	0xbe9d3626	-0.30705374
108	0xbd898b28	-0.06715995
109	0xbba5a574	-0.005055124
110	0x3e9fa43e	0.31179994
111	0x3dc7e391	0.09760202
112	0x3ed9a0bc	0.42505443
113	0x3f1cb897	0.6121916
114	0xbcc75fec	-0.024337731
115	0xbf3c13d1	-0.7346774
116	0x3e1751a5	0.14777239
117	0x3f4aed0d	0.7926796
118	0xbcb86a0d	-0.022511506
119	0x3f14b996	0.5809568
120	0xbdd500b9	-0.104005285
121	0xbf13523f	-0.5754737
122	0xbe2386fa	-0.15969458
123	0xbe829042	-0.25500685
124	0xbbc5b224	-0.006033199
125	0x3d03f1de	0.032213084
126	0xbcbf6de1	-0.023367824
127	0xbd3c2f6a	-0.045943655
128	0x3d9ced1c	0.076624125
129	0xbccfae36	-0.025351625
130	0x3e374497	0.17897259
131	0x3ea961ed	0.33082524
132	0x3e96b15c	0.2943219
133	0x3a9a0e1c	0.0011753472
134	0x3e0e1235	0.13874133
135	0xbead948d	-0.33902398
136	0x3e49c361	0.19703437
137	0xbeb601d7	-0.3554828
138	0x3ded89ae	0.11598526
139	0x3eb42cf5	0.3519055
140	0x3ea6ee10	0.32603502
141	0x3e94b1e8	0.29041982
142	0xbe4297bd	-0.19003196
143	0xbd18e873	-0.037331056
144	0x3e059179	0.13043775
145	0x3dac67a2	0.08418204
146	0x3e70fcc0	0.23533916
147	0x3e927ff6	0.2861325
148	0x3deaf6a6	0.11472826
149	0x3d93539e	0.07193683
150	0xbe23bfd7	-0.1599115
151	0x3ca86c41	0.020559432
152	0x3e46eb28	0.19425642
153	0x3da3ac60	0.07991862
154	0x3df7fa63	0.12108304
155	0xbc7ecd5c	-0.015551891
156	0x3eac025b	0.33595547
157	0x3f0a3921	0.5399342
158	0x3e061918	0.1309551
159	0xbd7609fe	-0.060068123
160	0x3ef60f0b	0.48058352
161	0x3e41f055	0.18939336
162	0xbe22ba06	-0.15891275
163	0x3e913a86	0.28364962
164	0x3d0196b4	0.031637862
165	0x3e6ea885	0.23306473
166	0x3e0e1324	0.13874489
167	0x3e8e1bf2	0.27755696
168	0xbdb5a2f1	-0.08868969
169	0x3e55c918	0.20877492
170	0x3e439776	0.19100747
171	0xbe3d3dde	-0.18480632
172	0x3f0e401c	0.55566573
173	0x3ead796a	0.33881694
174	0x3e6f9d56	0.23399863
175	0x3c4a1817	0.012334845
176	0x3d921843	0.07133534
177	0x3e875b28	0.26436734
178	0x3e9c7916	0.3056113
179	0x3e5ef58d	0.21773358
180	0x3e8167e1	0.25274566
181	0x3e82514b	0.25452647
182	0x3e507a8c	0.20359248
183	0x3e84feb8	0.25975585
184	0x3e813bd7	0.25240967
185	0x3ddb424b	0.10706004
186	0x3ec3bd8d	0.38230553
187	0x3e710898	0.23538435
188	0x3ecc3e9f	0.39891526
189	0x3eb32f6a	0.34997112
190	0x3d0e6615	0.03476532
191	0x3d7401b9	0.059571955
192	0x3e4d6e51	0.20061614
193	0x3e91aa6f	0.28450343
194	0x3eb3b375	0.35097852
195	0x3db26dbb	0.08712336
196	0xbbcbc985	-0.0062190914
197	0x3c8f5093	0.017494475
198	0x3e8ff7eb	0.28118834
199	0x3ddc637f	0.10761165
200	0x3e623c51	0.22093321
201	0x3e6c13a7	0.23054372
202	0x3bf91aa5	0.007602053
203	0xbde0f2c8	-0.10983807
204	0xbe6ba761	-0.23013069
205	0x3e874ca9	0.26425675
206	0x3ee2fffd	0.4433593
207	0xbe3fc86c	-0.18728799
208	0xbe47e928	-0.19522536
209	0x3eb7ca01	0.35896304
210	0xbdb7474a	-0.08949144
211	0x3e836add	0.25667468
212	0x3c9f3dc4	0.019438632
213	0x3f14d9b9	0.5814472
214	0x3ebcb2d0	0.36855173
215	0xbf0403f5	-0.5156854
216	0x3dce26ae	0.10065971
217	0x3e082367	0.13294755
218	0x3ebf9533	0.37418517
219	0xbf0d2921	-0.5514088
220	0xbcf0bdb9	-0.029387342
221	0xbdef114f	-0.11673223
222	0xbef94419	-0.48684767
223	0x3e8588b0	0.26080847
224	0xbe5dd1f8	-0.21662128
225	0xbf0640b3	-0.52442473
226	0xbd2850ba	-0.04109261
227	0x3c392b07	0.011301762
228	0x3e828707	0.25493643
229	0x3f05828a	0.5215231
230	0xbd5c4777	-0.05377909
231	0x3ec4b72f	0.38421008
232	0xbf06d035	-0.5266145
233	0x3f04e788	0.5191579
234	0xbe3e099e	-0.18558356
235	0x3f1b7c6a	0.60736716
236	0xbde31842	-0.11088611
237	0xbdfa7ba9	-0.122306176
238	0xbd545f89	-0.051848922
239	0xbe743b55	-0.23850758
240	0x3edf6c5d	0.43637362
241	0x3f013e3e	0.504856
242	0x3f6a604f	0.91553205
243	0x3f16f021	0.5896016
244	0x3e9c88e5	0.30573192
245	0xbe82568d	-0.25456658
246	0xbf25fcbb	-0.6483876
247	0x3d0c914a	0.034318246
248	0x3e900725	0.2813045
249	0xbe73cd91	-0.23808886
250	0xbc6bc0bf	-0.014389216
251	0x3f026c9a	0.5094696
252	0x3f1333b9	0.575008
253	0x3fa47949	1.2849513
254	0x3f690781	0.91027075
255	0x3f89ba2c	1.075994

fc1.bias f4 [128]
0	0xc009d8b4	-2.1538515
1	0xbfc12032	-1.508795
2	0xc019259b	-2.3929203
3	0xbff696d3	-1.9264778
4	0x40257627	2.5853364
5	0xbfeb5adc	-1.8387103
6	0xbfecea7a	-1.8509057
7	0xc0213b1f	-2.5192335
8	0xbfeaf0ef	-1.8354777
9	0xbfd1f3ae	-1.640249
10	0x4016858b	2.3519008
11	0xbffb8e3f	-1.9652785
12	0xc009c4d4	-2.1526384
13	0xbff0a95a	-1.8801682
14	0xc021f0df	-2.5303266
15	0x3f80d125	1.0063826
16	0xc0087119	-2.131903
17	0xbfcf67a5	-1.6203505
18	0xc00c1771	-2.1889307
19	0xc007c01d	-2.1211007
20	0x4032be36	2.7928596
21	0xbffc4533	-1.9708618
22	0xbfc371b2	-1.5269072
23	0xbfdf3a1a	-1.7439606
24	0xbffdc267	-1.9824952
25	0xc0100d6b	-2.250819
26	0x402fb773	2.7455719
27	0x402b62b8	2.6779003
28	0xbfa3f1e7	-1.2808198
29	0xbfb89a73	-1.4422134
30	0xc00e46b1	-2.2230647
31	0xbffa849c	-1.9571719
32	0xbff37e58	-1.9022932
33	0xc003eba8	-2.0612583
34	0x40237993	2.5542953
35	0xc007e6f7	-2.123472
36	0xc0031ac9	-2.0485098
37	0xbff4601e	-1.9091833
38	0xbfdf07e2	-1.7424281
39	0xbfea8a80	-1.8323517
40	0xbfbd227d	-1.477615
41	0xc0001d3b	-2.001784
42	0xbffb6bdf	-1.9642295
43	0xc00446f1	-2.06683
44	0xbfd048be	-1.6272199
45	0xc0008683	-2.00821
46	0xbfe514dc	-1.7896991
47	0xbffda026	-1.9814498
48	0xbff47987	-1.9099587
49	0xc009a814	-2.1508837
50	0xbff33132	-1.8999388
51	0xc004822a	-2.0704446
52	0xbfd8d276	-1.6939228
53	0xbfee252f	-1.8605098
54	0xc0017fff	-2.0234373
55	0xbfe639e9	-1.7986423
56	0xc02c7875	-2.694852
57	0xbfd47a7d	-1.659988
58	0xbfec8ecf	-1.8481082
59	0xc00c174e	-2.1889224
60	0xbff53d42	-1.9159319
61	0xbfcf6057	-1.6201276
62	0xc012b5a5	-2.2923367
63	0xbfe890ea	-1.8169224
64	0xbfdf1e60	-1.7431145
65	0xbfde0570	-1.7345409
66	0xbfddc167	-1.7324647
67	0xc0096c7a	-2.147246
68	0xc00d7aeb	-2.2106273
69	0xbffc35f1	-1.9703962
70	0xbfea5bc8	-1.830926
71	0xc0137ea3	-2.3046043
72	0xbff10d83	-1.8832248
73	0xc00067da	-2.0063386
74	0xc005aea8	-2.0887852
75	0xc00b9811	-2.1811564
76	0xc007e8f1	-2.1235926
77	0xbfef2d26	-1.8685653
78	0xbffaf343	-1.9605488
79	0xbfe199d4	-1.762507
80	0xc0043451	-2.0656931
81	0xbfeca5f0	-1.848814
82	0xc00928e3	-2.1431205
83	0xbffb77cd	-1.9645935
84	0x40364331	2.847851
85	0xc00b8cbd	-2.180465
86	0xbfe39775	-1.7780596
87	0xbfdbdd89	-1.7176982
88	0xc005a471	-2.0881617
89	0xc001c384	-2.0275583
90	0xbff50e19	-1.9144927
91	0xc01380fa	-2.304747
92	0xbfe1993d	-1.762489
93	0xbfea993d	-1.8328015
94	0xc016a3b7	-2.3537424
95	0xbe9d06b9	-0.3066919
96	0xc00fca10	-2.246708
97	0xc00334f1	-2.0501063
98	0xc00c5691	-2.1927836
99	0xbf242815	-0.6412366
100	0xc0018f31	-2.0243647
101	0xc009562b	-2.1458843
102	0xbff0df62	-1.8818171
103	0xbff0fb64	-1.8826718
104	0xbff841b8	-1.9395056
105	0xc008f3d2	-2.1398816
106	0xc018369f	-2.3783338
107	0xbff25c93	-1.8934501
108	0xc003eff9	-2.0615218
109	0xbfbf0699	-1.4923888
110	0xbfea3017	-1.8295926
111	0xc0091341	-2.1418002
112	0xc007ead6	-2.1237082
113	0xbfde809d	-1.7383
114	0xc008395f	-2.1285017
115	0xbfdb7be4	-1.7147183
116	0xbfc7b239	-1.5601264
117	0x4022b42c	2.5422468
118	0x4026c815	2.605962
119	0xbfed2924	-1.852818
120	0xc00239e4	-2.0347834
121	0xbfeb729c	-1.8394351
122	0xc003f455	-2.0617878
123	0xbfff4db0	-1.9945583
124	0xbfb0d539	-1.381507
125	0xc0147e8b	-2.3202236
126	0xc0040ca3	-2.0632713
127	0xbfcb021a	-1.5860016

fc2.weight f4 [128, 128]
0	0x3f95acf7	1.169341
1	0x3ef6a6c3	0.48174104
2	0x3fdd96b4	1.7311616
3	0x3f8584c1	1.0431138
4	0xbedb3996	-0.42817372
5	0x3edd92f1	0.4327617
6	0x3f026820	0.5094013
7	0x403d5616	2.9583793
8	0x3f2f7fe8	0.68554544
9	0x3f05d6d2	0.52280915
10	0xbe793939	-0.24338235
11	0x3eea0077	0.4570348
12	0x3ef8570d	0.48503914
13	0x3fb6847d	1.4259182
14	0x400965d6	2.1468406
15	0x3f3d3e30	0.73923016
16	0x3fcae2f2	1.5850508
17	0x3f097876	0.53699434
18	0x402171c6	2.5225692
19	0x4009514f	2.1455877
20	0xbf0aa264	-0.5415404
21	0x3ee9e989	0.45685986
22	0x3f0283ab	0.5098216
23	0x3fa3d6e2	1.2799952
24	0x3f0d7f2a	0.5527216
25	0x3f07a6fa	0.5298916
26	0xbf4fc03b	-0.81152695
27	0xbf0f9cb5	-0.5609849
28	0x3ff6e9ab	1.929006
29	0x3fb4c566	1.4122741
30	0x3f263bc2	0.64934933
31	0x40087aff	2.132507
32	0x3fa3f29c	1.2808414
33	0x3f0c6c6d	0.54852945
34	0xbf817c99	-1.0116149
35	0x3ed80060	0.42187786
36	0x400a58aa	2.1616616
37	0x4002e5bd	2.045272
38	0x40154723	2.3324668
39	0x3f390e80	0.7228775
40	0x3fb262a3	1.3936352
41	0x3fd94ad5	1.6975962
42	0x3fd663d9	1.6749221
43	0x3fd6a15c	1.6767993
44	0x3f07ab1f	0.52995485
45	0x3fe72a3f	1.8059767
46	0x3fbdfd45	1.4842917
47	0x3f539f68	0.8266511
48	0x3f024de7	0.5090012
49	0x3fc1c2d3	1.5137581
50	0x3ff9497f	1.9475554
51	0x3f3603ae	0.71099365
52	0x3f445b01	0.7670136
53	0x3fc3921c	1.5278964
54	0x4003c18d	2.0586884
55	0x3ecef75b	0.40423092
56	0x3fff4aaa	1.9944661
57	0x401af7ef	2.4213827
58	0x3ef21557	0.47281906
59	0x3fffd6e6	1.9987457
60	0x3f9e38bf	1.2361068
61	0x3ff09f6c	1.8798652
62	0x4007da42	2.1226964
63	0x3ff8174d	1.9382111
64	0x3f9b60c8	1.213891
65	0x3ebdbcbc	0.37058055
66	0x3f81bea6	1.0136306
67	0x3ff693f3	1.92639
68	0x3f4cc0c2	0.79981625
69	0x3f0d44c6	0.55183065
70	0x3ed3c537	0.413614
71	0x40208e28	2.5086765
72	0x3fce294a	1.610635
73	0x3fcf19e7	1.617978
74	0x4004cefc	2.0751333
75	0x401381cf	2.304798
76	0x3fa6192d	1.2976433
77	0x3fedeab3	1.858725
78	0x3fbee12b	1.4912466
79	0x3f44216d	0.76613504
80	0x3ff8744e	1.9410493
81	0x3effc904	0.4995805
82	0x3fbde71b	1.4836153
83	0x3fef5f16	1.8700893
84	0xbee60821	-0.44928077
85	0x3f7c1999	0.9847656
86	0x3fd84404	1.6895757
87	0x3f9d7d13	1.2303795
88	0x3fb7acba	1.4349587
89	0x3ffbbb7d	1.9666592
90	0x401dc01b	2.4648502
91	0x3fcdf02d	1.6088921
92	0x3eefacc9	0.46811512
93	0x4002b783	2.0424507
94	0x400a6e40	2.1629791
95	0x400a1d9e	2.1580577
96	0x3fab9cb4	1.3407197
97	0x3eb6248f	0.35574767
98	0x4006b830	2.104992
99	0x4005209d	2.0801156
100	0x3ffa688b	1.9563154
101	0x3fca5ce2	1.5809596
102	0x3fa0167d	1.2506863
103	0x3f372cab	0.7155253
104	0x3f13fe29	0.5780969
105	0x3f827f30	1.0195065
106	0x4019f0b2	2.4053159
107	0x3ec987da	0.3936146
108	0x3fd7a307	1.6846627
109	0x3f23f53b	0.64046067
110	0x3ffd0591	1.9767324
111	0x3f889d13	1.0672935
112	0x3fc4e6ad	1.5382897
113	0x3f1364c9	0.5757566
114	0x3fb621b4	1.4229035
115	0x3f4acb26	0.7921623
116	0x3fe22b6c	1.7669501
117	0xbf16a101	-0.5883942
118	0xbf47ff18	-0.7812362
119	0x3fdfee0b	1.749452
120	0x40101a77	2.2516153
121	0x40194793	2.3949935
122	0x3f2caf90	0.6745539
123	0x3ec8ea00	0.39241028
124	0x3fd64f2b	1.674291
125	0x3fe59a54	1.7937722
126	0x3fdf9b5c	1.7469287
127	0x3efabff2	0.48974568
128	0xbefc2f3c	-0.49254787
129	0x3ea4dbed	0.3219904
130	0xbf2fae2f	-0.6862516
131	0x3ea94972	0.33063847
132	0x3f9e6073	1.2373184
133	0xbf03765c	-0.5135248
134	0xbf5f49e8	-0.87222147
135	0xc0150c53	-2.3288772
136	0xbec68ac2	-0.3877774
137	0xbe41cec7	-0.18926536
138	0x3fa808b7	1.312766
139	0xbf0f5e20	-0.56003
140	0xbf056251	-0.52103144
141	0xbf371bb6	-0.7152666
142	0xbfd06360	-1.6280327
143	0x3fa2b412	1.2711203
144	0xbf9b4767	-1.2131165
145	0x3e2168be	0.15762612
146	0xbe8d550b	-0.27603945
147	0xbfc782e5	-1.5586821
148	0x3f8d8471	1.1056043
149	0xbf13f7a9	-0.57799774
150	0x3e1553ff	0.14582823
151	0x3ef76efa	0.48326856
152	0xbe55ecbc	-0.20891088
153	0xbf16b70c	-0.5887306
154	0x3f6ffc68	0.93744516
155	0x3f5dbe86	0.8661884
156	0x3f6c7fec	0.92382693
157	0x3e61afdd	0.22039743
158	0xbf4653b8	-0.77471495
159	0xbf761251	-0.961217
160	0xbef6159b	-0.4806336
161	0xbea05b53	-0.31319675
162	0x40156dee	2.3348346
163	0xbf161ad3	-0.5863468
164	0xbf487b4e	-0.7831315
165	0xbf136711	-0.5757914
166	0xbec5b870	-0.38617277
167	0xbf0a6851	-0.54065424
168	0xbf6f600a	-0.9350592
169	0xbedbb8d5	-0.42914453
170	0xbe67e3e0	-0.22645521
171	0xbed72e3d	-0.42027465
172	0x3d542146	0.051789545
173	0x3e6ec12f	0.23315881
174	0x3f37502c	0.7160671
175	0xbe2403a6	-0.16017017
176	0xbe03a0e1	-0.12854339
177	0x3eb6fb10	0.3573842
178	0xbe4cdaa2	-0.20005277
179	0xbf6abaca	-0.9169127
180	0x3a988bbb	0.0011638323
181	0x3f0a8f12	0.5412456
182	0xbe9e0229	-0.30861023
183	0xbf14f862	-0.581915
184	0x3dbdfa43	0.09276249
185	0xbf91f25f	-1.1402091
186	0x3be77561	0.007063553
187	0xbf4b86fe	-0.79502857
188	0x3ec186cc	0.37798154
189	0xbef6e6f0	-0.48223066
190	0xbef4572c	-0.47722757
191	0xbd84959e	-0.0647385
192	0xbe582b85	-0.21110351
193	0xbf169319	-0.58818203
194	0xbf01bc4c	-0.50677943
195	0xbe9b11f7	-0.30287144
196	0xbf2f5d38	-0.68501616
197	0xbec67595	-0.38761583
198	0xbd87e7e0	-0.066360235
199	0xbf676449	-0.903874
200	0xbf97acd7	-1.1849622
201	0xbf5bb0c9	-0.8581663
202	0xbf0b2a9d	-0.543619
203	0xbe4f6398	-0.20252836
204	0x3f3273ce	0.69707954
205	0xbff889ae	-1.9417017
206	0xbfcd6c47	-1.6048669
207	0xbdc6708d	-0.09689436
208	0x3f8c7687	1.0973672
209	0xbe94e96e	-0.29084343
210	0x3e8207ae	0.25396484
211	0x3f68d3b3	0.9094803
212	0x3f990ca0	1.1956978
213	0xbeaa5465	-0.33267513
214	0xbfb4b2d7	-1.4117078
215	0xbeafa7ef	-0.3430781
216	0xbeaa8277	-0.33302662
217	0xbf3ff1ae	-0.7497815
218	0x3e8c3dfd	0.27391043
219	0xbfa04999	-1.252246
220	0xbe69f051	-0.2284558
221	0x3f957fd2	1.1679633
222	0xc0288a40	-2.633438
223	0xbf8295fc	-1.0202022
224	0x3d752e3b	0.059858542
225	0xbf0d1563	-0.5511076
226	0xbe895973	-0.26826057
227	0xbf5fd0f0	-0.8742819
228	0xc0157eb2	-2.3358579
229	0xbf4aae82	-0.7917253
230	0xbc893db6	-0.016753059
231	0xbed4142d	-0.41421643
232	0xbf2a308b	-0.6648032
233	0x3e64e00c	0.22351092
234	0xc00710f4	-2.1104097
235	0xbf38e633	-0.72226256
236	0xbf5ac92e	-0.85463226
237	0x3dc613b7	0.09671729
238	0xbfb5ea04	-1.4212041
239	0xbf87e5a0	-1.0616951
240	0xbf2a84a3	-0.6660864
241	0xbe9d56f9	-0.30730417
242	0xbf89d751	-1.0768834
243	0xbe9b0fe6	-0.30285567
244	0xbf425e81	-0.7592545
245	0x3f4cf857	0.80066437
246	0x3f878eae	1.0590417
247	0x3e9fed98	0.31235957
248	0xbef0d5cc	-0.47038114
249	0xbfbd9d7b	-1.4813684
250	0xbeb3f428	-0.35147214
251	0xbe6710ec	-0.22565049
252	0xbf588dcc	-0.84591365
253	0xbfcc8b2d	-1.5979973
254	0xbf5f8f05	-0.87327605
255	0xbe717c1d	-0.23582502

fc2.bias f4 [128]
0	0xbf9330ec	-1.1499305
1	0x3fe655c9	1.799493
2	0xbfa6707c	-1.3003078
3	0xc037ff78	-2.8749676
4	0xbfc86756	-1.5656536
5	0xc002e30e	-2.0451083
6	0xc031c956	-2.7779136
7	0xbfd40b68	-1.6565981
8	0xbfb2ffbf	-1.3984298
9	0xbf685456	-0.90753686
10	0xc02fb290	-2.7452736
11	0xbfcb98ef	-1.5906047
12	0xbfd8f2e7	-1.6949128
13	0xbdb3d09f	-0.08780026
14	0xbde80700	-0.1132946
15	0xc01272c7	-2.2882555
16	0xbf7ef93c	-0.9959905
17	0xbd8666c9	-0.065625735
18	0xbfa239b6	-1.2673862
19	0xc021ea32	-2.5299191
20	0xbc124a09	-0.008928784
21	0xbd4d380d	-0.050102282
22	0xbfdcb0ec	-1.7241492
23	0x3db6a866	0.08918838
24	0xbfa0af62	-1.2553523
25	0xbf880ffe	-1.062988
26	0xbfaca72d	-1.3488518
27	0xc01550fb	-2.3330677
28	0xbfd472ef	-1.6597575
29	0xbd8a701d	-0.06759665
30	0xbf7cbdea	-0.98727286
31	0xbc7885bc	-0.0151686035
32	0xbf4f7aed	-0.81046945
33	0x3dea48e5	0.11439685
34	0xbf6af7e2	-0.9178449
35	0xbf93de00	-1.1552124
36	0xbf5cd339	-0.862598
37	0xbfd5a663	-1.6691402
38	0xbdc1f488	-0.09470469
39	0x3bc2b873	0.005942398
40	0xbfa1aeb5	-1.2631441
41	0xbfa2c787	-1.2717141
42	0xbf939227	-1.1528977
43	0xc02986c0	-2.6488495
44	0x3c564dbd	0.013080058
45	0xbfd1d367	-1.639264
46	0xbfb6aca5	-1.4271437
47	0x3d6241c5	0.055238504
48	0xbf5bd3a8	-0.85869837
49	0xbfa97d55	-1.3241373
50	0xbd8264bf	-0.06366872
51	0xbdcf8089	-0.10131938
52	0xc021c050	-2.5273628
53	0xbf843309	-1.0328075
54	0xc0247e2d	-2.5702012
55	0xbd4b22bc	-0.049593672
56	0xbfe23e93	-1.7675346
57	0xbff7ee8a	-1.9369671
58	0xbc7487aa	-0.014924923
59	0xbf98bba8	-1.1932268
60	0xbf248854	-0.6427052
61	0xc02ba9bc	-2.6822348
62	0x3ee9fda8	0.45701337
63	0xc02e53e5	-2.7238705
64	0xbf962700	-1.1730652
65	0xc0126a68	-2.2877445
66	0xc01299d0	-2.290638
67	0xc0122399	-2.2834227
68	0xbf9f08da	-1.2424576
69	0xbf911b0a	-1.1336377
70	0x3ee6e059	0.4509304
71	0xc0008144	-2.0078897
72	0xbf8e6fff	-1.1127928
73	0xbf8e52cc	-1.1119018
74	0xbd9ff423	-0.07810237
75	0x3d813bd4	0.063102394
76	0xbf9c70ff	-1.2221984
77	0xc02c672a	-2.6937966
78	0xbff26594	-1.8937249
79	0xc0229778	-2.540495
80	0xbe062ba5	-0.13102587
81	0xbfbed095	-1.4907404
82	0xc02935ba	-2.6439042
83	0xbfa6fac2	-1.3045275
84	0xc02a4698	-2.6605587
85	0xbd6b5adf	-0.05745971
86	0xbfe78a66	-1.8089111
87	0xbf7b0849	-0.9805952
88	0x3edcce90	0.43126345
89	0xbf86296e	-1.0481393
90	0x3d5f2749	0.054480825
91	0xbfc39958	-1.5281172
92	0xbfc1f8e6	-1.5154083
93	0xc02833d8	-2.6281643
94	0xbf88da3a	-1.0691597
95	0xc01a9170	-2.4151268
96	0xc016a266	-2.353662
97	0xbf84cfba	-1.0375893
98	0xc0278adf	-2.617851
99	0xbd05a73a	-0.032630183
100	0xbff5253e	-1.915199
101	0xc00dd94b	-2.2163875
102	0x3f0e33d0	0.5554781
103	0xbf8c0e78	-1.0941916
104	0x3d7668d7	0.060158577
105	0xc029c591	-2.6526835
106	0xbca95524	-0.020670481
107	0xbd8dcdc0	-0.06924009
108	0xc019a354	-2.4005938
109	0x3ea6b012	0.32556206
110	0xc02915a6	-2.6419463
111	0xbfdc7be2	-1.7225306
112	0xbd243285	-0.04008724
113	0xbdcd125a	-0.10013266
114	0xbf8b516c	-1.0884223
115	0x3c4c2a43	0.012461248
116	0x3d87fa1f	0.06639504
117	0xbd55af22	-0.052168973
118	0xc0187bd5	-2.382558
119	0xbd63f1c0	-0.055650473
120	0xbf972336	-1.180762
121	0xbf893bf1	-1.0721418
122	0xbf9981b3	-1.1992706
123	0x3c224551	0.009904222
124	0xbf9d3cec	-1.2284217
125	0xbff56d96	-1.9174068
126	0xbf8695fd	-1.0514523
127	0xc0239234	-2.5557985

fc3.weight f4 [4, 128]
0	0x3f95c2b7	1.1700047
1	0x407a1445	3.9074872
2	0x3f9cd78c	1.225328
3	0x40700f32	3.7509274
4	0x3fbaa1fd	1.4580685
5	0x3fcb0297	1.5860165
6	0x4048b44a	3.136004
7	0x3facf399	1.351184
8	0x3f952c2d	1.1654106
9	0x3f8c38a6	1.0954788
10	0x405bc2f4	3.433774
11	0x3fb4aadf	1.4114646
12	0x3fa0c491	1.2559987
13	0xbd6eb264	-0.058275595
14	0xbcdee90f	-0.02721074
15	0x3fd5f628	1.6715746
16	0x3f9a36b6	1.2047946
17	0xb9d5c0d5	-0.00040770197
18	0x3fa0276a	1.2512028
19	0x4021d3d6	2.5285544
20	0x40131c6c	2.2986097
21	0x3d9f3f43	0.07775738
22	0x3fa576f6	1.2926929
23	0x40081b17	2.1266534
24	0x3f9aab24	1.2083478
25	0x3f9c330d	1.220308
26	0x3f9ab690	1.2086964
27	0x3ff43fb0	1.9081936
28	0x3fa90113	1.3203453
29	0xbd0ada4f	-0.0338996
30	0x3f91e851	1.1399022
31	0xbd43b58b	-0.047780555
32	0x3f8c6bf9	1.0970451
33	0x40672fc0	3.6122894
34	0x3f9983fe	1.1993406
35	0x3f9fe7e4	1.2492642
36	0x3f958448	1.1680994
37	0x3fb27f48	1.3945093
38	0x3a878a8b	0.0010340972
39	0xbcb0f0b9	-0.02159916
40	0x3fa1c5ed	1.2638527
41	0x3f96a3a7	1.1768693
42	0x3f9237bb	1.1423258
43	0x40467a76	3.1012244
44	0x3dc981e4	0.09839228
45	0x3fb1e68a	1.389848
46	0x3faa420a	1.3301404
47	0xbdae6694	-0.08515659
48	0x3f925654	1.1432595
49	0x3f9c6eee	1.2221353
50	0x3c6e6bb7	0.014552048
51	0xbd1576f9	-0.036490414
52	0x4039ab3a	2.9010758
53	0x3f9dfbdc	1.2342486
54	0x4044caea	3.074885
55	0x3d8fa890	0.070145726
56	0x3fbb46f8	1.4631033
57	0x3fc15679	1.5104514
58	0xbd2ee648	-0.042700082
59	0x3f95bedd	1.1698872
60	0x3f4861bc	0.7827413
61	0x40507cd7	3.2576196
62	0xbe6e10a5	-0.23248537
63	0x406c51e7	3.692499
64	0x3f9c52be	1.2212751
65	0x400b20c2	2.1738744
66	0x3fd7d674	1.6862321
67	0x3fecd69d	1.8502995
68	0x3f9bff91	1.2187368
69	0x3f98d238	1.1939154
70	0x3ee43818	0.44574046
71	0x3fafe911	1.3743001
72	0x3f95b894	1.1696954
73	0x3f952a98	1.1653624
74	0x3c892094	0.016739167
75	0x3d17b838	0.03704092
76	0x3f943aad	1.1580406
77	0x407fdb26	3.9977508
78	0x3fc38b6a	1.5276921
79	0x402dac37	2.7136362
80	0x3d64db60	0.055873275
81	0x3fa20321	1.2657205
82	0x4051cd19	3.2781432
83	0x3f9ff028	1.2495165
84	0x406d6364	3.7091913
85	0xbc567aa8	-0.013090767
86	0x3fb9a8cb	1.4504637
87	0x3f996f46	1.1987083
88	0xbeb85373	-0.36001167
89	0x3f980b65	1.1878477
90	0xbb9d535d	-0.0048011974
91	0x3fac699b	1.3469728
92	0x3fa850b3	1.3149627
93	0x40729f1a	3.7909608
94	0x3f986e8a	1.1908734
95	0x4027703c	2.6162252
96	0x3fd3eab0	1.6555996
97	0x3f9cc30b	1.2247022
98	0x405982b1	3.3986018
99	0xbd0b1b0d	-0.033961345
100	0x3fc58a4f	1.5432833
101	0x3fe9d72f	1.8268794
102	0x3f089ddb	0.5336587
103	0x3f976b0d	1.1829544
104	0xbd76a226	-0.06021323
105	0x40816f12	4.0448084
106	0x3d8c0151	0.068361886
107	0x3ddee632	0.1088375
108	0x402134d9	2.5188506
109	0xbeafaa8f	-0.34309813
110	0x403d71ce	2.960071
111	0x3fb93334	1.4468751
112	0x3bc36142	0.005962522
113	0x3d665213	0.056230616
114	0x3f983f66	1.1894348
115	0xbd118435	-0.035526473
116	0x3b1b9599	0.002374029
117	0x3be49776	0.0069760634
118	0x3ffa977e	1.9577482
119	0xbd298c1a	-0.041393377
120	0x3fa561ca	1.2920468
121	0x3f9c1fcf	1.2197207
122	0x3fa2a7d7	1.2707471
123	0x3d0a89e1	0.033822898
124	0x3f98c070	1.1933727
125	0x3faa1d82	1.3290255
126	0x3f8ed1d5	1.1157786
127	0x3ff721bd	1.9307171
128	0x3f939602	1.1530154
129	0x4086c9f2	4.2121515
130	0x3fa62463	1.2979854
131	0x406e08eb	3.7192943
132	0x3fa70fc2	1.3051684
133	0x3fba38c4	1.4548573
134	0x402b7991	2.6792948
135	0x3f932ff9	1.1499015
136	0x3fa81549	1.3131496
137	0x3fa51eb5	1.2899996
138	0x4035b66a	2.8392587
139	0x3f9a73e7	1.206662
140	0x3faa29c5	1.3293997
141	0xbc213ab3	-0.009840655
142	0xbdd346a0	-0.10316205
143	0x3fe5c474	1.7950578
144	0x3fa3f7dc	1.2810016
145	0x3d957a99	0.07298774
146	0x3f96b4d2	1.1773932
147	0x400d2d88	2.205904
148	0x4020535b	2.5050876
149	0x3d851b3f	0.064993374
150	0x3fb8a878	1.4426413
151	0x3f5466bf	0.8296928
152	0x3fa9562e	1.3229425
153	0x3f9f18ca	1.242944
154	0x3f9a57ca	1.2058041
155	0x3fceec05	1.6165777
156	0x3fad391b	1.3533052
157	0x3d8f9f40	0.070127964
158	0x3fa434a7	1.2828568
159	0xbd7d42fa	-0.061831452
160	0x3f9d804f	1.2304782
161	0x4010fe7d	2.2655327
162	0x3f98f0b7	1.194846
163	0x3f8bd454	1.0924172
164	0x3f9ede49	1.2411586
165	0x3f98ba47	1.1931847
166	0xbd62fda1	-0.05541766
167	0x3c95a192	0.01826552
168	0x3f9728ad	1.1809288
169	0x3f9e7c91	1.2381765
170	0x3f9519b1	1.1648465
171	0x40361f1b	2.8456485
172	0xbd7ecfe3	-0.062209975
173	0x3f8d638c	1.1046004
174	0x3fb56572	1.4171584
175	0x3d7be8fa	0.06150148
176	0x3f9dff34	1.2343507
177	0x3f941601	1.1569215
178	0xbd87b8cf	-0.06627046
179	0x3d4554ff	0.04817676
180	0x40263077	2.596708
181	0x3fa88047	1.3164147
182	0x401ba48e	2.4319186
183	0xbd44c785	-0.04804184
184	0x3fa90af7	1.3206471
185	0x3f938eb0	1.152792
186	0x3dba81f1	0.091068156
187	0x3fab8a6d	1.3401619
188	0x3f94b08e	1.161638
189	0x402cfc67	2.7029054
190	0xbe06d146	-0.13165769
191	0x40636cf0	3.553524
192	0x3f9b017b	1.2109827
193	0x3ff3f84c	1.9060149
194	0x3fccf997	1.6013669
195	0x3fd19d5c	1.6376147
196	0x3f9474b2	1.1598113
197	0x3f989df6	1.1923206
198	0x4000886d	2.0083268
199	0x3fba549f	1.4557074
200	0x3f9c7d7f	1.2225798
201	0x3fa9b965	1.3259703
202	0x3da8a727	0.08235007
203	0xbd04666f	-0.03232425
204	0x3fac2594	1.3448968
205	0x4077d856	3.872579
206	0x3f9d3574	1.2281938
207	0x4017a43f	2.3693998
208	0x3c391014	0.011295337
209	0x3fa1fc18	1.2655058
210	0x40283229	2.6280615
211	0x3f863e2f	1.0487727
212	0x404dd3fd	3.2160637
213	0xbd1b5a0d	-0.037927676
214	0x3fa3647f	1.2765044
215	0x3f94ccc1	1.1624986
216	0xbe733fcf	-0.2375481
217	0x3f9d8025	1.2304732
218	0xbd6c680f	-0.057716426
219	0x40019c18	2.0251522
220	0x3fa1eadc	1.2649798
221	0x406127cc	3.518054
222	0x3f94499d	1.1584965
223	0x400b1458	2.1731167
224	0x3fd82035	1.6884829
225	0x3fa0cf89	1.2563335
226	0x4040035b	3.0002048
227	0x3c38d3a2	0.011280926
228	0x3f90bb6a	1.1307194
229	0x3faea2e8	1.3643465
230	0x3e098e1a	0.13433114
231	0x3f95e01b	1.1709017
232	0xba6889c6	-0.00088706275
233	0x4068af80	3.6357117
234	0x3cd82af4	0.02638767
235	0x3e1e2acc	0.15446013
236	0x400a874f	2.1645086
237	0xbeaecc8a	-0.34140426
238	0x401f1f65	2.4862912
239	0x3fa85daf	1.315359
240	0x3d233c91	0.039852683
241	0xbd27a39e	-0.040927522
242	0x3f8d242b	1.1026663
243	0xbd07cf47	-0.03315666
244	0xbc424c87	-0.011859066
245	0xbd32e56e	-0.043675832
246	0x3ff70791	1.9299184
247	0xbd2aea36	-0.041727267
248	0x3fa4faf1	1.2889081
249	0x3f9e3492	1.2359793
250	0x3f96839e	1.1758916
251	0x3ce24589	0.027621048
252	0x3f9f55d6	1.244807
253	0x3faab971	1.3337842
254	0x3f992b4a	1.1966336
255	0x3ffa43ed	1.9551979

fc3.bias f4 [4]
0	0xbef3d3bf	-0.47622487
1	0xbb2a8af6	-0.0026022769
2	0xbe0127b5	-0.12612803
3	0xbecafafa	-0.39644605
