ai/models/dqn/trained_models/dqn_2048.pth (torch, 78943 bytes, 6 tensors)

fc1.weight f4 [128, 16]
00000000: 457b e8be a7ef 703e 7cbf 893f b97e 9b3e
00000010: 24a0 2fbe 800f 45be 5c8d cfbd 6411 c5be
00000020: 747b 8cbe 0c8d 1e3f 8501 c6be 723f 32bf
00000030: 794c febe 2207 51bf dd52 163f 74f9 ac3f
00000040: 475c 873f 637f a93e 857f 0cbf 6d4b 763e
00000050: 0551 4d3f bb23 29bc 183a e0be c08d c13e
00000060: f322 79bf 7afe f53e bf93 2bbe 46bf 403f
00000070: 7e0d 4abf aae1 dbbc 856d 5b3f 1523 e9bd
00000080: ec64 8e3e 42e3 863f 3b84 ee3f 9c66 5c3e
00000090: 48d6 973d a8ea 2ebd e04f 653d 6fca aa3e
000000a0: 0374 4abf 9958 743e 70d6 51bf a308 b63e
000000b0: 69a4 4b3f 81ec 0abf 59b1 74bf c231 d3bd
000000c0: 1676 923e 4578 a8be c5d6 d83e 673a 99be
000000d0: 6593 253f 39cf 6b3d a03b 473f bbb3 17be
000000e0: 9482 b03e a875 cb3d 3328 093d d2a4 a53d
000000f0: 127c b6bd 2959 17be 03c4 983f 2653 2bbe
00000100: dc67 8b3f 562b 353f 294d 463f 8d14 093f
00000110: 18e5 483f 00a2 67be 6399 b53e 9f6e 1bbf
00000120: a99c 5c3e 9937 6e3f f505 f5be f74f 3e3f
00000130: 78f4 933e ad7e 373f 6c87 a5be 0948 f53d
00000140: 5afa 01bf 1bbe 30bf aaf3 5abd fd0d 1fbf
00000150: 1d2e 68bf bf8a 843e 39ec 8c3e 6e3b c6bf
00000160: 62f6 1b3f 20a1 aa3e 817d 8dbf b09e b33f
00000170: e6be ee3f 5419 923f 48de d53e b4d2 28be
00000180: 1f40 9dbf e632 d63e 4df5 853d 7670 1abf
00000190: f010 2f3f 35d9 0bbe 1899 803e e296 b63c
000001a0: 0fbb 05bf f56c a93e 4350 81be c5dc 9c3e
000001b0: f1f1 fe3d de8d 2d3d 6911 803f 11cf 873e
000001c0: f464 a83e f00e 013f ddc6 d63d 9625 c3bf
000001d0: 465d 54bf 0690 1cbf 9dcf 5bbf 18f0 e43e
000001e0: ba05 7ebe 838e e6bd 8f73 80bf 67e3 753e
000001f0: 3773 b2bf 86f3 9e3e d56e 6aba f85c 0bbe
00000200: 82b7 debd c159 8e3e 76b3 443f 595a 313f
00000210: 9e4d c43e 2f95 fbbd 6d1e f7be ff8a 9c3e
00000220: 338e 13bf a072 a93b 5d51 a9bd c191 c63d
00000230: 55df 203f c289 c83e 6d04 12bf dc2c b63b
00000240: 039e 82bf 2a32 43bf e6e5 723f 0ab1 843f
00000250: 23e8 eabe 9982 c7be 4ed2 efbe faee 4e3f
00000260: 6e59 1dbe ca37 253c cf22 a5be 3a10 1b3f
00000270: 3e49 0d3d 8055 5f3f d75c 33be 09bb 0dbf
00000280: bbca 0ac0 a6f9 e93d 5900 9c3e 882f 0a3e
00000290: bac9 cf3f 17d7 633e bacd 2ebf 4258 303f
000002a0: a94b 55bf 64d7 51bf e29c 473e b542 6d3f
000002b0: 65fd 903d b51a 52be 03b1 573e 65e8 10bf
000002c0: 4154 953e 8b17 573e bba4 2e3f da2b 193d
000002d0: 531f 13be 24ae 50be 0757 abbe 39b2 8bbb
000002e0: 12b3 95be aa64 99bc 0af5 f93e 01c2 4abe
000002f0: 7b05 92be 6fb5 803e 0f8f 5d3f 43d3 733f
00000300: bf8e 1ec0 b16c b53d 3fb7 0a3f f8ce 7ebe
00000310: d540 c3bd a23a 063f 80c4 9bbe 6ff7 e8be
00000320: 5318 b83f 1b34 c03e f4d5 f9be 5ccf af3f
00000330: 60cc 72bc 1b32 1a3f 8101 863d 5d93 2e3f
00000340: dd4a f33e d089 0f3f 473e 803e 2e79 8f3e
00000350: 6bfe 293e 95fb 1bbf 3d7c e33e da00 56bf
00000360: 399b 7f3f 5829 c7be 56a8 1fbe a2f9 7a3d
00000370: 66df 993e e3cb ac3e 5df1 063e bd0b 443f
00000380: 8f8d 7fbf 73a4 41c0 dcdf d63f 2b49 f2be
00000390: 58b2 08bf 6511 6abf 09b0 6b3f aff8 2f3f
000003a0: bfe7 17bf 823b c0bf ec46 db3e c667 8c3f
000003b0: f0d3 c8bf 4411 093e 9202 aabe a7c7 2c3f
000003c0: 3574 293d 3e84 913e 7635 b23f 5f34 fe3e
000003d0: 4d8c 06bf bd32 52bf ddc4 0c3f 656a d33f
000003e0: c9bf 3abf 3856 033f 7a8b aa3e b694 4fbf
000003f0: ebc5 97bf 08b4 c6bf 70b9 843e 3834 ef3d
-0.45406547 0.2352892 1.0761561 0.3037012 -0.17150933 -0.19244194 -0.10134384 -0.3848983
-0.27437937 0.6193397 -0.38673034 -0.6962806 -0.4966772 -0.8165151 0.5872019 1.3513627
1.0575036 0.33105 -0.5488208 0.2405221 0.8020175 -0.01032346 -0.43794322 0.3780346
-0.97318953 0.48045713 -0.1675558 0.7529186 -0.7892684 -0.026841003 0.8571399 -0.113836445
0.27811372 1.0538104 1.8634104 0.21523517 0.07413918 -0.042704254 0.055984378 0.3335757
-0.7908327 0.23861922 -0.8196783 0.35553464 0.79547745 -0.54267126 -0.9558311 -0.10312225
0.28605717 -0.32904258 0.42351356 -0.2992737 0.6467803 0.05757067 0.77825356 -0.14814655
0.34474623 0.099345505 0.033485603 0.080880776 -0.08910383 -0.14780106 1.1934818 -0.16730937
1.089107 0.7076925 0.7746149 0.53546983 0.7847457 -0.22620392 0.35468587 -0.6071567
0.21544136 0.93053585 -0.47856107 0.74340767 0.28897452 0.71677667 -0.3232988 0.1197663
-0.5077263 -0.6904008 -0.053455032 -0.6213072 -0.90695363 0.25887105 0.27523974 -1.5486887
0.60922825 0.33326054 -1.1053926 1.4032803 1.8652008 1.141398 0.4177115 -0.16486627
-1.2285193 0.41835707 0.06540928 -0.6032785 0.6838522 -0.13657077 0.251168 0.022288743
-0.52238554 0.3309094 -0.25256547 0.30637184 0.124484904 0.042371623 1.0005313 0.26525167
0.3288952 0.5041342 0.10487149 -1.5245845 -0.82954824 -0.6115726 -0.8586367 0.44714427
-0.24806872 -0.11257651 -1.0035266 0.24012528 -1.3941411 0.3104517 -0.0008942907 -0.13609684
-0.10874845 0.27802852 0.76836336 0.69278485 0.38340467 -0.12284314 -0.482654 0.30574796
-0.57638854 0.005171135 -0.08267472 0.09695769 0.6284078 0.391676 -0.57038003 0.005559547
-1.0204471 -0.7624842 0.9488205 1.0366528 -0.4588023 -0.38966826 -0.46840137 0.808334
-0.15366146 0.010084102 -0.3225312 0.60571635 0.034493677 0.8723984 -0.17515884 -0.5536352
-2.1686237 0.1142457 0.30469015 0.13494694 1.6233437 0.22250019 -0.68282664 0.6888467
-0.83318573 -0.81969285 0.1949344 0.9267991 0.07079581 -0.20518 0.21063618 -0.56604606
0.29165843 0.21005075 0.6822011 0.037395336 -0.14367418 -0.2037893 -0.33464834 -0.004263189
-0.29238182 -0.018724758 0.48819762 -0.19800569 -0.28519806 0.25138423 0.86546415 0.95244235
-2.4774625 0.08858622 0.5418586 -0.2488364 -0.0953385 0.52433217 -0.30423355 -0.45501277
1.4382423 0.37539753 -0.48796046 1.3735156 -0.014819235 0.60232705 0.065432556 0.6819361
0.47518054 0.5606966 0.25047514 0.2802214 0.16600959 -0.6093076 0.44430724 -0.8359505
0.99846226 -0.3889873 -0.15591559 0.061273225 0.30053252 0.33749303 0.1317801 0.7658041
-0.99825376 -3.0256622 1.6787066 -0.47321448 -0.5339713 -0.9143279 0.92065483 0.68738836
-0.5933799 -1.501816 0.42827547 1.0969169 -1.5689678 0.13385493 -0.33205086 0.67492145
0.04137059 0.28421205 1.3922565 0.4964933 -0.5255783 -0.8210867 0.5498789 1.6516844
-0.7294889 0.51303434 0.33309537 -0.8108629 -1.1857275 -1.5523691 0.25922728 0.11679882

fc1.bias f4 [128]
00000000: e8a6 84c0 39a8 17c0 0b5f bebf 1ce8 4ac0
00000010: da41 58c0 2948 dcbf 8fae 49c0 14e8 46c0
00000020: e997 40c0 e4cc 14bf 2b3e edbf 133d 45c0
00000030: 91d2 18c0 5a19 463e 1532 29c0 b925 1fc0
00000040: 0b16 53c0 4a19 8ebd 755c 3ac0 5ab4 58c0
00000050: 5f59 22c0 0255 f8bc bc3e b240 e91c 19c0
00000060: 63df 443f b617 6bbf fbcf 70c0 7b43 93be
00000070: 504c 4ec0 9aed 0cc0 6d27 0ec0 6744 443f
00000080: 8f7e 4ac0 9b85 24c0 ddad 96bf 2fc7 52c0
00000090: 7d1a 2fc0 15ae b93f e3ae 47c0 2de3 64c0
000000a0: c2f5 33c0 2289 39c0 7b02 7d3f 9008 24c0
000000b0: e658 a23f ca52 20c0 af81 6ec0 d12c 65c0
000000c0: 5832 2ac0 33fc 2bc0 4276 4ac0 9bb2 ffbf
000000d0: a383 7ac0 9ddb 41c0 4cdd 4ac0 88bf 3ac0
000000e0: 2d44 13c0 edde 06c0 9893 15c0 6460 22bf
000000f0: 3975 5d41 3dcc 56c0 7c07 3cc0 c887 29c0
00000100: 78ca bb3f 05a6 6cc0 5226 4fc0 bc2f 51c0
00000110: abb8 3ac0 79d1 60bf df40 4941 5efd 843f
00000120: a73e 33c0 ba36 60c0 88c0 51c0 3bc2 b4bf
00000130: 76ae 1ac0 77f5 42c0 ee39 3dc0 48db e93e
00000140: fd75 f6bf 0b58 6dc0 8f67 eebf c1e3 89c0
00000150: a9ee ab3f 29a9 8ec0 4570 7bc0 6a36 54c0
00000160: bf06 2ec0 727f 6bc0 bd4b 5ac0 76d5 1ac0
00000170: a752 57c0 1d59 31c0 e2a5 7c40 9f2a b9bf
00000180: 13c3 f9bf 5c8a 46c0 216d 10c0 50fd 10c0
00000190: ab17 38c0 4edf bd3c 7737 e13e 9694 9abf
000001a0: 88c7 3bc0 57c6 33c0 1185 61c0 7df1 30c0
000001b0: d0c7 4d41 07c6 39c0 13f3 46c0 f0a7 3fc0
000001c0: 43eb 1ebf 000b 54c0 b15d 6741 9f17 4dc0
000001d0: a730 59c0 c64c 30c0 9db2 7c3f fab2 41c0
000001e0: ffad 4241 2257 29c0 4773 8b3f 29c6 ab3f
000001f0: b81a 79c0 856b 35c0 6c2f 4fc0 d10a 36bf
-4.1453743 -2.3696425 -1.4872755 -3.1704168 -3.3790193 -1.7209522 -3.1512792 -3.107915
-3.0092719 -0.5812514 -1.8534597 -3.0818527 -2.387852 0.19345608 -2.6436818 -2.4866774
-3.2982204 -0.06938417 -2.9118931 -3.3860078 -2.5367048 -0.030313972 5.570158 -2.3923895
0.7690336 -0.91833055 -3.7626941 -0.2876242 -3.2234077 -2.202002 -2.2211564 0.76666874
-3.1639745 -2.5706546 -1.1771809 -3.2934072 -2.7359917 1.4506251 -3.1200492 -3.5763657
-2.8118749 -2.898995 0.9883191 -2.5630226 1.268338 -2.505053 -3.7266653 -3.5808604
-2.6593227 -2.687268 -3.163468 -1.9976381 -3.9142845 -3.0290291 -3.169757 -2.9179401
-2.3010361 -2.1073563 -2.3371334 -0.6342833 13.841119 -3.3562157 -2.9379568 -2.6489124
1.4671164 -3.697633 -3.236714 -3.2685385 -2.9175212 -0.8781963 12.578338 1.0389822
-2.800699 -3.5033402 -3.2773762 -1.4121774 -2.4168983 -3.046232 -2.9566607 0.4567511
-1.9254757 -3.7084987 -1.8625354 -4.309052 1.3432208 -4.4581494 -3.9287274 -3.3158212
-2.7191617 -3.6796536 -3.4108727 -2.4192786 -3.3644197 -2.771064 3.9476247 -1.4466132
-1.9512657 -3.1021948 -2.2566607 -2.265461 -2.8764446 0.023177769 0.4398763 -1.2076595
-2.9340534 -2.8089807 -3.5237467 -2.7647393 12.861282 -2.9027116 -3.108586 -2.994625
-0.6207773 -3.3131714 14.460374 -3.2045667 -3.3935945 -2.7546859 0.9871004 -3.0265489
12.1674795 -2.6459432 1.0894555 1.3419849 -3.8922558 -2.8346875 -3.2372694 -0.71110255

fc2.weight f4 [128, 128]
00000000: 6d2c 83bc 6ab1 7a3d d2e4 6abc 10df 8abc
00000010: f210 98bd 474d 7ebd 79f5 b3bd 3aac b8bc
00000020: f412 dfbd 4143 3c3c 005a 7e3d 04cd 3d3d
00000030: 7b56 b5bc 7a28 11bd 41d3 ddbd fdf7 bcbd
00000040: f4cd 8fbc bb2b 2d3d 373f 89bd 4bb4 56bd
00000050: 362a 90bd b00c bfbc 8be1 95bd 88df fbbc
00000060: 637f 34bd b7fb 57bd 3546 0dbd 8c9e c5bd
00000070: 9871 9abc 2a6a 83bd 02c3 1cbd ca57 73bc
00000080: ead2 5cbd e56b 863c d5bb 113c 116f 5fbd
00000090: d6e4 adbc 182f 97bd e2d0 c33c b135 e3bd
000000a0: d8b1 e5bd b89f ccbd e974 8ebc 1d59 8bbd
000000b0: 3736 9cbd 2422 173c 607b 77bd 269c c7bd
000000c0: dd28 343d 1d96 13bd 81f2 8e3c e9d1 b13c
000000d0: aa49 6a3d a2ef 1a3d f69b e73c 9259 a23b
000000e0: 8202 873d aa0b 133d 125a 4d3d ffe3 a7bd
000000f0: 23ef 4b3c cbb5 2ebd 4c0b f7bd de07 cdbc
00000100: 70ae f33c c578 c4bd be80 f23c 9758 b63c
00000110: 548e 2c3d c633 d8bc 420b c63b cf3a 21bd
00000120: 9553 b83b c710 723d 452d 783b f2cc d6bd
00000130: 6b75 24bd 00f1 e73b f2ea d1bd a36e 8ebd
00000140: 9384 84bd 4ab9 9dbd 8968 dcbd b649 9abd
00000150: c8ae 94bd 63b0 e1bd d5ed 75bc 6f93 59bd
00000160: 38d2 7ebd c1b1 b83c 34de 17bd 5819 3fbd
00000170: 088d 62bd 4e1b b9bd 000d afbb 2c25 803d
00000180: 2b3b d4bc 4c65 63bc 9162 b43c 75f6 e2bd
00000190: 82c8 24bd 8bf3 acbd 4c26 293d 1e67 63bd
000001a0: 00d1 a7bc af77 d3bd b6a5 89bc d224 72bd
000001b0: f3fc e3bd 1327 1fbd 3f43 e33c 46f5 14bd
000001c0: 534f 49bc daac b6bc 862f 903d 21a1 583d
000001d0: 3a50 94bd 2e20 4fbd c290 863c b512 adbd
000001e0: 4042 93bd 0cf2 e7bd 7988 f5bd d934 88bd
000001f0: 9ba4 51bc 4c9a 82bd 573e 4cb8 1667 a0bd
00000200: ffda 8240 1963 b13f 1316 1940 d2da bc3f
00000210: 5d0c 0a3e 5ce4 57c0 25c9 c53f 0d7d 5840
00000220: 6a38 983f fa21 f33f fc26 9d40 ee85 4f40
00000230: 09d5 16c0 8dce 2d3f 5894 b3bf 7010 22c0
00000240: c6e9 2340 08b8 46be 7783 4740 0202 8f40
00000250: ca4d e23e c467 1ac0 1e0e a840 1270 4e40
00000260: 29be 4c40 770a 19bf dbc0 a540 08d3 1a40
00000270: 7911 3f40 e019 ef40 d52c 92bf 101c 8c3f
00000280: 71cc 9640 9323 4a3f 16f1 58c0 c6f8 263f
00000290: 5170 763c e63f 043e 2871 ad40 bd9d 9c40
000002a0: 92f4 2740 abce 0c40 fcf1 c540 5d88 9f40
000002b0: 9014 9d3f 11e4 4d40 702a ac40 f785 e540
000002c0: cce8 ea3f a9b8 1140 503a 033f 276a dd40
000002d0: 6918 cd40 796c a140 412a ba40 4433 5740
000002e0: b9f4 fc3f f72c 1ec0 3092 c740 f490 39c0
000002f0: d07d 3b3f 77b4 3340 b65c 8940 1cf4 8440
00000300: 1278 2b3f 8d2e 8440 d241 4f40 dd05 5640
00000310: 9071 853f 8223 89bf aceb 8a40 a051 1440
00000320: 4e23 9d40 79b6 ae3f ab19 b740 781f aebf
00000330: 5a42 3040 513c ad40 fb67 353f 1f35 023f
00000340: a05c b6bf a61a c93f f31a 0740 0f5d 9140
00000350: 986e a33f 77e5 cf40 3320 a540 8a16 4140
00000360: 28ea cd40 611c b640 728f 5a40 3b57 0fc0
00000370: 0c8e 5e40 ee68 e13f 28b6 543e 3064 213e
00000380: 1800 85c0 8983 8740 c452 363f 938b e43f
00000390: ac2f c63e 212b abbd 87e8 853f 47c6 7ec0
000003a0: bc54 bc3e 33cc 5240 af85 5f40 39dc fa3f
000003b0: fbb7 7a3f 5c13 9540 1fe8 b640 1945 3340
000003c0: 255e 3cbf f4cd d240 c3cb 193f a871 5a40
000003d0: fcba 11bf dff6 3040 99bf 0d40 dd02 a240
000003e0: 070a 3a3f 61a8 0440 ee7c 7340 b64d fd3e
000003f0: 965b ce40 6c5e 2640 e841 1640 f9fb 13c0
-0.016012395 0.06120435 -0.014336782 -0.016952068 -0.07425107 -0.062085416 -0.087870546 -0.022543062
-0.10892287 0.011490644 0.06209755 0.046338096 -0.022135964 -0.035438992 -0.10831309 -0.092269875
-0.01755426 0.042278033 -0.067015104 -0.052418035 -0.07039301 -0.02332148 -0.073184095 -0.030746236
-0.044066798 -0.05273029 -0.034490783 -0.09649381 -0.018852994 -0.064167336 -0.03827191 -0.0148524735
-0.05391208 0.01640887 0.00889488 -0.05454928 -0.021227282 -0.07382029 0.023903314 -0.11094225
-0.11215562 -0.099914014 -0.017389731 -0.068041064 -0.07627528 0.009224448 -0.060420394 -0.0974658
0.043984283 -0.03603183 0.01744962 0.021706538 0.057199158 0.037826188 0.02827261 0.0049545253
0.06592275 0.035899796 0.050134726 -0.08197784 0.012447151 -0.04265384 -0.120627016 -0.025028165
0.029746264 -0.095933475 0.029602405 0.02225904 0.042127922 -0.026391875 0.0060438225 -0.039362725
0.005625198 0.05909803 0.003786878 -0.10488309 -0.04015104 0.00707829 -0.102498904 -0.06954696
-0.06470599 -0.07701357 -0.10762126 -0.075335905 -0.072598994 -0.11019971 -0.015010317 -0.05311912
-0.0622122 0.022545697 -0.037077144 -0.04665503 -0.05531028 -0.09038411 -0.005342126 0.0625709
-0.02590712 -0.0138791315 0.022019656 -0.11082164 -0.04023028 -0.0844489 0.04129629 -0.055518262
-0.020485401 -0.10325562 -0.01680265 -0.059117146 -0.111322306 -0.038855623 0.027742026 -0.036366723
-0.012286979 -0.022299219 0.070403144 0.05288804 -0.072418645 -0.0505678 0.016426448 -0.08450834
-0.071903706 -0.11325464 -0.11988921 -0.06650705 -0.012795593 -0.06377086 -4.869545e-05 -0.07832162
4.089233 1.3858367 2.3919723 1.4754279 0.13481279 -3.373313 1.545201 3.3826325
1.1892216 1.8994744 4.911009 3.2425494 -2.3567526 0.67893296 -1.4029646 -2.5322533
2.5611434 -0.1940614 3.117399 4.468995 0.44199973 -2.4125834 5.2517233 3.2255902
3.1991065 -0.59781593 5.179792 2.4191303 2.9854414 7.4719086 -1.1419932 1.0946064
4.712456 0.7896053 -3.3897147 0.6522335 0.015041427 0.12915 5.420063 4.894255
2.6243024 2.200114 6.185789 4.985396 1.22719 3.217045 5.3801804 7.172603
1.8352294 2.2768958 0.5126085 6.919208 6.4092298 5.0444913 5.817658 3.362504
1.9762183 -2.4714944 6.236595 -2.8994722 0.7323885 2.8078897 4.2925673 4.1547985
0.6698009 4.1306825 3.2383924 3.3441079 1.0425282 -1.0713961 4.3412685 2.317482
4.9105597 1.3649436 5.7218833 -1.3603354 2.7540498 5.413613 0.70861787 0.50862306
-1.4247017 1.5711257 2.1110198 4.5426097 1.2768126 6.496761 5.1601806 3.0170007
6.4348335 5.690964 3.4150052 -2.2396991 3.4774199 1.7610147 0.20772612 0.15760875
-4.1562614 4.2348065 0.7122004 1.7855095 0.38708246 -0.083578356 1.0461587 -3.980852
0.36783397 3.2937133 3.4925344 1.9598457 0.9793698 4.658613 5.715835 2.8010924
-0.73581153 6.587641 0.6007654 3.413187 -0.5692594 2.7650678 2.2148192 5.0628495
0.7267155 2.072777 3.8045 0.4947335 6.44868 2.599513 2.3477726 -2.3122542

fc2.bias f4 [128]
00000000: b726 84bd d2d3 6b3f 26bc c2bd e63b 713f
00000010: d6d0 373d 0385 7bbd 864d 1d3d 7bbb 96bd
00000020: ec76 11c0 eb99 783f 1d5c b03f 7421 953f
00000030: 0974 573f 6fa1 2e3f c8ed 4ac0 dcca 8bc0
00000040: 557f 793f 6536 b03f 13ba fdbc 7b7a cb3f
00000050: 6896 1ebd f2b3 d33f 0ee3 17bf 8381 c93e
00000060: 9fba e33e 5aaf 0ec0 dc1e e33f b0c5 6c40
00000070: bad6 eb3f 74ca 533f 9a59 633f 461b fd3f
00000080: e467 dd3f 7384 db3f 4c78 c140 62b9 933e
00000090: 28ad 63c0 35d8 05c0 e721 b23f ad86 36bd
000000a0: 3832 e43f 9753 9fbd 51ac fe3f 49b1 ef3f
000000b0: 89b1 03c0 d47c 9d3f 2074 c53f c7e7 493d
000000c0: 3da1 8bc0 2519 c53d 689b 64bd 8aa6 9c40
000000d0: fa30 4e3f 8856 4a3f 765b 623f 8151 6c3f
000000e0: 5434 14bd fc8b 5a3e c527 3ac0 aeeb 473f
000000f0: f847 853f b6b8 cebd 1c78 79c0 3686 62c0
00000100: 1d90 d83e 2b38 6a3f 4529 57c0 2288 a13f
00000110: 5de3 183d cdfe 6f40 05df f13e d072 24c0
00000120: 503a 1c3d 65d1 a93f edaf f73f b03b a33e
00000130: 73ba 5f40 d5ca 3e3f 2305 8dc0 60b6 73bd
00000140: f214 643d 9372 09bd 49d7 bc3f d84a 923f
00000150: 7848 9140 2ebf aac0 d109 8640 89d6 8e3f
00000160: 1e1a af3f 1db5 f03f 7414 b2bc 9504 f1bc
00000170: e20f 5dc0 517f 923f 4684 9f3f 7f78 bb3e
00000180: 5f72 65bd 4685 be3f e964 9f3f b3e1 893f
00000190: 3194 bcbd 2e55 8b40 6f2d b0bf 7ea9 adbd
000001a0: bd7a 653f 2db6 bf3f ec6e 603e b4a6 d2bd
000001b0: e867 d33f 92fa 6740 869d ef3f 8831 fe3f
000001c0: f0d8 aabd 168e 0abf 25de 98c0 d60d 673f
000001d0: dbaa c63f 1e87 a63f efbb 833f 0c20 b23f
000001e0: 9a21 c63f 5ada ffbc 5ae0 12bf e542 9e3c
000001f0: b59c 903f c63f 943f 7914 4dc0 7d8b b63f
-0.06452697 0.9212009 -0.09508543 0.9423202 0.044876896 -0.061406147 0.03840401 -0.07359978
-2.2728834 0.9710986 1.3778111 1.1650834 0.8416143 0.6821508 -3.170763 -4.368513
0.9745992 1.37666 -0.030972516 1.5896753 -0.038717657 1.653929 -0.5933083 0.39356622
0.44478318 -2.2294526 1.7743793 3.699566 1.8424904 0.82730794 0.88808596 1.9773948
1.729733 1.7149795 6.0459347 0.28852373 -3.5574436 -2.0913212 1.3916596 -0.04456203
1.7827826 -0.07779615 1.9896337 1.8725978 -2.057711 1.230372 1.5426064 0.049293306
-4.3634324 0.096239366 -0.05581227 4.8953295 0.8054348 0.79038286 0.8842081 0.92311865
-0.036182716 0.21342462 -2.9086773 0.78093994 1.0412588 -0.100938246 -3.897956 -3.5394416
0.4229745 0.91491956 -3.361894 1.261967 0.037326206 3.7499268 0.47240463 -2.5695076
0.03814155 1.3267027 1.9350563 0.31881475 3.495755 0.7452825 -4.406877 -0.0595001
0.055684038 -0.033556532 1.47532 1.142909 4.5400963 -5.3358374 4.1886983 1.1159221
1.3679845 1.8805271 -0.021738268 -0.02942113 -3.4540944 1.1445104 1.2462242 0.3661537
-0.056017276 1.4884422 1.245267 1.0772003 -0.09207953 4.354148 -1.3763865 -0.08479594
0.8964041 1.4977471 0.21917313 -0.10285702 1.6516085 3.6246686 1.8719947 1.9858866
-0.08342159 -0.54123056 -4.7771173 0.90255487 1.5520891 1.3009984 1.0291728 1.391603
1.5479004 -0.031232048 -0.57373583 0.019319007 1.1297823 1.1581962 -3.2043746 1.4261318

fc3.weight f4 [4, 128]
00000000: 1960 203d c9c3 8f3f 032d d4bc a2e2 943f
00000010: 5203 363d aac8 85bc d3f2 2abd 6349 1bbd
00000020: 448e b13f 7609 8e3f 3a9f 8e3f 9db2 213f
00000030: ff2a 5d3f 7ecb a93f b7be 2240 37b5 d540
00000040: ec92 aa3f 9151 a23f ca6a 45bd 4f9e 9b3f
00000050: ef5f 1837 0c59 963f 7c39 9d3f 633b a43f
00000060: e5e1 4c3f 1177 83bf 7039 ac3f f6df a83f
00000070: cb29 5b3f a428 5f3f 69c1 9d3f d4c6 933f
00000080: e78d a03f c33f 583f 208c b4bf b3c6 343f
00000090: 8600 6740 8336 b0bf 1e2b 4e3f 917c 0abd
000000a0: 6d25 9d3f 048a 123d cc20 9d3f 6ceb ac3f
000000b0: 7d7c a23f 82c4 8e3f 426c aa3f 5900 79bb
000000c0: 6919 5b40 3d0d 04bf db91 5abd a9ee 7f40
000000d0: dd52 82bf 6306 8d3f d1e5 a63f 1d4d 353f
000000e0: 6978 843d 255e 003f b360 ea3f 5e75 8a3f
000000f0: c34b 9b3f a977 483f b566 1b40 b627 7e40
00000100: 86af 8a3f 1038 a83f 7f43 8c40 2543 923f
00000110: 4eeb 9b3d 503f 4340 4a15 8e3f 41cf afbf
00000120: f340 76be 4b62 8a3f 236f c53f 1603 b83f
00000130: 58d5 1840 ac8f 343f 502c 8b40 b2b5 9ebc
00000140: 96bc febc eec3 cebc 082d 813f 0af9 0e3f
00000150: d39e 6e40 5ad2 f940 e5d3 5b40 b74f 703f
00000160: 369d 533f 7e4c a53f 454e 1b3b 2043 aabc
00000170: 43a7 de3f 3ebb 5a3f f065 ab3f eccb 453f
00000180: 27ef f23c ab4f 7d3f 44b4 b43f db53 9b3f
00000190: 530c 64bd 06f8 8340 a1c9 673f b344 44bd
000001a0: 6436 2c3f dfd7 823f 38b9 9840 3944 94bd
000001b0: ed0c 9b3f 813d a03f d1a0 6f3f 031d a13f
000001c0: cdf8 81bd 6e98 713f 33c6 2241 3851 1f3f
000001d0: da1c 343f 7d84 a13f d8a0 913f 1b70 a73f
000001e0: b8af 873f efda db3c 0705 5440 fe88 453c
000001f0: 459c 9d3f ef27 593f 3b3f 4441 75a3 b53f
00000200: 80b2 ebb9 1077 c83e a27f 70bd 1682 373f
00000210: 1b07 59bd 12d5 62bd 72f5 7fbd a667 c9bc
00000220: 42a0 7440 bec4 e93e c41c 283f 1828 2a3f
00000230: 7e9a ce3e 2d40 123f e273 9740 5aba b240
00000240: 6a55 0d3f ec2c 273f 483c 3d3d 1fdb 4e3f
00000250: 1c22 20bd f67c 533f e8a1 d8be 0dbe 3e3e
00000260: 8642 703e d224 9d40 092c 733f c4d1 2240
00000270: c471 833f 8054 0b3f fa3e 893e 0f7d 8c3f
00000280: a760 703f d29b 733f 7d87 e040 d0fd 513e
00000290: cb19 0d41 c3fd a140 96db 603f bf3e 5d3c
000002a0: e97f 733f f906 95bc 4c5a 8c3f 03d3 7c3f
000002b0: a01a 1240 47e3 1e3f 85e9 393f c56f 16bc
000002c0: 9147 9840 dc76 00bf 9ff4 0e3b aa0b c040
000002d0: 44fa 1240 55ba cc3e 661b c43e 06af e33e
000002e0: 20a0 afbb 96c5 903a e065 b640 12c5 c93e
000002f0: fd94 d53e 87d7 2abe 1f3b 9640 43f9 9240
00000300: 7f06 2f3e 97f0 f53e 0b01 8840 57b9 253f
00000310: bc3d d83b 1274 7540 e332 5c3e 2c4e 2b40
00000320: 542b f83c c232 233f b7ff 7c3f 3be0 5abf
00000330: 3ba7 e33f a6b2 b13e abe4 8940 f1eb a03d
00000340: 2e8d 83bd 8111 3c3b 534c 313f 220b 2b3f
00000350: e4fe cc40 7dc6 eb40 f9cf ab40 ea6f 313f
00000360: 1a5f 553f 0d2c 7c3f 8c5a 41bc 2040 44bd
00000370: f77e 9e40 007d 293f b301 1d3f 638a d23e
00000380: d734 bcbc 89b3 563f b68f 3c3f 77c5 e63e
00000390: fa2d 67bd 8001 b540 17b9 e7be 3439 b33c
000003a0: a24f c23e f8e0 723f 526c 523e 0877 f73b
000003b0: 3cd6 5c3f 065b 2840 879f 863f 5bd4 833f
000003c0: 23b0 ee3c f966 bcbe b63d ef40 97e7 ff3e
000003d0: 289c 663f 9ab8 0b3f 55c5 1d3f 8026 2e3f
000003e0: b682 583f 626b 5e3d f84a 13c0 85ac 163d
000003f0: bbd7 ea3e 467a 363f 731c 8940 0f5f 573f
0.039154146 1.1231624 -0.02590037 1.1631663 0.04443676 -0.016331036 -0.04173548 -0.037911784
1.3871541 1.1096637 1.1142342 0.6316317 0.8639373 1.3265226 2.5428903 6.678371
1.3326087 1.2681142 -0.048197545 1.2157687 9.082242e-06 1.1745925 1.2283168 1.2830623
0.8003219 -1.0270711 1.3455029 1.3193347 0.85610646 0.8717139 1.2324649 1.1545053
1.2543305 0.8447229 -1.4105263 0.7061569 3.609407 -1.3766636 0.8053454 -0.033810202
1.2277046 0.035776153 1.2275634 1.3509345 1.2694241 1.115372 1.3314288 -0.0037994592
3.423426 -0.515827 -0.053361755 3.9989417 -1.0181538 1.1017574 1.3038884 0.7082079
0.06468279 0.50143653 1.831076 1.0817068 1.2132496 0.78307587 2.4281437 3.9711738
1.0834816 1.3142109 4.3832393 1.1426741 0.0761324 3.0507393 1.1100247 -1.3735124
-0.24048214 1.0811247 1.5424541 1.4375942 2.3880215 0.70531726 4.3491592 -0.019373748
-0.031095784 -0.02523991 1.0091867 0.55848753 3.7284439 7.8069277 3.434808 0.93871635
0.8266176 1.2913969 0.0023697775 -0.02078396 1.7394794 0.8544196 1.3390484 0.77264285
0.029655052 0.9894969 1.4117513 1.2134966 -0.055675816 4.1240263 0.90542036 -0.04791708
0.67270494 1.0222129 4.7726097 -0.07239575 1.211332 1.251877 0.9360476 1.2586979
-0.06346283 0.94373214 10.1733885 0.62233305 0.70356524 1.2618557 1.1377211 1.3081087
1.06005 0.026837794 3.3128068 0.012056587 1.2313315 0.8482656 12.265437 1.4190508
-0.00044955686 0.39153337 -0.05871547 0.7168287 -0.052985292 -0.05537898 -0.062489934 -0.024585556
3.8222814 0.45657915 0.6566889 0.6646743 0.40352243 0.57129174 4.732896 5.585248
0.55208457 0.6530292 0.046200067 0.808031 -0.03909503 0.8261255 -0.42311025 0.18627186
0.23462877 4.9107447 0.9498907 2.544053 1.0269094 0.5442581 0.2680586 1.0975665
0.9389748 0.9515964 7.016539 0.20506978 8.818797 5.062227 0.8783506 0.013503729
0.9511705 -0.018191801 1.0965056 0.9875948 2.282875 0.6206555 0.7262195 -0.009181921
4.758736 -0.50181365 0.0021813286 6.001424 2.296525 0.3998591 0.38302153 0.4446947
-0.0053596646 0.0011045213 5.699936 0.39408165 0.41715232 -0.1668378 4.694717 4.5929275
0.17092322 0.48035118 4.2501273 0.6473593 0.006599156 3.8352094 0.21503787 2.6766462
0.030294098 0.63749325 0.9882769 -0.854984 1.778541 0.3470661 4.3091636 0.07857502
-0.06423412 0.0028696957 0.69257087 0.6681386 6.4061146 7.3679795 5.3691373 0.6931139
0.8334824 0.98504716 -0.011801373 -0.047912717 4.9529986 0.6620636 0.6133072 0.41121206
-0.022974415 0.838677 0.73656785 0.4507253 -0.05644033 5.656433 -0.452584 0.021877863
0.3795138 0.94874525 0.20549133 0.0075520314 0.86264396 2.6305556 1.0517434 1.0299181
0.029136723 -0.36797312 7.476283 0.49981377 0.90082026 0.54578555 0.6162923 0.68027496
0.8457445 0.054301627 -2.3014507 0.03678562 0.45867714 0.71280324 4.284723 0.8412942

fc3.bias f4 [4]
00000000: eb92 c43f 1d32 ca40 22ab a3be 96d8 d7be
1.5357336 6.3186173 -0.319665 -0.4215743
