ai/models/dqn/trained_models/dqn_2048_800.pth (torch, 78975 bytes, 6 tensors)

fc1.weight f4 [128, 16]
000000 34 03 48 be 87 fc 4d be 85 50 39 3e fc 6a da 3d
       -0.19532472 -0.20115863 0.18097122 0.10664937
000010 20 eb 89 3d 55 ad 71 3c ca 39 d4 bd 3f 61 6c be
       0.067343 0.014750798 -0.10362585 -0.23083971
000020 eb 67 a4 3e 29 25 9c 3e 2e 10 83 bd dd c6 4f 3d
       0.32110533 0.304971 -0.063995704 0.05072676
000030 ab 42 aa be a4 97 23 be 31 ea 34 3f 9d 19 a6 3f
       -0.3325399 -0.15975815 0.7066985 1.2976567
000040 6b 76 7d 3f 6d 8c eb 3e 32 31 ea be ee 6d c7 3e
       0.99008816 0.46005574 -0.45740658 0.38951057
000050 bc 09 70 3f f3 e9 e5 3d c5 bf a4 be a5 8d 1e 3f
       0.93764853 0.11226263 -0.3217756 0.6193488
000060 48 7c 40 bf a1 75 01 3f 7c 5f 7f be 91 87 44 3f
       -0.7518964 0.5057011 -0.24938768 0.7676936
000070 52 58 c7 be a4 b1 8d 3d 19 78 19 3f fe 13 27 be
       -0.3893457 0.06918648 0.5994888 -0.1631622
000080 c1 1e 57 3e c7 35 86 3f c9 aa c6 3f 4f 87 42 be
       0.21007825 1.0485162 1.552087 -0.18996929
000090 8f 83 dd 3d 38 c8 e4 bd a9 bc 58 3c 36 c3 8a 3e
       0.108161084 -0.11171001 0.013228574 0.2710206
0000a0 5a 7a 26 bf 59 0d 44 bc a3 f0 6a bf 6a a8 de 3d
       -0.65030444 -0.011966073 -0.9177343 0.10871966
0000b0 16 a6 3a 3f 5f cf f5 be e6 93 2d bf 0d 06 2b 3d
       0.7290968 -0.48009774 -0.678038 0.041753817
0000c0 9f 01 fd bc f6 f4 ec be 6e 0c 06 3e 5b 55 06 bf
       -0.030884562 -0.4628064 0.13090679 -0.5247399
0000d0 2a c4 9c 3e 1d 45 d1 3d 49 91 46 3f 1f c7 c9 bd
       0.3061841 0.102182604 0.7756544 -0.098524325
0000e0 a3 89 98 3e 6a 72 a0 3d b9 13 71 3a 53 2d bf 3e
       0.29792508 0.07834323 0.00091963593 0.37339267
0000f0 ea 61 84 bd 15 2b a9 be 67 cd 8d 3f 56 56 13 bf
       -0.06463988 -0.3304068 1.1078309 -0.57553613
000100 67 8f 6c 3e f1 ea 1e 3e e5 1a 31 3f 62 ef 05 3e
       0.23101579 0.1551931 0.6918166 0.13079599
000110 96 dc e6 3d 06 59 88 bd 75 f7 c9 bd 16 cc 84 3e
       0.11272542 -0.06657605 -0.09861652 0.25936955
000120 0b 13 0e be a8 62 63 3e ea a4 b3 be b6 df bc 3e
       -0.13874452 0.22205603 -0.35086757 0.36889428
000130 e9 16 3c 3e 09 b4 10 3f e6 04 36 3d be 98 8d 3e
       0.18368115 0.5652471 0.044438265 0.27655596
000140 5a d6 63 bf 89 1b 29 3e 92 5a 2e 3f 94 a6 a0 3e
       -0.8899895 0.1651441 0.6810695 0.3137709
000150 78 c2 f8 be 8b 77 7b 3e 44 ec 62 be 19 a5 38 be
       -0.48585868 0.24557321 -0.2216044 -0.1803173
000160 6e 3f 99 3e 09 d9 6c 3d 2e ec b3 bd 27 da 04 3f
       0.29931206 0.05782417 -0.08785282 0.51895374
000170 d3 af 29 3f 8e b8 64 3e 18 26 0f 3e 4a b5 1b 3e
       0.6628391 0.22336027 0.13979375 0.15205875
000180 11 f4 4c bf a0 36 ae 3e 68 f8 c0 3e cd f0 16 bf
       -0.80059916 0.3402605 0.3768952 -0.5896118
000190 c3 98 82 3e 3f 61 fd bc 03 2c f2 bd 6c d2 20 3f
       0.25507173 -0.03093016 -0.11824801 0.6282108
0001a0 60 f7 58 be 76 8b 87 3e 93 a9 de bc 25 40 9a 3e
       -0.21188116 0.26473588 -0.027180469 0.30127063
0001b0 b3 b4 60 3e 5c cf 55 3e 6f 78 c8 3e 6c 52 fa 3d
       0.21943931 0.20879883 0.39154384 0.12222752
0001c0 02 ec 9c 3d 64 66 e8 3e 6a fb 48 bf 60 5c 7c bf
       0.076622024 0.45390618 -0.7850863 -0.98578453
0001d0 85 08 eb be 13 29 e2 be 7a a9 21 be 70 d7 24 3f
       -0.45904937 -0.44171962 -0.15787306 0.6439123
0001e0 96 33 b3 3e ad 30 e5 bd dd aa b5 be 74 f0 e5 3e
       0.35000294 -0.11190925 -0.3548192 0.44910014
0001f0 39 f1 0e bf 5a cf 85 3e a9 c2 8a 3e a6 1c 23 be
       -0.55836827 0.2613476 0.2710164 -0.15928897
000200 06 3e 33 3e a7 a4 52 3e 58 c5 27 3f bc 43 a3 3e
       0.17504129 0.20570622 0.655355 0.31887615
000210 1a 5a cb 3e e2 34 82 bd 41 53 9b 3b 1b 18 4b 3c
       0.3971718 -0.06357743 0.0047401492 0.012395884
000220 9c ad 9b bc 82 31 a2 bd bf 02 e8 bd c0 5e b6 3d
       -0.019003682 -0.07919599 -0.11328649 0.08904791
000230 ce 9c b3 3c e2 a8 ae 3e c0 9c 82 3e c6 36 cb 3e
       0.021925356 0.34113222 0.25510216 0.39690226
000240 23 50 01 bf 64 45 7a 3d 08 8f 9e 3e b5 8a 4d be
       -0.50512904 0.061101332 0.309685 -0.20072444
000250 56 7b b9 3d 79 d9 4a bf 39 20 1f bf 41 82 d7 3d
       0.090567276 -0.79238087 -0.6215854 0.10522891
000260 77 40 e5 be b2 71 28 3e 94 22 fd bc 11 c6 31 3f
       -0.44775745 0.16449621 -0.030900277 0.6944285
000270 d6 af c9 3e 3f a0 86 3d 88 47 89 3e 34 ca 16 3e
       0.39391965 0.06573533 0.26812387 0.14725572
000280 f1 c3 11 bf 40 82 27 3f 91 66 56 3f 8e 84 c8 3e
       -0.5693961 0.6543312 0.83750254 0.3916363
000290 bf 56 ab 3f 05 f0 08 bf cc 84 5d bf 03 41 0e be
       1.3385848 -0.5349124 -0.86530757 -0.13891988
0002a0 81 0a ee bd 5a e7 43 bc e0 37 1b be df 43 38 be
       -0.11623097 -0.011957014 -0.15158033 -0.17994641
0002b0 14 64 fd be ef 1a 22 be d4 eb 35 be f8 0d c5 3e
       -0.49490416 -0.15830587 -0.17765743 0.3848722
0002c0 c1 24 af bd 95 db 1b be 8d 6e 65 3f 80 40 c6 3d
       -0.08551932 -0.15220483 0.8962181 0.09680271
0002d0 fc d3 9d be 98 af b9 be 51 d5 02 bf 99 f6 69 3d
       -0.30825794 -0.3626678 -0.51106745 0.05711994
0002e0 a1 f7 b0 be ae 08 71 be ae 31 23 3f 3c 53 6e be
       -0.34563926 -0.23538467 0.6374768 -0.23273939
0002f0 53 af b9 be a1 bd 82 3e 0f 71 52 3f 12 9e 5c 3f
       -0.36266574 0.255353 0.82203764 0.86178696
000300 01 a5 34 bf d2 9c 01 3f 3f e0 c2 3d 4c a9 97 be
       -0.70564276 0.50629914 0.09515428 -0.2962135
000310 94 2d bb 3e d1 06 09 3f 85 0d 9d be 57 77 ed be
       0.3655821 0.53526026 -0.30674377 -0.46380112
000320 53 66 11 3f 72 b1 13 3d 54 b6 cb bd a9 9b 38 3f
       0.5679676 0.036057897 -0.09946886 0.7211252
000330 21 a6 c2 3e 2e ee 0b bf f5 4a 66 3e f7 60 07 3f
       0.3801737 -0.5466031 0.22489531 0.5288233
000340 38 3d 5b 3d 2a 3b 16 3f f2 87 92 3e a2 ea 7b 3e
       0.05352518 0.5868403 0.28619343 0.24601224
000350 91 9e 02 3d c1 4f 7f be 2d fb 40 bd 60 b6 c4 bc
       0.031889502 -0.24932767 -0.04711454 -0.024012744
000360 e7 48 8e 3e dc 5a c0 be e3 d4 3a bd 45 b3 eb 3e
       0.27789995 -0.3756932 -0.04561318 0.4603521
000370 cd d5 06 3f 23 ae 91 bd 00 ef 94 3e c0 85 0a 3f
       0.52669984 -0.07113292 0.29088593 0.54110336
000380 77 bb d8 3d 07 21 87 be 64 c6 a7 3f 76 93 ff 3d
       0.10582631 -0.26392385 1.3107419 0.12479298
000390 cf 88 c9 be f0 bd a7 be 7d 87 f0 bc 86 94 9e 3f
       -0.3936219 -0.32762098 -0.02936148 1.2389076
0003a0 47 3c 9f be 2d a8 e0 bf a6 34 23 be 36 bc 5d 3e
       -0.31100675 -1.7551323 -0.15938053 0.21653828
0003b0 99 87 fe 3d 99 cf fb 3e 0b 31 26 be 09 f7 0d 3e
       0.12428207 0.49181822 -0.16229646 0.13863768
0003c0 f2 a1 01 be f6 28 76 3f c1 b5 16 3f ca 1e 87 be
       -0.12659433 0.9615625 0.58871084 -0.26390678
0003d0 c5 b9 ad bd 79 f8 71 bf ef 23 c6 3e f7 6d 5d 3f
       -0.08482698 -0.94519764 0.3869929 0.8649592
0003e0 2e 96 17 bf c4 17 46 be ef 8e 43 be 60 c5 68 bd
       -0.5921353 -0.19345003 -0.19097494 -0.056828856
0003f0 1a 88 85 bf c1 c9 7b be e5 76 d7 bd d1 a6 1b 3f
       -1.043216 -0.24588682 -0.10520724 0.60801417

fc1.bias f4 [128]
000000 e1 8b 76 c0 2c fb 09 c0 77 7f b7 bf fd b0 4f c0
       -3.8522875 -2.1559553 -1.4335774 -3.2451775
000010 3a cc 28 c0 f8 85 24 c0 ee a6 38 c0 0a 95 41 c0
       -2.637465 -2.5706768 -2.8851886 -3.0247216
000020 6e ff 31 c0 5b a7 33 bf fe cc e3 bf a4 11 49 c0
       -2.7812152 -0.7017724 -1.7796934 -3.1417017
000030 02 26 10 c0 9a 8e 6a 3e 15 93 a9 bf 09 8e 0d c0
       -2.2523198 0.2290596 -1.3248011 -2.2117941
000040 27 83 51 c0 87 b0 0d be b2 fb 10 c0 bf 5f 4e c0
       -3.27363 -0.13836871 -2.2653623 -3.2245939
000050 9f 1a 2f c0 f9 70 f0 3e fd 4c 9b 40 dc fd 20 c0
       -2.7359998 0.4696119 4.853148 -2.5154943
000060 c2 d2 31 3f db e9 74 bf 2a 30 65 c0 49 db c2 3d
       0.69462216 -0.95669335 -3.5810647 0.095144816
000070 7b 0a 55 c0 ee d6 21 c0 32 e5 e7 bf d8 ce f1 3e
       -3.3287647 -2.5287433 -1.811682 0.47228122
000080 28 22 29 c0 03 9e 2b c0 d7 a8 08 c0 ad c6 30 c0
       -2.6427097 -2.6815193 -2.1353052 -2.7621262
000090 17 c1 f8 bf 63 dc 4b 3f 02 29 39 c0 d1 62 5a c0
       -1.9433926 0.7963316 -2.893128 -3.4122813
0000a0 ed 75 18 c0 81 37 31 c0 d4 c3 38 bf 59 9c 03 c0
       -2.3821976 -2.7690127 -0.7217381 -2.0564177
0000b0 48 40 81 3f 3e e6 04 c0 dd 2b 4f c0 fe 02 3e c0
       1.0097742 -2.0765529 -3.2370522 -2.9689326
0000c0 24 ac 26 c0 5f ab 3f c0 8d f8 3d c0 d6 e8 05 c0
       -2.6042566 -2.9948347 -2.9682953 -2.0923362
0000d0 44 d1 67 c0 b3 43 43 c0 d7 bf 29 c0 c0 b0 3e c0
       -3.6221476 -3.051007 -2.652334 -2.979538
0000e0 52 57 0d c0 c9 f3 3a c0 70 43 09 c0 72 5c 33 bf
       -2.2084546 -2.9211295 -2.144741 -0.70062935
0000f0 cf b6 3a 41 d7 e8 47 c0 1d 72 30 c0 cb 8b 1b c0
       11.669631 -3.1235864 -2.756965 -2.4304073
000100 c0 c7 77 3f c5 4b 68 c0 c4 61 35 c0 19 c4 4e c0
       0.9678917 -3.6296246 -2.8340921 -3.2307189
000110 22 92 40 c0 8c c5 39 bf 62 c8 2d 41 cc d0 47 3e
       -3.0089192 -0.7256706 10.861422 0.19513243
000120 6d 9f 16 c0 6b a3 59 c0 11 7c 3a c0 2e 57 85 bf
       -2.3534806 -3.4005992 -2.9138224 -1.041723
000130 13 14 0e c0 8b db 1b c0 47 a2 2c c0 f2 b6 c1 3e
       -2.2199752 -2.4352748 -2.6974046 0.3783489
000140 3f 91 b8 bf 2d ec 5c c0 7a c3 fd bf 33 d5 7e c0
       -1.4419326 -3.451915 -1.982528 -3.9817626
000150 7f 83 46 3f c9 6d 85 c0 87 8a 5d c0 a2 70 46 c0
       0.775444 -4.1696515 -3.46158 -3.1006246
000160 1d 8c 41 c0 d0 48 3a c0 da ad 4e c0 60 3c e8 bf
       -3.0241768 -2.9106941 -3.229361 -1.8143425
000170 3c a4 4d c0 ab a9 30 c0 04 16 27 40 3f af dd bf
       -3.213149 -2.7603557 2.6107187 -1.7319106
000180 82 96 ee bf 52 48 2b c0 96 e7 0b c0 86 ae 14 c0
       -1.8639681 -2.676289 -2.18601 -2.323152
000190 68 36 45 c0 b3 be 80 be 04 33 0c 3f 1f 21 5e bf
       -3.0814457 -0.25145492 0.54765344 -0.8676929
0001a0 b1 82 2b c0 0d 1a 29 c0 a3 4b 4f c0 39 33 1d c0
       -2.6798518 -2.642215 -3.2389915 -2.4562514
0001b0 3b fe 2a 41 44 ad 3a c0 b8 d5 3f c0 f5 24 39 c0
       10.687068 -2.9168253 -2.9974194 -2.8928807
0001c0 b3 7f f5 be 84 f6 59 c0 14 16 43 41 8c b8 42 c0
       -0.4794899 -3.4056711 12.19289 -3.0425138
0001d0 6b 98 3d c0 a2 e5 24 c0 92 e4 0d 3f 94 32 23 c0
       -2.9624279 -2.5765157 0.55426896 -2.549962
0001e0 f5 41 22 41 50 34 1e c0 bd bd 89 3f 88 16 25 3f
       10.141103 -2.471943 1.0761029 0.64487505
0001f0 7a 69 69 c0 85 39 2a c0 fd 1b 56 c0 21 d4 83 be
       -3.6470628 -2.6597607 -3.3454583 -0.2574778

fc2.weight f4 [128, 128]
000000 6d 2c 83 bc 6a b1 7a 3d d2 e4 6a bc 10 df 8a bc
       -0.016012395 0.06120435 -0.014336782 -0.016952068
000010 f2 10 98 bd 47 4d 7e bd 79 f5 b3 bd 3a ac b8 bc
       -0.07425107 -0.062085416 -0.087870546 -0.022543062
000020 f4 12 df bd 41 43 3c 3c 00 5a 7e 3d 04 cd 3d 3d
       -0.10892287 0.011490644 0.06209755 0.046338096
000030 7b 56 b5 bc 7a 28 11 bd 41 d3 dd bd fd f7 bc bd
       -0.022135964 -0.035438992 -0.10831309 -0.092269875
000040 f4 cd 8f bc bb 2b 2d 3d 37 3f 89 bd 4b b4 56 bd
       -0.01755426 0.042278033 -0.067015104 -0.052418035
000050 36 2a 90 bd b0 0c bf bc 8b e1 95 bd 88 df fb bc
       -0.07039301 -0.02332148 -0.073184095 -0.030746236
000060 63 7f 34 bd b7 fb 57 bd 35 46 0d bd 8c 9e c5 bd
       -0.044066798 -0.05273029 -0.034490783 -0.09649381
000070 98 71 9a bc 2a 6a 83 bd 02 c3 1c bd ca 57 73 bc
       -0.018852994 -0.064167336 -0.03827191 -0.0148524735
000080 ea d2 5c bd e5 6b 86 3c d5 bb 11 3c 11 6f 5f bd
       -0.05391208 0.01640887 0.00889488 -0.05454928
000090 d6 e4 ad bc 18 2f 97 bd e2 d0 c3 3c b1 35 e3 bd
       -0.021227282 -0.07382029 0.023903314 -0.11094225
0000a0 d8 b1 e5 bd b8 9f cc bd e9 74 8e bc 1d 59 8b bd
       -0.11215562 -0.099914014 -0.017389731 -0.068041064
0000b0 37 36 9c bd 24 22 17 3c 60 7b 77 bd 26 9c c7 bd
       -0.07627528 0.009224448 -0.060420394 -0.0974658
0000c0 dd 28 34 3d 1d 96 13 bd 81 f2 8e 3c e9 d1 b1 3c
       0.043984283 -0.03603183 0.01744962 0.021706538
0000d0 aa 49 6a 3d a2 ef 1a 3d f6 9b e7 3c 92 59 a2 3b
       0.057199158 0.037826188 0.02827261 0.0049545253
0000e0 82 02 87 3d aa 0b 13 3d 12 5a 4d 3d ff e3 a7 bd
       0.06592275 0.035899796 0.050134726 -0.08197784
0000f0 23 ef 4b 3c cb b5 2e bd 4c 0b f7 bd de 07 cd bc
       0.012447151 -0.04265384 -0.120627016 -0.025028165
000100 70 ae f3 3c c5 78 c4 bd be 80 f2 3c 97 58 b6 3c
       0.029746264 -0.095933475 0.029602405 0.02225904
000110 54 8e 2c 3d c6 33 d8 bc 42 0b c6 3b cf 3a 21 bd
       0.042127922 -0.026391875 0.0060438225 -0.039362725
000120 95 53 b8 3b c7 10 72 3d 45 2d 78 3b f2 cc d6 bd
       0.005625198 0.05909803 0.003786878 -0.10488309
000130 6b 75 24 bd 00 f1 e7 3b f2 ea d1 bd a3 6e 8e bd
       -0.04015104 0.00707829 -0.102498904 -0.06954696
000140 93 84 84 bd 4a b9 9d bd 89 68 dc bd b6 49 9a bd
       -0.06470599 -0.07701357 -0.10762126 -0.075335905
000150 c8 ae 94 bd 63 b0 e1 bd d5 ed 75 bc 6f 93 59 bd
       -0.072598994 -0.11019971 -0.015010317 -0.05311912
000160 38 d2 7e bd c1 b1 b8 3c 34 de 17 bd 58 19 3f bd
       -0.0622122 0.022545697 -0.037077144 -0.04665503
000170 08 8d 62 bd 4e 1b b9 bd 00 0d af bb 2c 25 80 3d
       -0.05531028 -0.09038411 -0.005342126 0.0625709
000180 2b 3b d4 bc 4c 65 63 bc 91 62 b4 3c 75 f6 e2 bd
       -0.02590712 -0.0138791315 0.022019656 -0.11082164
000190 82 c8 24 bd 8b f3 ac bd 4c 26 29 3d 1e 67 63 bd
       -0.04023028 -0.0844489 0.04129629 -0.055518262
0001a0 00 d1 a7 bc af 77 d3 bd b6 a5 89 bc d2 24 72 bd
       -0.020485401 -0.10325562 -0.01680265 -0.059117146
0001b0 f3 fc e3 bd 13 27 1f bd 3f 43 e3 3c 46 f5 14 bd
       -0.111322306 -0.038855623 0.027742026 -0.036366723
0001c0 53 4f 49 bc da ac b6 bc 86 2f 90 3d 21 a1 58 3d
       -0.012286979 -0.022299219 0.070403144 0.05288804
0001d0 3a 50 94 bd 2e 20 4f bd c2 90 86 3c b5 12 ad bd
       -0.072418645 -0.0505678 0.016426448 -0.08450834
0001e0 40 42 93 bd 0c f2 e7 bd 79 88 f5 bd d9 34 88 bd
       -0.071903706 -0.11325464 -0.11988921 -0.06650705
0001f0 9b a4 51 bc 4c 9a 82 bd 57 3e 4c b8 16 67 a0 bd
       -0.012795593 -0.06377086 -4.869545e-05 -0.07832162
000200 9b 0e 50 40 33 06 ca 3f ac 81 15 40 56 2f 09 40
       3.2508914 1.5783142 2.3360395 2.1435142
000210 99 94 dc 3e fc f1 4a 3e f4 b6 62 3f 08 7d 26 40
       0.4308212 0.19818872 0.88560414 2.6013813
000220 98 d6 ac 3e 5d b0 ca 3e 84 4e 64 40 7c e7 75 40
       0.33757472 0.3958768 3.5672922 3.8422537
000230 e4 92 ea bc 65 2b 81 3e 67 95 5b bf ad 87 4f bf
       -0.028634496 0.2522842 -0.85774845 -0.810664
000240 18 95 37 40 2a 90 61 be 81 14 7f 3f 49 b9 fa 3f
       2.868475 -0.2202765 0.9964066 1.9587795
000250 8b 47 a1 3e 96 37 35 3e 5e 07 be 40 21 80 00 40
       0.31499895 0.17696986 5.9383993 2.0078204
000260 25 86 5e 40 30 0d 37 be 08 76 a1 40 0d 7b 1f 40
       3.4769375 -0.17876124 5.045658 2.4918854
000270 50 7c 6a 40 12 4d b6 40 58 d0 0e 3e 4f 5e 8f 3f
       3.6638374 5.696908 0.13946664 1.1200656
000280 92 ca 53 40 92 90 cd 3f 37 09 cb be fc 8e f3 3e
       3.309239 1.6059744 -0.39655468 0.47570026
000290 e8 e7 a8 3e 77 c1 82 3e df 88 0c 40 0f 42 b7 40
       0.3298943 0.25538227 2.195854 5.726814
0002a0 5a 5d f4 3f ae 03 20 40 a8 df 03 40 ff 81 66 40
       1.9090989 2.5002246 2.060526 3.6016843
0002b0 bd ed 99 3e 9d 6b 2d 40 ca 47 85 40 35 64 36 40
       0.30064192 2.7096932 4.1650133 2.8498662
0002c0 82 4c 0c 40 b0 2b 51 3f 22 94 50 3f b8 56 56 40
       2.1921697 0.81707287 0.8147603 3.349043
0002d0 8c 91 35 40 f0 c0 8b 40 f5 3d 1f 40 35 48 06 40
       2.8370085 4.367302 2.4881566 2.0981572
0002e0 88 a6 c3 3f c8 1a f4 3d 87 f1 1f 40 e6 00 3e bf
       1.5285196 0.119191706 2.4991167 -0.7422012
0002f0 96 6e 46 3f d3 28 e6 3f b7 05 e0 3f 7c c7 7f 40
       0.7751249 1.7981209 1.7501744 3.9965506
000300 7b af 95 3e 84 1e 7f 40 e0 dd ad 3f dc db 53 40
       0.29235443 3.9862375 1.3583336 3.3102942
000310 b8 4d e2 3f 0a 7a 9e 3e ec 7a 3f 40 86 89 0f 40
       1.7679968 0.30952483 2.9918776 2.2427688
000320 f2 6a 80 40 7d 8f 0f 40 b6 a6 64 40 7a 90 c4 be
       4.013055 2.2431328 3.5726752 -0.38391477
000330 af c1 12 40 8e ef 82 40 a9 27 97 3f 6b 99 86 bb
       2.2930715 4.0917425 1.1808978 -0.0041076443
000340 62 cb a7 be e7 48 39 40 d3 e7 27 40 09 f5 a3 40
       -0.32772356 2.8950746 2.6235244 5.1236615
000350 4e a1 7a 3e 76 3a da 40 12 a3 44 40 7f d9 ea 3f
       0.24475595 6.8196363 3.072453 1.8347625
000360 e6 40 87 40 d8 b8 ba 40 09 6a 25 40 4e 0c 0d 3e
       4.226672 5.835064 2.5845969 0.13774225
000370 82 86 5a 40 30 c6 11 40 ac d9 f5 be dd 2a a4 3e
       3.4144597 2.2777214 -0.48017633 0.32063952
000380 ab 7e 79 bf 19 e3 24 40 b2 34 6f 3f 94 4f 8e 3f
       -0.97458905 2.576361 0.9343978 1.1118035
000390 7a e3 69 3f 84 e0 0e 3e 6e 2d c3 3e f7 24 ee be
       0.91362727 0.13952833 0.38120598 -0.46512577
0003a0 71 93 18 3f c5 2b fa 3f 1f 74 33 40 c1 b4 e0 3e
       0.5959998 1.9544607 2.8039625 0.43887904
0003b0 6e 74 86 3f 9d 13 87 40 1a dd 64 40 4f 77 df 3f
       1.0504282 4.221144 3.575995 1.7458285
0003c0 9d 63 4e 3e e4 54 8f 40 7d a1 17 3f 1a 54 0d 40
       0.20155187 4.4791126 0.59230787 2.2082582
0003d0 6e e2 1f 3e ec 4a 1c 3f 48 f5 49 40 5b 3c 89 40
       0.1561372 0.6105182 3.1555958 4.2886176
0003e0 f4 26 4f 3f a1 06 45 3f 8b cc 4a 40 41 57 03 3e
       0.8091881 0.7696324 3.1687343 0.12826253
0003f0 32 b5 a6 40 1e a9 e1 3f ff 15 4d 40 54 2d b7 3d
       5.2096186 1.7629735 3.2044675 0.089441925

fc2.bias f4 [128]
000000 b7 26 84 bd 45 9c 75 3f 7e 19 b1 bd c3 da 68 3f
       -0.06452697 0.95941573 -0.086474404 0.90958804
000010 d6 d0 37 3d 03 85 7b bd 31 b5 8f 3d 96 35 f7 bc
       0.044876896 -0.061406147 0.070169814 -0.030176919
000020 6b ba 11 c0 1b c7 67 3f 85 ab 9f 3f 18 6f 61 3f
       -2.277003 0.90538186 1.2474219 0.8806014
000030 81 98 4c 3f 9b b7 1c 3f fe ee 33 c0 ec 62 83 c0
       0.799202 0.6121766 -2.811462 -4.1058254
000040 b1 72 84 3f c2 02 af 3f 13 ba fd bc 63 82 b8 3f
       1.0347501 1.3672717 -0.030972516 1.4414791
000050 68 96 1e bd 73 c5 c1 3f 5c fe af be 5f 61 11 3f
       -0.038717657 1.5138382 -0.34373748 0.567892
000060 91 01 05 3f af 27 0c c0 82 f5 c8 3f 09 96 45 40
       0.51955515 -2.189922 1.5699923 3.0872824
000070 9f 3d bf 3f 5a 89 36 3f eb 9a 86 3f 43 54 d9 3f
       1.494068 0.7130333 1.0516027 1.697884
000080 ed bb c4 3f 2f 65 b4 3f e6 8c 9f 40 6c 14 29 3e
       1.536985 1.4093379 4.9859495 0.16511697
000090 c2 73 5e c0 a5 70 16 c0 b6 30 90 3f ad 86 36 bd
       -3.4758153 -2.3506253 1.1264865 -0.04456203
0000a0 6c f9 c5 3f 97 53 9f bd b9 02 d9 3f 3a 93 d1 3f
       1.5466743 -0.07779615 1.6953956 1.6373055
0000b0 ec ea f9 bf 7e 4c 96 3f ab 93 bb 3f c7 e7 49 3d
       -1.9524817 1.1742094 1.465444 0.049293306
0000c0 d8 0b 8d c0 75 a4 1d bd 68 9b 64 bd dc 61 8c 40
       -4.407696 -0.038486917 -0.05581227 4.3869457
0000d0 7a 94 73 3d e2 42 57 3f 5c 51 7c 3f 3d 0b 50 3f
       0.05946777 0.8408643 0.98561645 0.8126715
0000e0 c0 bb 90 bb e4 28 58 3e 6a 97 10 c0 da 8d 46 3f
       -0.004416913 0.21109349 -2.2592416 0.775602
0000f0 1a 28 89 3f 4b 08 11 3e 50 7b 61 c0 54 5c 47 c0
       1.0715363 0.1416332 -3.5231514 -3.1150103
000100 26 b9 1c 3f a4 1d 77 3f 6c 47 35 c0 63 c3 97 3f
       0.61220014 0.96529603 -2.8324842 1.1856502
000110 5d e3 18 3d 95 ef 50 40 ba f8 18 3f 44 6d 16 c0
       0.037326206 3.264623 0.59754527 -2.350419
000120 c9 8f cf bc 17 66 9c 3f 01 f7 e0 3f 29 36 60 3f
       -0.025337117 1.2218655 1.757538 0.8758264
000130 8d 55 57 40 a5 11 25 3f 65 13 85 c0 60 b6 73 bd
       3.3645966 0.6448005 -4.1586175 -0.0595001
000140 f2 14 64 3d 93 72 09 bd 88 15 ac 3f 73 91 62 3f
       0.055684038 -0.033556532 1.3444071 0.8850319
000150 fb 99 80 40 6f 81 9a c0 96 f3 6d 40 65 a3 7d 3f
       4.0187964 -4.8283 3.7179923 0.99077445
000160 00 bc 8b 3f 2f 9a d1 3f 74 14 b2 bc 95 04 f1 bc
       1.0916748 1.6375178 -0.021738268 -0.02942113
000170 95 0b 5d c0 34 98 85 3f 8d ec 94 3f 1f 6a 95 3e
       -3.453832 1.0437074 1.163469 0.29182526
000180 5f 72 65 bd 13 aa a9 3f 5f 22 90 3f e5 db 8b 3f
       -0.056017276 1.3255028 1.1260489 1.0926481
000190 31 94 bc bd 6c 45 79 40 3d 72 44 bf 28 36 59 bd
       -0.09207953 3.8948622 -0.76736814 -0.053030163
0001a0 ae 77 4f 3f 85 37 a5 3f ca 9a 65 3e b4 a6 d2 bd
       0.8104199 1.2907568 0.22422329 -0.10285702
0001b0 8a 1b bd 3f 7a 89 3e 40 99 3c c9 3f 7b 01 e1 3f
       1.4774029 2.977141 1.5721618 1.7578577
0001c0 f0 d8 aa bd 96 0f 0e be 11 49 8e c0 20 0b 3d 3f
       -0.08342159 -0.13873133 -4.4464192 0.738451
0001d0 0b cf 9e 3f 03 2e aa 3f e2 07 79 3f 8e 88 a4 3f
       1.2406934 1.3295292 0.97277653 1.2854173
0001e0 14 53 b3 3f 5a da ff bc c6 48 92 bd e5 42 9e 3c
       1.4009728 -0.031232048 -0.07142787 0.019319007
0001f0 b4 16 90 3f ca 76 67 3f 1c ac 41 c0 16 c5 a5 3f
       1.1256928 0.9041563 -3.0261297 1.2950771

fc3.weight f4 [4, 128]
000000 19 60 20 3d 26 e7 89 3f 6c 40 40 bd 83 fa 9c 3f
       0.039154146 1.0773666 -0.046936437 1.226395
000010 52 03 36 3d aa c8 85 bc d3 f2 2a bd c3 32 0c bd
       0.04443676 -0.016331036 -0.04173548 -0.034228098
000020 72 c2 6c 3f 26 c0 87 3f e2 cd 83 3f 81 af 43 3f
       0.924842 1.0605514 1.0297205 0.7643967
000030 d9 07 69 3f 61 9f 8d 3f bb 6e c2 3f 06 a3 8a 40
       0.910276 1.1064264 1.5190042 4.3324003
000040 9a 0a 97 3f 75 88 93 3f ca 6a 45 bd c6 b9 90 3f
       1.180011 1.1526018 -0.048197545 1.1306694
000050 ef 5f 18 37 b3 66 8c 3f 8a b5 81 3f 91 d0 8e 3f
       9.082242e-06 1.0968841 1.0133526 1.11574
000060 b0 b2 65 3f 99 9f f5 3e ee 14 95 3f 1a cb 9e 3f
       0.8972578 0.47973326 1.1647012 1.2405732
000070 fb 7c 61 3f ad 4e 67 3f 37 e1 91 3f bd 59 88 3f
       0.8808133 0.90354425 1.1396855 1.0652386
000080 cc 9d 92 3f f0 e4 63 3f 96 84 65 bf ea 21 4a 3f
       1.1454406 0.89021206 -0.89655435 0.78958
000090 84 57 26 40 d1 3b a1 3e c6 15 5f 3f 91 7c 0a bd
       2.5990915 0.3149095 0.871426 -0.033810202
0000a0 64 e5 8b 3f 04 8a 12 3d 41 9e 8c 3f da 91 95 3f
       1.092938 0.035776153 1.0985795 1.1685135
0000b0 31 99 89 3f f6 bb 86 3f 7e f7 96 3f 59 00 79 bb
       1.0749875 1.0526111 1.1794279 -0.0037994592
0000c0 41 05 a0 40 69 f2 32 bd db 91 5a bd 28 8a 7f 40
       5.0006413 -0.04368821 -0.053361755 3.9928074
0000d0 a0 cf 33 3c fb 48 86 3f 68 7b 94 3f 9e 1f 53 3f
       0.010974795 1.0491022 1.1600161 0.8247012
0000e0 69 78 84 3d f2 df 34 3f e0 cd a7 3f 63 82 84 3f
       0.06468279 0.70654213 1.3109703 1.0352291
0000f0 1b 7e 90 3f df 9a 59 3f c6 a7 f2 3f 3a 85 1d 40
       1.1288484 0.8500194 1.895745 2.4612565
000100 6b a4 83 3f b9 d0 95 3f da 05 3f 40 39 c3 89 3f
       1.0284551 1.1704322 2.9847322 1.0762702
000110 4e eb 9b 3d f0 97 3d 40 7d 31 89 3f c3 de 9b 3e
       0.0761324 2.9623985 1.0718228 0.3044339
000120 95 35 86 bd e1 aa 85 3f f6 60 a0 3f f0 45 89 3f
       -0.06553189 1.0442773 1.252959 1.0724468
000130 a9 05 08 40 a3 e3 51 3f c9 be 69 40 b2 b5 9e bc
       2.1253455 0.8198797 3.6522696 -0.019373748
000140 96 bc fe bc ee c3 ce bc 36 a2 81 3f 4c 6a 3e 3f
       -0.031095784 -0.02523991 1.0127628 0.74380946
000150 5f a7 74 40 d5 49 d5 40 c6 d1 64 40 27 7a 73 3f
       3.8227155 6.6652627 3.5753036 0.95108265
000160 34 fe 60 3f 86 b2 91 3f 45 4e 1b 3b 20 43 aa bc
       0.87887883 1.1382606 0.0023697775 -0.02078396
000170 c4 74 c7 3f 1c e7 66 3f 09 38 95 3f 16 da 58 3f
       1.5582509 0.90196395 1.1657726 0.8470777
000180 27 ef f2 3c 38 e3 7b 3f 35 15 97 3f 6e f6 8d 3f
       0.029655052 0.98393583 1.1803347 1.1090829
000190 53 0c 64 bd bf 19 85 40 1c 61 3a 3f b3 44 44 bd
       -0.055675816 4.159393 0.7280443 -0.04791708
0001a0 50 a6 4c 3f cc 5c 7c 3f 90 d5 1f 3f 39 44 94 bd
       0.7994127 0.98579097 0.62435246 -0.07239575
0001b0 7c 97 8e 3f f5 28 a2 3f 02 25 70 3f 6c 43 91 3f
       1.1139979 1.2668749 0.9380647 1.13487
0001c0 cd f8 81 bd 89 58 71 3f 93 e3 d5 40 f9 b2 44 3f
       -0.06346283 0.9427572 6.68403 0.7683559
0001d0 d6 a1 4f 3f bc ef 94 3f c4 74 86 3f 63 6b 95 3f
       0.8110632 1.1635661 1.0504384 1.1673397
0001e0 3b db 81 3f ef da db 3c be 87 fe bb fe 88 45 3c
       1.0145029 0.026837794 -0.0077676466 0.012056587
0001f0 2c 23 90 3f 5f 4c 63 3f e7 64 d6 40 3c ae 96 3f
       1.1260734 0.8878841 6.699817 1.1771922
000200 80 b2 eb b9 1a c0 30 3f e0 b4 4c 3c cd 3c 4a 3f
       -0.00044955686 0.69043124 0.012494296 0.78999025
000210 1b 07 59 bd 12 d5 62 bd 72 f5 7f bd 5b 2e 17 bc
       -0.052985292 -0.05537898 -0.062489934 -0.009227361
000220 1f e8 29 40 e9 f4 37 3f e1 78 56 3f 32 b0 63 3f
       2.6547925 0.7185808 0.83778197 0.8894073
000230 50 06 34 3f 21 8f 67 3f 61 65 6c 40 53 ab ab 40
       0.7032213 0.9045277 3.6936877 5.3646636
000240 38 c0 4f 3f e6 80 54 3f 48 3c 3d 3d 9c 4e 6e 3f
       0.8115268 0.83009183 0.046200067 0.930887
000250 1c 22 20 bd 3c 0d 70 3f dc aa 09 3f 7e ae 21 3f
       -0.03909503 0.93770194 0.53776336 0.6315688
000260 29 82 23 3f 8e 71 34 40 d7 ac 83 3f 5e 09 10 40
       0.63870484 2.8194308 1.0287122 2.2505717
000270 d2 13 89 3f 97 d7 50 3f 6a d8 19 3f c4 67 91 3f
       1.0709174 0.81578964 0.60095847 1.1359792
000280 5d 89 83 3f 1a 1a 86 3f 98 98 ce 40 7d 70 30 3f
       1.0276295 1.0476716 6.456127 0.68921643
000290 47 f5 f3 40 37 59 24 40 9a 27 80 3f bf 3e 5d 3c
       7.623691 2.5679452 1.0012085 0.013503729
0002a0 fc ac 86 3f f9 06 95 bc 5b a1 90 3f 39 01 86 3f
       1.0521541 -0.018191801 1.1299242 1.0469123
0002b0 f3 68 f2 3f 64 56 4f 3f af e6 5d 3f c5 6f 16 bc
       1.8938278 0.80991197 0.8668012 -0.009181921
0002c0 bf bc 9f 40 b1 c6 0f bb 9f f4 0e 3b fa 69 ae 40
       4.9917903 -0.0021938498 0.0021813286 5.4504366
0002d0 70 a6 6c 3c 3b 97 35 3f 76 54 31 3f c3 34 3d 3f
       0.014443979 0.70933884 0.692695 0.73908633
0002e0 20 a0 af bb e3 d4 0c 3f b5 34 83 40 ea f6 33 3f
       -0.0053596646 0.5501234 4.100184 0.70298636
0002f0 a7 07 32 3f a9 31 e4 3e bc 60 8b 40 52 77 88 40
       0.69542927 0.44569138 4.3555584 4.2645655
000300 aa c8 1c 3f 12 fb 43 3f 78 45 89 40 09 e0 58 3f
       0.6124369 0.7655498 4.28973 0.8471685
000310 bc 3d d8 3b 0f eb 5f 40 9f 77 22 3f 54 db 1d 40
       0.006599156 3.4987218 0.6346378 2.4665117
000320 47 d1 57 bb 5a f4 53 3f 0d 3a 88 3f 92 57 2f bf
       -0.0032931136 0.82794726 1.0642716 -0.68492997
000330 3c d9 ce 3f d7 84 2d 3f 40 c8 b8 40 f1 eb a0 3d
       1.6160045 0.6778082 5.7744446 0.07857502
000340 2e 8d 83 bd 81 11 3c 3b d8 44 5b 3f e4 5f 67 3f
       -0.06423412 0.0028696957 0.8565192 0.9038069
000350 2b 9a bb 40 2c 14 a4 40 6b 8b 9b 40 8a f9 64 3f
       5.8625693 5.1274624 4.860769 0.89443266
000360 eb 25 7f 3f 07 db 86 3f 8c 5a 41 bc 20 40 44 bd
       0.99667233 1.0535592 -0.011801373 -0.047912717
000370 1f 14 7a 40 23 75 5d 3f 12 81 50 3f 0a ea 55 3f
       3.907478 0.8650686 0.81446946 0.8356024
000380 d7 34 bc bc bd fd 78 3f 81 85 6b 3f ba f2 34 3f
       -0.022974415 0.97262174 0.92000586 0.7068287
000390 fa 2d 67 bd d5 74 a4 40 d8 d7 25 3f 34 39 b3 3c
       -0.05644033 5.1392617 0.64782476 0.021877863
0003a0 6c f1 31 3f d7 b1 87 3f 7e 4d 91 3e 08 77 f7 3b
       0.69509006 1.0601147 0.28379434 0.0075520314
0003b0 10 78 78 3f 47 3b 10 40 f8 89 8c 3f e0 92 8a 3f
       0.970582 2.253618 1.0979605 1.0826073
0003c0 23 b0 ee 3c bb 50 d3 3e 9e 27 b8 40 4f 0c 4a 3f
       0.029136723 0.4127253 5.754836 0.7892503
0003d0 0c 77 81 3f 80 9c 43 3f f5 c9 59 3f 76 e0 55 3f
       1.0114455 0.76410675 0.85073787 0.83545625
0003e0 98 e8 78 3f 62 6b 5e 3d 6a f3 09 bd 85 ac 16 3d
       0.9722991 0.054301627 -0.033679403 0.03678562
0003f0 31 15 37 3f ef 8c 6f 3f bc d8 8e 40 7f cf 80 3f
       0.7151671 0.9357442 4.463957 1.0063323

fc3.bias f4 [4]
000000 cb 26 cd 3f 12 38 a7 40 37 5a 09 be 64 d7 5a bf
       1.6027464 5.2255945 -0.1341332 -0.8548491
