ai/models/dqn/trained_models/dqn_2048_100.pth (torch, 78975 bytes, 6 tensors)

fc1.weight f4 [128, 16]
00000000: 00b7 4b3d 3f47 713c bbc9 32bc 36cf fe3a
00000010: 5500 0cbe 598f 803d c413 8c3e 1c1f 8fbd
00000020: c002 983e 8082 093e fcb0 7e3e 2e52 203e
00000030: 34cc 9a3d 7204 a73e a996 e13e 04c7 b43e
00000040: 3107 cd3e de1e 9b3e 363d 013f a34e 393d
00000050: 0670 d43e b0b0 c33c 6070 86bc d64c c23e
00000060: 5519 4fbe 777d af3e 2d53 febc b2f6 513e
00000070: a9b8 77be 12a2 febd 5fb2 b63e 14ca 42be
00000080: 4158 8f3d d95d ef3e 3373 ff3e 6b1b b63e
00000090: 716d b83e 8d2d 2ebd 9547 dc3e e004 db3d
000000a0: 9714 ad3e 8769 8b3e c924 59bd f2c7 923e
000000b0: 0e12 883e d3d0 6e3e 5db4 f4bd 4f47 d8bd
000000c0: d052 8dbe 9e76 963d b9bf 8c3e 70b5 45be
000000d0: 02bf e83d 37f3 063e 062f fd3e 653a 14be
000000e0: 1014 933e d64f c43d 91dc 583d 772d bc3d
000000f0: a75b 703e a329 a93d 8125 373e 29d2 31be
00000100: 68a3 883e b986 333e 6ad4 f53e 1bd5 363e
00000110: e906 0b3e b7aa 5c3e fc89 c23d 5f22 d53e
00000120: b705 57bd df00 853e 67b2 38bd 1a7a ef3e
00000130: 79b7 803e 5c7e dd3e 0304 213d 9045 413e
00000140: 7ec0 17be 50e0 163e feef f03e cb7d bf3e
00000150: 2686 09be 828f a23e e5a6 993d 3540 b63d
00000160: cc29 e13d 64a1 813c 0b23 ad3e 7038 cf3e
00000170: 7ffd 963e 27c7 abbd 280b d13e 0f47 c23e
00000180: e8b8 06be d4e6 913e e5ed ce3e 446d 843c
00000190: dd61 cc3e 0dc8 c63e fd8d 173d 53dd dd3e
000001a0: 7d87 b3bc 5883 a43e 9cdc 033d d97b 833e
000001b0: 9a8a a63e 0de3 b63e 424b c93e 2841 dcbb
000001c0: c705 173c 7740 d83e ca77 203c 640d 913d
000001d0: 15d5 493e f068 5f3d 9a77 9b3e a0d8 ee3e
000001e0: c77d ba3e c07b 953e 3641 253e 5b00 593e
000001f0: d29b 123e 413e d23e 3919 823d cf14 f6bc
00000200: 701d 403e d16f 9f3d eb41 db3e 6db0 a13e
00000210: 1916 a73e 0be8 69bc 29e5 383d 858b ab3d
00000220: e22b 92bd 31b5 09bd 105f 863d 2551 643e
00000230: 48ca 653c 2c2b 703e 7f2e af3e dc4a b63e
00000240: 9cc9 a13e d079 753e ae25 cb3e e329 8e3e
00000250: fd03 793e 0e3e 3a3d c1ed 8b3e e9e7 8a3e
00000260: 9836 543e 37db a33e 23ff 683e e58b dc3e
00000270: af97 b03e acf7 903e 8388 ce3e 4305 2d3e
00000280: d536 e9bd 682b be3e 00c2 a43e e142 d83e
00000290: 2b08 d33e ac17 3bbc a4e9 c73c 5bf9 5a3e
000002a0: f3ff 8fbc 95d6 013e 69f3 423e 5072 b03e
000002b0: 9eed 0d3e 0408 333c d9ed 46bc 9ec5 bd3d
000002c0: e4ce f6bd abd8 d93d 63b9 cc3e f5a5 433e
000002d0: 6b79 f3bd 02e7 023d 6f69 d63d f2be 253e
000002e0: 8637 cabc b247 af3e 613a 673e 838d 583e
000002f0: 1131 153e e071 903e c772 3f3e 9ca7 a73e
00000300: 7568 c4bd fb87 b23e 9ba8 803d 2b70 ab3e
00000310: 5ed8 df3d 3e70 ae3e 2a23 943c b2f2 003e
00000320: 0e49 943e 4a2f 53bd 8989 b33e 4997 bd3e
00000330: 0d5b fe3d ec1e 9ebd 546d 8e3e 46a6 b63e
00000340: 5324 0a3e c792 e03e 4981 303e c4df c53e
00000350: b352 313e 1fab 023d 2d0b 4f3e 6faa 923c
00000360: 256f a33e b61f 4bbe 9270 7e3e 003b d73e
00000370: 7899 8f3e 530a 9e3d e0ff a23e 0678 9e3e
00000380: 828c a03e 6930 bd3c 1586 a83e 5286 b43e
00000390: c119 a13e 1394 353e da17 ed3e 9cb3 f53e
000003a0: 0788 853e bb17 1ebe 679e 783e 00a4 b63d
000003b0: ef7b e93a 9a8b df3e 01f9 243e a377 a33e
000003c0: 4671 9f3e 89c1 fe3e 9693 f73e 38d2 f6ba
000003d0: 687b 3d3e 7259 f03d 9226 d63e cfd8 053f
000003e0: 8cf7 ab3c 7b8a 8c3e 2202 4f3e 6f50 8c3e
000003f0: 102f 23bd aa05 b53d 1df9 06bd 3b27 853e
0.04973507 0.014726459 -0.010912354 0.0019440416 -0.13672002 0.062773414 0.2735883 -0.069883555
0.29689598 0.13428688 0.24872202 0.15656349 0.0755848 0.3262058 0.44060257 0.35308087
0.4004455 0.30296987 0.50484025 0.04524101 0.41491717 0.023887962 -0.016411006 0.37949246
-0.20224507 0.3427541 -0.03104552 0.20504263 -0.24191536 -0.12433256 0.3568296 -0.19022399
0.06999255 0.46751288 0.49892578 0.35567793 0.36020997 -0.04252391 0.43023363 0.10694289
0.3380477 0.27228948 -0.053013597 0.2866817 0.26576275 0.23321848 -0.11948464 -0.10560476
-0.27602243 0.07346843 0.27490023 -0.19307494 0.11364557 0.13178717 0.4944994 -0.14475401
0.28726244 0.0958554 0.052944724 0.09188359 0.23472463 0.08259895 0.178854 -0.17365326
0.2668717 0.17531861 0.48013622 0.17854731 0.13576855 0.21549498 0.09498975 0.41627786
-0.052495684 0.25977227 -0.045092013 0.46772844 0.2513998 0.43260467 0.039310466 0.18874192
-0.14819524 0.14734006 0.470581 0.3740066 -0.1343008 0.31750113 0.07502536 0.08898965
0.109943 0.015824027 0.33815798 0.40472746 0.29490277 -0.08387595 0.40828824 0.37944838
-0.13156474 0.2849642 0.40415874 0.016165383 0.39918414 0.38824502 0.037000645 0.4333292
-0.021915192 0.32131457 0.03219281 0.25680426 0.3252762 0.357201 0.3931523 -0.0067216344
0.009217686 0.42236683 0.009794185 0.07082632 0.1971019 0.054543436 0.30364686 0.46649647
0.36424085 0.29195976 0.16138157 0.21191542 0.14317253 0.4106312 0.06352467 -0.03003922
0.1876123 0.07784999 0.4282373 0.31579915 0.32634047 -0.014276515 0.04514042 0.083762206
-0.07137276 -0.033620063 0.065611005 0.22296579 0.014025278 0.23453969 0.3421516 0.35603988
0.31599128 0.23972249 0.39677185 0.27766332 0.24317928 0.045469336 0.2732983 0.27130058
0.20723951 0.32003185 0.22753577 0.4307548 0.34490725 0.2831396 0.40338525 0.16896538
-0.113874115 0.3714249 0.3217926 0.42238525 0.4121717 -0.011419218 0.0244034 0.21384184
-0.0175781 0.12679513 0.19038166 0.34462214 0.13860175 0.010927204 -0.012141668 0.09266208
-0.1205118 0.10637029 0.3998519 0.19106276 -0.11888393 0.031958587 0.104693286 0.16186121
-0.024684679 0.34234387 0.22580864 0.21147732 0.14569499 0.2821188 0.18696128 0.32745063
-0.09590236 0.3486937 0.06282159 0.33484015 0.10929941 0.3407001 0.018083174 0.12592581
0.28961986 -0.05155877 0.35065868 0.37029484 0.1241971 -0.07720742 0.27817786 0.35673732
0.13490419 0.43861982 0.17236818 0.38647282 0.17316703 0.031901475 0.20219107 0.017903535
0.31920734 -0.19836316 0.2484763 0.420372 0.28046775 0.07716813 0.31835842 0.30950946
0.313572 0.023094373 0.32914796 0.35258728 0.3146496 0.17732267 0.4630726 0.47988594
0.26080343 -0.1543874 0.24279176 0.08917999 0.0017813424 0.43661195 0.16110612 0.31927213
0.31141108 0.4975703 0.48354787 -0.0018830961 0.18504107 0.1173581 0.41826302 0.5228395
0.020992063 0.27449402 0.20215657 0.27405116 -0.039839804 0.08838971 -0.032952417 0.26006493

fc1.bias f4 [128]
00000000: 0d50 f0bf e109 ddbf ac92 bfbf b3d9 06c0
00000010: 6538 dbbf 5918 d9bf ae99 d9bf 5cf6 c1bf
00000020: afec e2bf 1f70 cbbf 97d6 a0bf c34c c9bf
00000030: e7e7 b4bf fe61 b1bf 6c31 c4bf d3a1 b8bf
00000040: 200c 0dc0 80f8 bcbf 1827 afbf 0742 f3bf
00000050: 09dc aabf 80ea acbf 640f c2bf af7b b3bf
00000060: 12b9 96bf 6dd9 a8bf c62b 11c0 86b7 b5bf
00000070: fe69 e5bf e4a0 c6bf 577f d0bf 2e9c b1bf
00000080: 0730 cdbf 67e3 cabf c883 c0bf 490e debf
00000090: fd2e b9bf 9cb8 a8bf 9524 d2bf c8d8 fcbf
000000a0: f449 b3bf 1189 c8bf 7de5 a6bf 3e37 eabf
000000b0: a021 9bbf e06c b5bf fb50 b5bf 072d d4bf
000000c0: af97 d1bf 2ddd e4bf 071e cbbf 20ff c8bf
000000d0: 46c6 f1bf b33e 04c0 9800 bfbf f1a4 e7bf
000000e0: c7f3 c1bf 71fd dfbf a1dd 9cbf 7c7f b5bf
000000f0: f1e0 1440 f302 ecbf a121 c4bf 0e87 e7bf
00000100: 97fc 99bf 869c cabf 3441 cbbf 657e cebf
00000110: ea77 a6bf 63ca c9bf 99db 1140 b870 bebf
00000120: 69a6 cbbf 7cb6 cfbf 1f13 bdbf d4c3 9ebf
00000130: 930e d6bf 8749 babf c57e cabf e637 b2bf
00000140: 3291 cabf f881 03c0 6873 cebf 2a4e f7bf
00000150: c974 a8bf 7a55 07c0 0637 e3bf 185f e8bf
00000160: b18c e4bf 7051 ecbf feb0 c8bf 00d7 a1bf
00000170: fb3e febf 8b19 c4bf 74d2 fd3f ac31 a8bf
00000180: e886 cdbf 20d4 c8bf 73a2 c2bf 8f1d aabf
00000190: 5339 d7bf 0035 c0bf 8bcd 99bf 0880 d5bf
000001a0: 3996 b5bf 0bf3 c6bf 1d10 e7bf 3b89 bfbf
000001b0: 69d2 1e40 6179 f3bf 68b9 c5bf 5840 c4bf
000001c0: 8901 b9bf a3ed d9bf 6c19 e43f 1581 09c0
000001d0: 54b8 dfbf b717 d4bf 0395 ddbe d966 e1bf
000001e0: f9d8 0340 0a36 bfbf 0b77 d4bf a94d 9dbf
000001f0: 0858 06c0 9e7a f3bf 5f17 0cc0 0feb c4bf
-1.877443 -1.726864 -1.4966636 -2.1070373 -1.7126585 -1.6960555 -1.7000024 -1.5153308
-1.772848 -1.5893592 -1.2565488 -1.5726551 -1.4133271 -1.385803 -1.5327582 -1.4424385
-2.203865 -1.4763336 -1.3683805 -1.9004525 -1.3348399 -1.3509064 -1.5160947 -1.402212
-1.1775229 -1.3191353 -2.2682967 -1.4196632 -1.7922971 -1.551785 -1.6288861 -1.3875787
-1.6030282 -1.5850648 -1.5040216 -1.734811 -1.4467465 -1.3181338 -1.6417414 -1.9753656
-1.4006944 -1.5666829 -1.3038784 -1.8298109 -1.2119637 -1.4173851 -1.4165338 -1.6576241
-1.6374415 -1.7879997 -1.5868539 -1.5702858 -1.8888633 -2.0663269 -1.4922056 -1.8097211
-1.515252 -1.7499219 -1.2255136 -1.417953 2.3262293 -1.84384 -1.5322763 -1.808809
-1.2030209 -1.5829017 -1.5879273 -1.6132323 -1.3005345 -1.5764889 2.2790282 -1.4878149
-1.5910159 -1.6227565 -1.477146 -1.2403512 -1.6723198 -1.4553689 -1.5819937 -1.3923309
-1.582556 -2.0548077 -1.6128969 -1.9320729 -1.316064 -2.114592 -1.7751167 -1.815402
-1.7855436 -1.8462353 -1.5679014 -1.2643738 -1.986297 -1.5320295 1.982985 -1.3140159
-1.6056795 -1.5689735 -1.5205826 -1.329027 -1.6814369 -1.5016174 -1.2015852 -1.6679697
-1.4186469 -1.5542921 -1.8051792 -1.4963754 2.4815924 -1.9021417 -1.5447206 -1.5332136
-1.4453593 -1.7025646 1.7820258 -2.1485035 -1.7478127 -1.6569737 -0.4327775 -1.7609512
2.060118 -1.4938366 -1.6598829 -1.2289325 -2.099123 -1.9021795 -2.1889265 -1.5384234

fc2.weight f4 [128, 128]
00000000: 6d2c 83bc 6ab1 7a3d d2e4 6abc 10df 8abc
00000010: f210 98bd 474d 7ebd 79f5 b3bd 3aac b8bc
00000020: f412 dfbd 4143 3c3c 005a 7e3d 04cd 3d3d
00000030: 7b56 b5bc 7a28 11bd 41d3 ddbd fdf7 bcbd
00000040: f4cd 8fbc bb2b 2d3d 373f 89bd 4bb4 56bd
00000050: 362a 90bd b00c bfbc 8be1 95bd 88df fbbc
00000060: 637f 34bd b7fb 57bd 3546 0dbd 8c9e c5bd
00000070: 9871 9abc 2a6a 83bd 02c3 1cbd ca57 73bc
00000080: ead2 5cbd e56b 863c d5bb 113c 116f 5fbd
00000090: d6e4 adbc 182f 97bd e2d0 c33c b135 e3bd
000000a0: d8b1 e5bd b89f ccbd e974 8ebc 1d59 8bbd
000000b0: 3736 9cbd 2422 173c 607b 77bd 269c c7bd
000000c0: dd28 343d 1d96 13bd 81f2 8e3c e9d1 b13c
000000d0: aa49 6a3d a2ef 1a3d f69b e73c 9259 a23b
000000e0: 8202 873d aa0b 133d 125a 4d3d ffe3 a7bd
000000f0: 23ef 4b3c cbb5 2ebd 4c0b f7bd de07 cdbc
00000100: 70ae f33c c578 c4bd be80 f23c 9758 b63c
00000110: 548e 2c3d c633 d8bc 420b c63b cf3a 21bd
00000120: 9553 b83b c710 723d 452d 783b f2cc d6bd
00000130: 6b75 24bd 00f1 e73b f2ea d1bd a36e 8ebd
00000140: 9384 84bd 4ab9 9dbd 8968 dcbd b649 9abd
00000150: c8ae 94bd 63b0 e1bd d5ed 75bc 6f93 59bd
00000160: 38d2 7ebd c1b1 b83c 34de 17bd 5819 3fbd
00000170: 088d 62bd 4e1b b9bd 000d afbb 2c25 803d
00000180: 2b3b d4bc 4c65 63bc 9162 b43c 75f6 e2bd
00000190: 82c8 24bd 8bf3 acbd 4c26 293d 1e67 63bd
000001a0: 00d1 a7bc af77 d3bd b6a5 89bc d224 72bd
000001b0: f3fc e3bd 1327 1fbd 3f43 e33c 46f5 14bd
000001c0: 534f 49bc daac b6bc 862f 903d 21a1 583d
000001d0: 3a50 94bd 2e20 4fbd c290 863c b512 adbd
000001e0: 4042 93bd 0cf2 e7bd 7988 f5bd d934 88bd
000001f0: 9ba4 51bc 4c9a 82bd 573e 4cb8 1667 a0bd
00000200: c3e0 fc3e 3590 073f 590b 913e c337 313f
00000210: 03bf dd3e 33a8 8d3e aa74 da3e d8ec 9a3e
00000220: e592 103f 258a ad3e cc91 893e 3eee ae3e
00000230: 7192 843e 83b9 a53e 2987 ad3e 1607 b23e
00000240: 8772 ac3f 7382 833e d086 783e 66ed f33e
00000250: 5591 953e 5502 9e3e 6683 623f 62c5 a73e
00000260: 1e18 853f 9e3f d43e 2e65 3a3f 8681 313f
00000270: ea4c c63e 429e 063f aaed d33e 05f9 533e
00000280: 620a ad3e 1d30 753e aa95 943e 204d aa3e
00000290: 49a9 f03e 83de 623e 4426 993e 2606 b73e
000002a0: a301 bf3e ba2a 783e 768e 8a3e 8ffe d33e
000002b0: fe4f 653e 76c4 bc3e 5736 2c3e 7d43 de3e
000002c0: e677 333f edfc bd3e 9f81 a23e 748c 813f
000002d0: 37ea c73e a778 963f 8042 7e3e 720a ae3f
000002e0: 371f 613f 3d37 c93e b207 a23e 6a65 893e
000002f0: f760 43bf 6326 d43e 95a9 cf3e 8ee2 053f
00000300: 0043 993e a6b9 fd3e d2fc a53e 9ba7 1c3f
00000310: 4b85 9f3e 3fc5 893e 1eaf 9ebf 94c8 0440
00000320: d3ea 993f c722 c13e 1d7e 5f3e cc39 7e3e
00000330: b433 023f f605 bd3f 7e22 be3e 68e8 ae3e
00000340: ec3b ba3e dc5a 573f 91ac d93e 9478 a93e
00000350: 0d7e 793e 2d08 c73f 66ed 1340 733a ab3e
00000360: 1b01 da3e 95e1 a43f 39f9 a03e 0a51 6e3e
00000370: 5837 df3e c636 c03e 5d82 a3bf 47e6 b23e
00000380: 81fb 9a3e 0363 b33e 2120 683e d8ca 6b3e
00000390: 39f5 b63e f7bf ac3e dcfc b93e 8dcd ab3e
000003a0: db9d 8a3e 5d4c 9c3e 195f 053f daef ab3e
000003b0: 0aec 50bf 3832 403f c917 a83e 7c01 c83e
000003c0: 760f dc3e 95db c43e 5d82 77bf ff70 923f
000003d0: 8a48 c73e c3f7 d33e d4a8 5f40 175f 1f3f
000003e0: e7a5 42bf 0014 ab3e d727 cb3f 86d3 a53e
000003f0: 5be8 573f d8e4 cf3e 3416 ce3f a343 913e
-0.016012395 0.06120435 -0.014336782 -0.016952068 -0.07425107 -0.062085416 -0.087870546 -0.022543062
-0.10892287 0.011490644 0.06209755 0.046338096 -0.022135964 -0.035438992 -0.10831309 -0.092269875
-0.01755426 0.042278033 -0.067015104 -0.052418035 -0.07039301 -0.02332148 -0.073184095 -0.030746236
-0.044066798 -0.05273029 -0.034490783 -0.09649381 -0.018852994 -0.064167336 -0.03827191 -0.0148524735
-0.05391208 0.01640887 0.00889488 -0.05454928 -0.021227282 -0.07382029 0.023903314 -0.11094225
-0.11215562 -0.099914014 -0.017389731 -0.068041064 -0.07627528 0.009224448 -0.060420394 -0.0974658
0.043984283 -0.03603183 0.01744962 0.021706538 0.057199158 0.037826188 0.02827261 0.0049545253
0.06592275 0.035899796 0.050134726 -0.08197784 0.012447151 -0.04265384 -0.120627016 -0.025028165
0.029746264 -0.095933475 0.029602405 0.02225904 0.042127922 -0.026391875 0.0060438225 -0.039362725
0.005625198 0.05909803 0.003786878 -0.10488309 -0.04015104 0.00707829 -0.102498904 -0.06954696
-0.06470599 -0.07701357 -0.10762126 -0.075335905 -0.072598994 -0.11019971 -0.015010317 -0.05311912
-0.0622122 0.022545697 -0.037077144 -0.04665503 -0.05531028 -0.09038411 -0.005342126 0.0625709
-0.02590712 -0.0138791315 0.022019656 -0.11082164 -0.04023028 -0.0844489 0.04129629 -0.055518262
-0.020485401 -0.10325562 -0.01680265 -0.059117146 -0.111322306 -0.038855623 0.027742026 -0.036366723
-0.012286979 -0.022299219 0.070403144 0.05288804 -0.072418645 -0.0505678 0.016426448 -0.08450834
-0.071903706 -0.11325464 -0.11988921 -0.06650705 -0.012795593 -0.06377086 -4.869545e-05 -0.07832162
0.4939023 0.5295442 0.2832897 0.6922571 0.43309793 0.27667388 0.42667133 0.30258822
0.56474143 0.33894458 0.26869047 0.3416614 0.25892976 0.32368097 0.33892182 0.3477103
1.3472451 0.25685462 0.24270177 0.47642058 0.29212442 0.30861154 0.8848175 0.3276778
1.0397985 0.41454786 0.7281064 0.6933826 0.38730556 0.5258523 0.4139226 0.20700462
0.33796984 0.23944135 0.29020435 0.33261967 0.47004154 0.22155194 0.29912007 0.35746878
0.37305936 0.24235049 0.27061814 0.4140515 0.22393796 0.36868638 0.16817604 0.43410864
0.70104825 0.3710703 0.31739518 1.0120988 0.3904588 1.175557 0.24830055 1.3596938
0.87938255 0.39299956 0.31646496 0.26835185 -0.7631983 0.41435537 0.40559068 0.5229882
0.2993393 0.495557 0.3241945 0.61193246 0.31156382 0.269083 -1.2397192 2.0747423
1.2024788 0.37721846 0.21825452 0.24826735 0.5086014 1.4767444 0.3713569 0.34161687
0.36373842 0.84123015 0.4251447 0.33099806 0.24364491 1.554937 2.3113647 0.3344303
0.42578968 1.2881342 0.31440142 0.23273101 0.4359691 0.3754179 -1.2774159 0.34941313
0.30270007 0.35036477 0.22668506 0.23026597 0.35733965 0.33740208 0.3632573 0.3355526
0.2707356 0.3052701 0.5209823 0.3358143 -0.8161017 0.7507663 0.32830647 0.39063632
0.42980546 0.38448778 -0.96683294 1.1440734 0.3892253 0.41399965 3.4946795 0.6225447
-0.76034397 0.33413696 1.5871533 0.32387942 0.8433892 0.4060428 1.6100526 0.28371915

fc2.bias f4 [128]
00000000: b726 84bd 208e 99bf 7e19 b1bd 7fe9 9abf
00000010: d6d0 373d 0385 7bbd 31b5 8f3d 9635 f7bc
00000020: 6eb9 b7bf 166f abbf 606f 9ebf 8a7e a1bf
00000030: 4618 aabf f2d1 adbf a821 c7bf b164 ddbf
00000040: d1d5 a7bf ee9c 99bf 04f5 4f3a e8fc 93bf
00000050: 6896 1ebd 4e6f 94bf 997c abbf 22e3 a9bf
00000060: 5519 aebf 4c3d b6bf 9604 9fbf fae6 66bf
00000070: ee48 9abf 37a3 b6bf 0e81 8dbf ec73 97bf
00000080: 8598 97bf 6f9b 96bf 2f53 e03e 5be5 b6bf
00000090: 0ec3 79bf dc6e b4bf 808f acbf ad86 36bd
000000a0: db81 94bf 9753 9fbd 1018 97bf 7077 a0bf
000000b0: ccc5 afbf 558a a2bf 4165 94bf c7e7 493d
000000c0: 3807 f8bf 75a4 1dbd 689b 64bd 0412 133f
000000d0: 7a94 733d 3554 aabf f2fa 9fbf 304e a1bf
000000e0: c0bb 90bb 93cb a7bf da8b a7bf 9b42 adbf
000000f0: c911 99bf 1aff acbf e277 d9bf a62c c4bf
00000100: 2950 aabf d052 a6bf aeb2 abbf 4850 9fbf
00000110: 0580 8d3d e037 6fbe 5308 aabf b0fc b7bf
00000120: c98f cfbc e7f6 96bf 0c57 96bf 0bfb afbd
00000130: db1e ad3b 6d4c adbf 93e5 e1bf 60b6 73bd
00000140: f214 643d a822 d1bc b1a2 8fbf 7733 9abf
00000150: b001 023f ba7a febf 4b2b 093f a272 adbf
00000160: c697 a2bf 0a4d 96bf 7414 b2bc 9504 f1bc
00000170: ac80 c5bf 4e67 a6bf b1f5 a2bf 0cff b2bf
00000180: 5f72 65bd ccbb 9bbf b3af acbf 8f56 9bbf
00000190: 3194 bcbd 53b8 d23e 420b abbf 2836 59bd
000001a0: aad6 9dbf a960 aabf 848a d6bc 46aa 8fbd
000001b0: aefd 9bbf ef87 e03e c87b 96bf 52d6 8cbf
000001c0: 2797 53bd 981e abbf 4c5f dabf 6faf a9bf
000001d0: 4618 9dbf d653 8fbf dade adbf a5f0 9dbf
000001e0: 2ab5 9bbf 5ada ffbc c648 92bd a1a8 a13c
000001f0: 994d 94bf cfb8 a6bf 0191 39bf 8d44 9ebf
-0.06452697 -1.1996498 -0.086474404 -1.2102507 0.044876896 -0.061406147 0.070169814 -0.030176919
-1.4353464 -1.3393276 -1.2377739 -1.2616742 -1.3288658 -1.3579695 -1.5557146 -1.7296354
-1.3112127 -1.2001016 0.00079329335 -1.1561556 -0.038717657 -1.1596467 -1.3397399 -1.327244
-1.3601481 -1.4237456 -1.2423275 -0.9019619 -1.2053506 -1.4268559 -1.1055009 -1.1832252
-1.184342 -1.1766185 0.43813464 -1.4288744 -0.97563255 -1.4096332 -1.3481293 -0.04456203
-1.1602129 -0.07779615 -1.1804218 -1.253645 -1.3732238 -1.2698466 -1.15934 0.049293306
-1.9377203 -0.038486917 -0.05581227 0.57449365 0.05946777 -1.3306948 -1.2498457 -1.2601986
-0.004416913 -1.3109001 -1.3089554 -1.3535951 -1.1958553 -1.3515351 -1.698971 -1.5326126
-1.3305713 -1.2994022 -1.3413904 -1.2446375 0.069091834 -0.23361158 -1.328379 -1.4373989
-0.025337117 -1.1794099 -1.1745315 -0.085928045 0.0052832193 -1.3538948 -1.7648185 -0.0595001
0.055684038 -0.02552922 -1.1221524 -1.2046956 0.50783825 -1.9881203 0.53581685 -1.3550608
-1.2702568 -1.174226 -0.021738268 -0.02942113 -1.5429893 -1.3000276 -1.2731229 -1.3984084
-0.056017276 -1.2166686 -1.3491119 -1.213579 -0.09207953 0.41156253 -1.3362811 -0.053030163
-1.2331135 -1.3310748 -0.026189096 -0.07014899 -1.2186792 0.4385371 -1.1756525 -1.1002905
-0.051657822 -1.3368711 -1.7060332 -1.3256663 -1.2273033 -1.119746 -1.3583634 -1.2339064
-1.2164662 -0.031232048 -0.07142787 0.019733729 -1.1586181 -1.3025149 -0.72486883 -1.236467

fc3.weight f4 [4, 128]
00000000: 1960 203d c5f2 003f 6c40 40bd 4cef fd3e
00000010: 5203 363d aac8 85bc d3f2 2abd c332 0cbd
00000020: 2e41 d43e 8092 ff3e 2cf0 e73e 7965 b23e
00000030: 9cdc d53e 48d9 f53e 48a1 bb3e da83 173f
00000040: e46f 023f 3cd4 003f ca6a 45bd e060 043f
00000050: ef5f 1837 7dfe ed3e 3e9f 0f3f 28ea f93e
00000060: 2ddb d33e acee c43e ff0f 013f a7a5 003f
00000070: abc9 ba3e 5b2b d03e 2e06 073f cf9f e73e
00000080: d1a0 033f da8d c93e 4d15 76bd 6a34 da3e
00000090: 9d6b 6e3f d3c3 e73e 2b2a bb3e 917c 0abd
000000a0: 27e7 f23e 048a 123d f2f9 f03e b11a 013f
000000b0: 2e58 043f 8ba5 e53e 37e6 033f 5900 79bb
000000c0: 077d ec3e 69f2 32bd db91 5abd 9308 0140
000000d0: a0cf 333c 266c ec3e 521d 033f 0f35 bc3e
000000e0: 6978 843d 1021 c43e 6a61 053f 1f9b ec3e
000000f0: fda7 053f 95ef d83e b49b c23e 4fdf 063f
00000100: 2c6a ef3e cf50 053f 722d 043f 57e3 f93e
00000110: 4eeb 9b3d 46ba ff3f 0177 083f 689f ce3e
00000120: 9535 86bd 05d2 f03e 92be 013f 53b2 133d
00000130: bb96 183f ef25 cf3e 30e7 c33e b2b5 9ebc
00000140: 96bc febc c06a d3bc 2ef2 e13e 4e8e b23e
00000150: 9b25 0340 59ab 153f 266c ff3f 7f3c d03e
00000160: 8b4f c23e 1bc5 fb3e 454e 1b3b 2043 aabc
00000170: b271 ba3e 52f8 bb3e 0ff8 063f b9e0 cb3e
00000180: 27ef f23c 5408 cf3e fd6b 013f 21d8 fe3e
00000190: 530c 64bd d7e8 1040 4465 ee3e b344 44bd
000001a0: f2fb bc3e 9f8a c93e dde9 ac3d 3944 94bd
000001b0: 1be3 fc3e 0fb2 a83d 3105 c33e dfb8 003f
000001c0: cdf8 81bd dca5 003f 100f cb3e 7309 b83e
000001d0: 1e81 b13e 2760 033f e3b6 e83e c9de 033f
000001e0: 66a6 d43e efda db3c be87 febb 4609 443c
000001f0: 1e88 043f 0bc2 d63e a8d6 ff3e d99f f73e
00000200: 80b2 ebb9 e910 d03e e0b4 4c3c 6ec3 2c3e
00000210: 1b07 59bd 12d5 62bd 72f5 7fbd 5b2e 17bc
00000220: a81f e53e cae1 c53e 52fc e53e 8424 fe3e
00000230: a6cc cd3e 455e 063f f371 073f bf5c c63e
00000240: 44eb ef3e b5ab e33e 8eac 9f3d 6418 f33e
00000250: 1c22 20bd c91f e73e a6f9 cd3e 1e2b d23e
00000260: b86c d03e f81e 043f 676a 043f 7c47 513f
00000270: 528e 013f 605e f33e 6f25 bb3e 77d7 093f
00000280: 319b 063f d688 073f 709c 043f a4eb ef3e
00000290: 5845 3f3f df4c d33e 2ea8 043f bf3e 5d3c
000002a0: b44f 063f f906 95bc 03b5 083f 6868 013f
000002b0: 7fc9 cc3e 553d da3e 7c78 dd3e c56f 16bc
000002c0: ec74 d03e b1c6 0fbb 9ff4 0e3b f9d9 0540
000002d0: 70a6 6c3c 7f74 cb3e acae cb3e 5b86 df3e
000002e0: 20a0 afbb c3ac d03e 6c9e d43e b524 ce3e
000002f0: fb68 c33e 9af7 b73e e461 ec3e 40c5 e43e
00000300: 333b cd3e d739 eb3e 217b c63e fbf5 e83e
00000310: b280 b8bc 7195 a53f 9241 da3e ec65 bc3e
00000320: 47d1 57bb 47fc e13e 7230 033f 0cba cfbc
00000330: 01c3 ba3e 72d8 d43e 5d91 013f f1eb a03d
00000340: 2e8d 83bd 8111 3c3b e0cd d63e 78fa 053f
00000350: c067 1c40 24f8 dd3e a915 fb3f c58d 003f
00000360: 42cc 0a3f 4380 043f 8c5a 41bc 2040 44bd
00000370: c9fb c73e 5d34 f63e e423 de3e 4ba3 033f
00000380: d734 bcbc af70 fc3e b070 fa3e 565b c13e
00000390: fa2d 67bd 88bd 0440 7d00 d93e 3439 b33c
000003a0: 5e2c d23e b9bc 0b3f c8ea 1e3c a0ce 8ebc
000003b0: 00b3 f33e 5b6d f33c 15f4 073f e032 053f
000003c0: 1c6f 793d fad0 b63e 3708 fe3e 19dd eb3e
000003d0: 5624 053f d1cb d23e d0da f83e 0508 cd3e
000003e0: 07d5 003f 626b 5e3d 6af3 09bd 85ac 163d
000003f0: 6e98 c63e dad1 053f 8468 b13e 9aaf 0a3f
0.039154146 0.50370437 -0.046936437 0.49596632 0.04443676 -0.016331036 -0.04173548 -0.034228098
0.41455978 0.49916458 0.45300424 0.34843042 0.41769874 0.48017335 0.36646485 0.59185565
0.5095198 0.50323844 -0.048197545 0.5171032 9.082242e-06 0.46483222 0.5610236 0.4881146
0.41378155 0.38463342 0.50415033 0.50252765 0.36481985 0.40658078 0.52743804 0.45239112
0.5141726 0.39366037 -0.060078908 0.42618114 0.93132955 0.4526659 0.3655561 -0.033810202
0.4744198 0.035776153 0.47065693 0.5043135 0.5169705 0.44852862 0.51523155 -0.0037994592
0.46189138 -0.04368821 -0.053361755 2.0161483 0.010974795 0.4617626 0.51216614 0.3675923
0.06468279 0.38306475 0.5210177 0.46212098 0.52209455 0.42370287 0.38009417 0.5268449
0.4676069 0.5207643 0.51631844 0.4880626 0.0761324 1.9978721 0.53306586 0.40355992
-0.06553189 0.47035232 0.5068141 0.036058735 0.59604996 0.4045863 0.3826232 -0.019373748
-0.031095784 -0.025807738 0.4413008 0.34874195 2.0491703 0.5846458 1.9954879 0.40671155
0.3795131 0.49173817 0.0023697775 -0.02078396 0.36414868 0.3671289 0.5272226 0.39819887
0.029655052 0.4043604 0.505554 0.49774268 -0.055675816 2.2642114 0.46561635 -0.04791708
0.3691097 0.39363572 0.084430434 -0.07239575 0.49392018 0.08237087 0.38089898 0.5028209
-0.06346283 0.5025308 0.3965993 0.3594471 0.3466882 0.5131859 0.45452031 0.5151182
0.41533202 0.026837794 -0.0077676466 0.011965102 0.517702 0.41944918 0.49968457 0.48364142
-0.00044955686 0.406379 0.012494296 0.16871426 -0.052985292 -0.05537898 -0.062489934 -0.009227361
0.44750714 0.38648826 0.44919068 0.49637234 0.40195197 0.52487594 0.5290825 0.38742635
0.4685918 0.4446694 0.07796584 0.47479546 -0.03909503 0.45141438 0.4022953 0.4104852
0.40707946 0.51609755 0.5172486 0.817497 0.5060779 0.4753294 0.36551997 0.538444
0.52580553 0.5294317 0.51801205 0.46859467 0.74715185 0.41269585 0.5181912 0.013503729
0.5246537 -0.018191801 0.534012 0.50549936 0.3999748 0.42624918 0.43255985 -0.009181921
0.40714204 -0.0021938498 0.0021813286 2.091429 0.014443979 0.39737317 0.39781702 0.43657193
-0.0053596646 0.40756807 0.41527116 0.4026238 0.3816603 0.35931093 0.46168435 0.4468174
0.40084228 0.45942566 0.38765815 0.45500168 -0.022522304 1.2936231 0.4262815 0.3679651
-0.0032931136 0.44137785 0.51245797 -0.025357269 0.364769 0.41571385 0.5061243 0.07857502
-0.06423412 0.0028696957 0.41953945 0.5233531 2.4438324 0.4335338 1.9615985 0.50216323
0.5421792 0.5175821 -0.011801373 -0.047912717 0.39059284 0.48086825 0.43386757 0.5142104
-0.022974415 0.4930472 0.489141 0.37764996 -0.05644033 2.074068 0.42383185 0.021877863
0.41049474 0.5458484 0.009699531 -0.01743251 0.47597504 0.02971523 0.53106815 0.52030754
0.060896978 0.3570631 0.49615642 0.46067122 0.5200857 0.41171125 0.4860444 0.4004518
0.50325054 0.054301627 -0.033679403 0.03678562 0.3878817 0.52273333 0.34650052 0.54174197

fc3.bias f4 [4]
00000000: 934d febe 0bcb e4be a615 34bf f339 0abf
-0.4966856 -0.4468616 -0.7034553 -0.53994673
