ai/models/dqn/trained_models/dqn_2048_100.pth (torch, 78975 bytes, 6 tensors)

fc1.weight f4 [128, 16]
-0.51904476 0.2870043 0.48582232 0.106041655 0.397847 -0.16280268 0.06602541 -0.1094986
-0.06297645 0.3840925 0.33619606 0.0879974 -0.20536853 0.07225527 -0.24541546 0.18193728
-0.068085276 0.28833926 -0.012410752 0.35910997 -0.059153117 0.21473083 -0.15265971 0.023006462
-0.06413466 -0.20437503 0.2884592 0.054177582 0.16422497 0.45619935 0.4896654 0.39671332
0.10225286 0.07158791 -0.46657708 -0.10632191 0.09940009 0.46666458 -0.224366 0.0960021
0.039817344 0.37606046 0.5140294 -0.1288192 -0.21932812 0.17722854 0.05891048 -0.11304111
0.21532683 -0.078798056 0.1840895 0.38148442 -0.20402339 0.1537367 -0.18538809 -0.3676152
0.2792943 -0.05906805 0.095281914 0.24106596 0.028073551 0.32555717 0.2644649 -0.14427498
0.15740032 0.02607927 0.053399574 0.33748466 0.13045879 -0.0058947466 0.14405477 0.48654762
0.05182945 -0.02218545 -0.06741803 0.03594757 0.34288737 0.025315199 0.40130165 0.12199659
0.17163655 0.13961528 0.11988279 0.07992441 0.1341196 0.0862593 0.005790977 0.049158532
0.195979 0.1837692 0.08551974 0.33381748 0.36768126 -0.03695725 0.22627117 0.12850778
-0.022369748 0.17580897 -0.3641888 0.09400702 0.25940087 0.1046278 0.09546194 -0.039259534
0.06639328 0.21723112 0.16274522 -0.17157319 0.04084167 0.0150045715 0.30289638 0.1882886
0.2744242 0.53495324 -0.08315439 -0.6363751 0.18701547 0.70448875 -0.18120031 0.56431276
0.008575669 -0.42716205 -0.2384148 -0.14759876 -0.06339252 -0.16906334 0.0743033 0.1541826
0.06502662 -0.0836107 0.23037475 0.3283486 0.28502586 -0.069310226 0.11364754 -0.30302367
0.21145292 -0.16611242 0.13616037 0.22097644 0.22961141 0.30077454 0.0009989486 0.009368604
0.14071459 0.065666996 0.20906533 0.29347542 0.10802626 0.045592576 -0.1860206 -0.0280924
0.13714284 0.108922295 0.13289115 0.0041998196 0.28403002 0.48560938 0.105945945 -0.03434632
0.35959455 0.21370982 -0.17361854 0.19500323 -0.0018081085 0.18901141 0.09179792 0.2256442
-0.13761115 0.16436587 0.16337216 -0.21297269 0.4809054 0.31599528 0.2440002 0.051861353
0.05345917 0.22593798 0.2642266 0.16896816 0.21800467 0.19542398 0.14416675 0.18263938
0.18045473 0.09890077 0.3452286 0.19467074 0.35041517 0.28571382 -0.040268466 0.03669675
0.24379621 0.26600263 0.3262891 0.062416546 -0.012777485 0.022204727 0.25353068 0.05403366
0.2437604 0.24534285 0.00017363217 -0.111232795 -0.11298544 0.28706545 0.408836 -0.13937603
-0.113365844 0.3086613 -0.013021309 0.20470993 0.0926403 0.5394937 0.33242944 -0.44502303
0.1831904 0.089636356 0.35714686 -0.5514766 0.002304162 -0.001309261 -0.39210707 0.2265952
-0.3811121 -0.23710538 -0.06941082 -0.020405313 0.27499944 0.45167875 -0.10704984 0.5572075
-0.41799408 0.43990847 -0.083746485 0.58343315 -0.1278747 -0.137189 -0.12838209 -0.18237436
0.11294991 0.40552893 0.755126 0.41476023 0.2287958 -0.5077845 -0.7590614 -0.30044046
-0.086569734 -0.30181485 -0.042480677 0.3048612 0.088832594 0.9895625 0.6958226 0.926078
00000000: 1ee0 04bf 3af2 923e b4bd f83e 5e2c d93d
00000010: 9ab2 cb3e bfb5 26be 5538 873d cd40 e0bd
00000020: ccf9 80bd c6a7 c43e e421 ac3e fb37 b43d
00000030: 214c 52be 92fa 933d 314e 7bbe c44d 3a3e
00000040: 4b70 8bbd 34a1 933e 7756 4bbc 43dd b73e
00000050: 8a4a 72bd 66e2 5b3e d452 1cbe 0c78 bc3c
00000060: 0859 83bd b047 51be edb0 933e 50e9 5d3d
00000070: 972a 283e f692 e93e 6cb5 fa3e 021e cb3e
00000080: f369 d13d af9c 923d 31e3 eebe 4dbf d9bd
00000090: 4692 cb3d a9ee ee3e 33c0 65be c09c c43d
000000a0: 8317 233d ff8a c03e 6e97 033f 2ee9 03be
000000b0: 8d97 60be 667b 353e 1e4c 713d 1982 e7bd
000000c0: a37e 5c3e e060 a1bd f581 3c3e ed51 c33e
000000d0: 82eb 50be 276d 1d3e 60d6 3dbe 0f38 bcbe
000000e0: aaff 8e3e 57f1 71bd 2a23 c33d ffd9 763e
000000f0: 81fa e53c 6eaf a63e f267 873e d2bc 13be
00000100: 8d2d 213e 31a4 d53c 83b9 5a3d caca ac3e
00000110: fd96 053e b828 c1bb 1883 133e c51c f93e
00000120: 1e4b 543d 43be b5bc 7712 8abd c23d 133d
00000130: ef8e af3e d261 cf3c 6977 cd3e 59d9 f93d
00000140: 7ec1 2f3e 4ff7 0e3e 1c85 f53d 69af a33d
00000150: a656 093e b7a8 b03d 3cc2 bd3b 755a 493d
00000160: b8ae 483e fe2d 3c3e f924 af3d 20ea aa3e
00000170: b840 bc3e 7c60 17bd a1b3 673e 8b97 033e
00000180: c340 b7bc 4407 343e f476 babe c186 c03d
00000190: 31d0 843e 1a47 d63d 8d81 c33d 9bce 20bd
000001a0: 33f9 873d d671 5e3e afa6 263e e2b0 2fbe
000001b0: 9849 273d bcd5 753c 3c15 9b3e bace 403e
000001c0: 5481 8c3e b2f2 083f d94c aabd 7be9 22bf
000001d0: fc80 3f3e 6059 343f 938c 39be cd76 103f
000001e0: f680 0c3c fcb4 dabe 0223 74be 2124 17be
000001f0: f0d3 81bd f11e 2dbe 542c 983d 0be2 1d3e
00000200: ad2c 853d 163c abbd 5ce7 6b3e 4f1d a83e
00000210: e9ee 913e 85f2 8dbd 0bc0 e83d eb25 9bbe
00000220: 1d87 583e 6019 2abe a06d 0b3e a647 623e
00000230: 411f 6b3e 1fff 993e 27ef 823a c67e 193c
00000240: 7c17 103e 6b7c 863d 3915 563e 6942 963e
00000250: df3c dd3d 48bf 3a3d 2f7c 3ebe 0822 e6bc
00000260: 2c6f 0c3e a712 df3d 9e14 083e a49e 893b
00000270: 626c 913e cba1 f83e 30fa d83d baae 0cbd
00000280: c71c b83e bfd6 5a3e 0fc9 31be edae 473e
00000290: 0efe ecba 358c 413e 8c00 bc3d 460f 673e
000002a0: f0e9 0cbe 874f 283e 084b 273e 8315 5abe
000002b0: 3c39 f63e 22ca a13e 30db 793e 926c 543d
000002c0: 01f8 5a3d 495c 673e b548 873e fd05 2d3e
000002d0: 9e3c 5f3e 391d 483e 73a0 133e d105 3b3e
000002e0: 20c9 383e 7d8c ca3d cec1 b03e c457 473e
000002f0: 9e69 b33e 1549 923e 8cf0 24bd 554f 163d
00000300: b7a5 793e 7f31 883e 5d0f a73e 7ea8 7f3d
00000310: a858 51bc b0e6 b53c c6ce 813e 6652 5d3d
00000320: 549c 793e 283b 7b3e 0811 3639 05ce e3bd
00000330: e964 e7bd 3efa 923e f452 d13e 97b8 0ebe
00000340: 5a2c e8bd db08 9e3e 5457 55bc 7b9f 513e
00000350: 33ba bd3d 421c 0a3f 3134 aa3e 0fda e3be
00000360: 4496 3b3e 4493 b73d f4db b63e 922d 0dbf
00000370: 6c01 173b 829b abba 42c2 c8be 9208 683e
00000380: 2021 c3be c1cb 72be 4327 8ebd 0b29 a7bc
00000390: bacc 8c3e 7042 e73e f23c dbbd 27a5 0e3f
000003a0: 5203 d6be af3b e13e 4783 abbd e05b 153f
000003b0: 96f1 02be 467b 0cbe 9876 03be 58c0 3abe
000003c0: 4852 e73d 7da1 cf3e f04f 413f 745b d43e
000003d0: 7249 6a3e 2afe 01bf d951 42bf 55d3 99be
000003e0: 794b b1bd 7a87 9abe 3800 2ebd c416 9c3e
000003f0: dded b53d f853 7d3f 6e21 323f 7313 6d3f

fc1.bias f4 [128]
-1.9959714 -1.451893 -2.2950583 -1.8184457 2.3042305 -1.774872 -1.6679729 -2.369838
-1.6634359 -1.5382086 2.0623274 -1.9011271 -1.9556223 -1.6764687 -2.4986734 0.36437857
-2.0167341 -1.570497 -2.0125926 -2.019914 2.5367022 -1.8447405 -1.5477285 -1.7010893
-1.880781 -2.1079087 2.5096323 2.4356482 -1.2863127 -1.4905832 -2.0284598 -1.8416076
-1.7513611 -2.0201666 2.052322 -2.0000226 -1.8898163 -1.7482079 -1.7027903 -1.752877
-1.5165794 -1.8657484 -1.925136 -1.9306917 -1.5377291 -1.9406432 -1.7110269 -1.9144328
-1.8076761 -1.9527805 -1.8942119 -1.8806971 -1.5524645 -1.7850753 -1.9859831 -1.7036258
-2.5422661 -1.4582343 -1.7645195 -1.8459865 -1.7494981 -1.5364465 -2.1412137 -1.81206
-1.7088681 -1.6280062 -1.6076905 -2.048753 -2.0726964 -1.7895647 -1.6799933 -2.3090277
-1.8217382 -1.8996068 -1.8819598 -2.1009414 -1.9854386 -1.7427806 -1.8087273 -1.6666555
-2.0003164 -1.6905712 -2.1268718 -1.8490309 2.5617743 -2.0967927 -1.6270349 -1.6908846
-2.003709 -1.765461 -1.8952829 -2.130216 -1.6401515 -1.8184428 -2.1189415 -0.33175743
-2.1871684 -1.9613715 -2.137011 -0.49267295 -1.8799342 -2.0348365 -1.8923831 -1.7965087
-1.7876661 -2.047957 -2.2263258 -1.7920579 -1.9285505 -1.4932785 -1.7404296 -2.0196579
-1.9894162 -1.6711234 -2.043214 -1.6438588 -1.4472989 2.3005905 2.3544607 -1.7745153
-2.0469527 -1.6802303 -1.9395115 -1.9590511 -1.3876494 -2.2096562 -1.9794658 -1.5326794
00000000: fe7b ffbf a1d7 b9bf 3ce2 12c0 d4c2 e8bf
00000010: 8378 1340 012f e3bf 2380 d5bf 6dab 17c0
00000020: 78eb d4bf 05e4 c4bf 2cfd 0340 2258 f3bf
00000030: d551 fabf 8796 d6bf 44ea 1fc0 d48f ba3e
00000040: 2c12 01c0 0c06 c9bf 51ce 00c0 4546 01c0
00000050: 5459 2240 7520 ecbf f81b c6bf 4bbd d9bf
00000060: 6fbd f0bf fae7 06c0 d19d 2040 a9e1 1b40
00000070: e5a5 a4bf 6ecb bebf 49d2 01c0 ccb9 ebbf
00000080: 9a2c e0bf 694a 01c0 3e59 0340 5f00 00c0
00000090: 80e5 f1bf 47c5 dfbf 08f5 d9bf 465e e0bf
000000a0: 461f c2bf d8d0 eebf db6a f6bf e820 f7bf
000000b0: 4fd4 c4bf ff66 f8bf ee02 dbbf 220c f5bf
000000c0: ee61 e7bf b6f4 f9bf 8975 f2bf afba f0bf
000000d0: 28b7 c6bf 597d e4bf b234 febf 6910 dabf
000000e0: 7db4 22c0 6ca7 babf c6db e1bf 4949 ecbf
000000f0: 8eef dfbf 47aa c4bf a509 09c0 95f1 e7bf
00000100: 31bc dabf 8262 d0bf cdc8 cdbf c51e 03c0
00000110: 0fa7 04c0 7510 e5bf 050a d7bf 1cc7 13c0
00000120: b82e e9bf 5126 f3bf 0fe4 f0bf d375 06c0
00000130: da22 febf 6f13 dfbf 6084 e7bf f854 d5bf
00000140: 2f05 00c0 a364 d8bf ab1e 08c0 0bad ecbf
00000150: 1cf4 2340 da31 06c0 ae42 d0bf e86e d8bf
00000160: c53c 00c0 a0fa e1bf a198 f2bf 7555 08c0
00000170: 7cf0 d1bf bcc2 e8bf bd9c 07c0 1cdc a9be
00000180: 91fa 0bc0 390e fbbf cac4 08c0 a13f fcbe
00000190: afa1 f0bf c33a 02c0 9c39 f2bf fff3 e5bf
000001a0: 3ed2 e4bf ba11 03c0 1f7c 0ec0 2762 e5bf
000001b0: beda f6bf c023 bfbf 66c6 debf 1342 01c0
000001c0: 31a5 febf 5fe7 d5bf 05c4 02c0 f769 d2bf
000001d0: 1741 b9bf e03c 1340 7caf 1640 5123 e3bf
000001e0: 4601 03c0 c911 d7bf ea41 f8bf 30c2 fabf
000001f0: 7f9e b1bf 026b 0dc0 235f fdbf d72e c4bf

fc2.weight f4 [128, 128]
0.9315805 0.36668816 1.4489015 0.7607929 -0.61167413 0.3539429 0.34797624 2.5738962
0.42048043 0.45409957 -0.4121577 0.37500805 0.39669508 1.1501132 1.9774746 0.57919264
0.934 0.43046364 1.835013 1.8767332 -0.7027225 0.403241 0.3961043 0.58703184
0.48489138 0.40859267 -0.98549604 -0.7256015 1.4105041 0.6938557 0.56258947 1.4578718
0.7864241 0.46170434 -0.91426635 0.34573665 1.7915012 1.2519023 1.8673314 0.6458071
1.0395153 1.0874288 1.0205538 1.2664427 0.45348537 1.1756979 0.95620966 0.7141524
0.4148181 1.291464 1.6237509 0.51861906 0.5695542 0.8471717 1.6774049 0.31015384
1.6501614 2.1295319 0.38558728 1.2744519 0.9195682 1.5120605 1.736059 0.7116615
0.7927256 0.31043497 0.6033141 1.6639854 0.5411567 0.44623023 0.32884008 2.1465044
1.3570774 1.1068314 1.5540313 1.9372375 0.85362834 1.5227431 0.97554296 0.6971585
0.9847863 0.4166847 1.0424783 1.4281725 -0.62218755 0.682193 1.4547762 1.1582294
1.0968368 1.4854479 1.8043175 1.3309568 0.3846352 1.5753231 1.6906918 1.9653072
0.8703468 0.29104897 1.642355 1.1831546 1.5192351 1.257785 0.7467554 0.64987785
0.4138185 0.6534761 1.5448415 0.3190258 1.3587359 0.53568006 1.6351886 0.6950019
1.2627536 0.48417473 0.9045121 0.5008801 1.0742284 -0.72295403 -0.96433026 1.4500965
1.9536159 2.332096 0.5582868 0.29964137 1.4168931 1.5946686 1.3005687 0.43545073
-0.32501292 0.44999483 -0.37605116 0.2484634 0.9143296 -0.39495638 -0.44432464 -1.1203384
-0.502207 -0.10923201 1.0626283 -0.43428332 -0.3612805 -0.28733358 -1.7222359 1.0536197
-0.5230181 0.22394115 -0.37982255 -1.256071 0.8009297 -0.41219807 0.09349958 -0.12567782
-0.025495268 -0.4530958 0.66940194 0.5991254 0.85519356 -0.44315347 -0.49050292 -0.5544969
-0.62673277 -0.23429738 1.6964276 -0.39281115 -0.745344 -0.38477275 -0.3395745 -0.43614864
-0.61757106 -0.004841443 -0.6400345 0.02891017 0.12559444 -0.30205658 0.4009535 -0.079448014
0.09857319 0.617325 0.018390762 -0.53130996 0.08305826 -0.034622006 -0.13841331 -0.42413673
0.27339855 -0.4709253 0.17500071 -0.16565126 0.41998857 -0.6779043 -0.82833564 0.027042562
0.024784168 -0.44903153 -0.6376901 -0.099683255 -0.69812024 -0.1007377 0.13174593 -0.8055579
-0.85459954 -0.6878747 -0.12443695 -0.46190003 0.45616361 -1.4863015 -0.6458995 0.056050558
0.31430775 -0.1370857 0.08443259 0.838689 0.866152 -0.08575221 -0.90179783 -0.011536096
-0.33530715 -0.6197411 -0.42585045 -1.27845 -0.05546735 0.28475785 -1.8331226 -0.4414219
-0.13366167 -0.3619583 -0.14958988 -0.92395514 -1.7578144 -0.57060075 -0.3453322 -0.14096822
-0.5314513 0.05397434 -1.581097 -0.547391 -0.5211405 0.16858475 -0.7357752 -0.7332066
-0.41934523 -0.23250258 -1.0711188 -0.2640826 -0.50919354 0.62167865 0.72051805 -0.072547436
-0.33014786 -0.37132928 -0.10294544 -0.1292764 -0.66555864 -1.328837 -0.6807248 -0.07693365
00000000: 0f7c 6e3f 8dbe bb3e 9b75 b93f 53c3 423f
00000010: ad96 1cbf 0138 b53e f129 b23e b7ba 2440
00000020: 3649 d73e bd7f e83e 5606 d3be 0e01 c03e
00000030: 9e1b cb3e e936 933f e31d fd3f f845 143f
00000040: a01a 6f3f bb65 dc3e b5e1 ea3f cb38 f03f
00000050: 9fe5 33bf 9b75 ce3e 2fce ca3e b847 163f
00000060: af43 f83e 0f33 d13e 7849 7cbf 05c1 39bf
00000070: 668b b43f 87a0 313f dd05 103f 8b9b ba3f
00000080: 1753 493f 8364 ec3e 5c0d 6abf 6504 b13e
00000090: e94f e53f 563e a03f b704 ef3f 9d53 253f
000000a0: d60e 853f de30 8b3f 82a1 823f cb1a a23f
000000b0: 3c2f e83e 457d 963f 28ca 743f b1d2 363f
000000c0: 0a63 d43e b14e a53f 12d7 cf3f 38c4 043f
000000d0: 4ece 113f 3fe0 583f 34b5 d63f 7ccc 9e3e
000000e0: 7d38 d33f 404a 0840 b26b c53e 3d21 a33f
000000f0: d268 6b3f 338b c13f 2e37 de3f 732f 363f
00000100: 11f0 4a3f 55f1 9e3e cb72 1a3f 79fd d43f
00000110: 3f89 0a3f 4a78 e43e ba5d a83e 5460 0940
00000120: b6b4 ad3f a7ac 8d3f 7fea c63f 66f7 f73f
00000130: 6387 5a3f 3fe9 c23f 2fbd 793f fb78 323f
00000140: f41a 7c3f b257 d53e ee6f 853f 5bce b63f
00000150: af47 1fbf 33a4 2e3f 1b36 ba3f dc40 943f
00000160: 2665 8c3f 2823 be3f e0f3 e63f cb5c aa3f
00000170: e8ee c43e 30a4 c93f 9768 d83f 308f fb3f
00000180: 0ccf 5e3f 5f04 953e b038 d23f 9c71 973f
00000190: 4c76 c23f 19ff a03f 5d2b 3f3f 655e 263f
000001a0: 05e0 d33e 364a 273f 5ebd c53f 5a57 a33e
000001b0: 0feb ad3f 5422 093f dc4d d13f a5eb 313f
000001c0: e9a1 a13f c0e5 f73e 1b8e 673f ae39 003f
000001d0: 5180 893f 8413 39bf 59de 76bf c39c b93f
000001e0: 1610 fa3f 1041 1540 e2eb 0e3f 986a 993e
000001f0: c15c b53f 1a1e cc3f 0979 a63f 66f3 de3e
00000200: 1868 a6be b965 e63e c789 c0be 316d 7e3e
00000210: 8111 6a3f b937 cabe 857e e3be 4067 8fbf
00000220: a390 00bf 08b5 dfbd 3404 883f 625a debe
00000230: c2f9 b8be 631d 93be 3a72 dcbf 03dd 863f
00000240: 84e4 05bf d450 653e 1a78 c2be efc6 a0bf
00000250: bb09 4d3f a00b d3be b57c bf3d b0b1 00be
00000260: 74db d0bc 2cfc e7be ed5d 2b3f 4860 193f
00000270: f7ed 5a3f 03e5 e2be 3323 fbbe 82f3 0dbf
00000280: 8f71 20bf a7eb 6fbe 8a24 d93f 8b1e c9be
00000290: ddce 3ebf ef00 c5be b5dc adbe e04e dfbe
000002a0: 2319 1ebf f8a4 9ebb 4dd9 23bf 05d5 ec3c
000002b0: d49b 003e 29a7 9abe c749 cd3e a4b5 a2bd
000002c0: bee0 c93d 0309 1e3f 39a8 963c ee03 08bf
000002d0: 731a aa3d cecf 0dbd 38bc 0dbe 7328 d9be
000002e0: e5fa 8b3e 1f1d f1be 6333 333e 7ca0 29be
000002f0: be08 d73e 238b 2dbf ce0d 54bf 5d88 dd3c
00000300: 2b08 cb3c 76e7 e5be a93f 23bf bc26 ccbd
00000310: 02b8 32bf 914f cebd 68e8 063e 0b39 4ebf
00000320: 09c7 5abf 8e18 30bf cdd8 febd 297e ecbe
00000330: 478e e93e 213f bebf ab59 25bf 4595 653d
00000340: f2ec a03e 3260 0cbe feea ac3d 53b4 563f
00000350: 23bc 5d3f db9e afbd 39dc 66bf e501 3dbc
00000360: 61ad abbe 5aa7 1ebf 1209 dabe 40a4 a3bf
00000370: bb31 63bd c8cb 913e c3a3 eabf 0d02 e2be
00000380: 9bde 08be 9952 b9be 172e 19be 5388 6cbf
00000390: 1000 e1bf e412 12bf 62cf b0be f959 10be
000003a0: 310d 08bf 3314 5d3d 6361 cabf d121 0cbf
000003b0: 7769 05bf 7ba1 2c3e c35b 3cbf 6eb3 3bbf
000003c0: 6bb4 d6be 2815 6ebe 6c1a 89bf d635 87be
000003d0: 825a 02bf 5526 1f3f df73 383f c093 94bd
000003e0: 2409 a9be df1e bebe 0fd5 d2bd 0861 04be
000003f0: 0d62 2abf 5517 aabf fb43 2ebf 648f 9dbd

fc2.bias f4 [128]
-1.3123226 1.1350113 -1.3645433 -2.5188715 -1.5058341 -1.7353148 -2.3841307 -1.5623621
-1.4639435 -1.1111923 -2.3492444 -1.500982 -1.5378871 -0.08780026 -0.1132946 -1.9039991
-1.131512 -0.065625735 -1.3447306 -2.0802343 -0.29095694 -0.050102282 -1.5906142 -0.1448086
-1.331521 -1.2096883 -1.4250033 -1.8956996 -1.5788275 -0.06759665 -1.1533324 -0.0151686035
-1.0378951 -0.18051152 -1.104144 -1.3165898 -1.0682226 -1.576577 -0.09470469 0.005942398
-1.3073615 -1.3538427 -1.2699445 -2.2607841 0.013080058 -1.5352314 -1.3982744 0.055238504
-1.0641193 -1.4122782 -0.06366872 -0.10131938 -2.0670319 -1.1588352 -2.1540189 -0.049593672
-1.6098119 -1.7058376 -0.014924923 -1.357107 -0.99956274 -2.3009489 0.47432703 -2.3331966
-1.2997046 -1.8678985 -1.879374 -1.8745018 -1.3418912 -1.2799836 0.042655904 -1.7323229
-1.2688087 -1.238578 -0.07810237 0.063102394 -1.2880533 -2.323141 -1.6514963 -2.075013
-0.13102587 -1.4863358 -2.266895 -1.35588 -2.2851388 -0.05745971 -1.6116992 -1.1686816
0.43126345 -1.2031807 0.054480825 -1.7047246 -1.4628375 -2.244648 -1.2248684 -1.9718078
-1.9587176 -1.2191012 -2.2391193 -0.032630183 -1.696299 -1.8106835 0.3882098 -1.283433
0.060158577 -2.275112 -0.020670481 -0.06924009 -1.965689 0.32556206 -2.2224195 -1.5796286
-0.04008724 -0.10013266 -1.2810374 0.012461248 0.06639504 -0.052168973 -1.9687657 -0.055543825
-1.2245932 -1.23008 -1.2968272 0.009904222 -1.3615713 -1.7283381 -1.2134006 -2.136502
00000000: 30fa a7bf 0d48 913f 5ba9 aebf 3135 21c0
00000010: 2cbf c0bf cc1e debf 9995 18c0 7bfb c7bf
00000020: 8062 bbbf 8d3b 8ebf 055a 16c0 2e20 c0bf
00000030: 7cd9 c4bf 9fd0 b3bd 0007 e8bd 3eb6 f3bf
00000040: 63d5 90bf c966 86bd 2220 acbf 8f22 05c0
00000050: 4ff8 94be 0d38 4dbd 3f99 cbbf b548 14be
00000060: 486f aabf 11d7 9abf 8266 b6bf 49a6 f2bf
00000070: 0517 cabf 1d70 8abd 65a0 93bf bc85 78bc
00000080: bfd9 84bf 03d8 38be 9754 8dbf 0486 a8bf
00000090: 85bb 88bf 46cd c9bf 88f4 c1bd 73b8 c23b
000000a0: 9f57 a7bf b84a adbf 8b8d a2bf b0b0 10c0
000000b0: bd4d 563c 7682 c4bf a8fa b2bf c541 623d
000000c0: 1035 88bf 88c5 b4bf bf64 82bd 8980 cfbd
000000d0: 404a 04c0 b654 94bf 72db 09c0 bc22 4bbd
000000e0: 510e cebf e358 dabf aa87 74bc afb5 adbf
000000f0: 58e3 7fbf bf42 13c0 feda f23e 1853 15c0
00000100: b85c a6bf 4c17 efbf 548f f0bf adef efbf
00000110: 17c3 abbf 81d6 a3bf f5b7 2e3d c2bc ddbf
00000120: 5368 a2bf b989 9ebf 23f4 9fbd d43b 813d
00000130: eede a4bf 58ae 14c0 3b64 d3bf 03cd 04c0
00000140: a52b 06be 4040 bebf cf14 11c0 7a8d adbf
00000150: b73f 12c0 df5a 6bbd 294c cebf 5c97 95bf
00000160: 90ce dc3e d301 9abf 4927 5f3d 6a34 dabf
00000170: 423e bbbf 50a8 0fc0 7dc8 9cbf 3364 fcbf
00000180: 42b7 fabf 820b 9cbf bb4d 0fc0 3aa7 05bd
00000190: 5320 d9bf 7ac4 e7bf 6fc3 c63e 8847 a4bf
000001a0: d768 763d 6f9b 11c0 2455 a9bc c0cd 8dbd
000001b0: b29b fbbf 12b0 a63e 1f3c 0ec0 4531 cabf
000001c0: 8532 24bd 5a12 cdbd 09f9 a3bf 432a 4c3c
000001d0: 1ffa 873d 22af 55bd 8400 fcbf ec81 63bd
000001e0: 78bf 9cbf 4373 9dbf 6ffe a5bf 5145 223c
000001f0: f847 aebf 2f3a ddbf b650 9bbf 73bc 08c0

fc3.weight f4 [4, 128]
0.93391293 2.266537 0.9527613 2.02915 1.1386309 1.1509542 1.4637436 0.9921717
0.9077478 0.89128673 1.6932776 1.0651524 0.90925497 -0.058275595 -0.02721074 1.0890778
0.96815914 -0.00040770197 0.98332447 1.2371976 1.8083543 0.07775738 0.9835547 1.8036925
0.95204943 0.9882027 0.93642145 1.2715096 1.0051342 -0.0338996 0.9232481 -0.047780555
0.89533067 2.1617239 0.98097825 0.9896881 0.958905 1.0439637 0.0010340972 -0.02159916
0.9833286 0.9066205 0.87405014 1.3935192 0.09839228 1.0203106 1.0445874 -0.08515659
0.92913765 0.9489487 0.014552048 -0.036490414 1.5037686 1.0031118 1.3778343 0.070145726
1.1108308 1.0830976 -0.042700082 0.9530562 0.6026279 1.4623193 -0.23287816 1.9038655
0.98450005 1.3519056 1.123161 1.2082431 0.9556893 0.9474668 0.42588282 0.9711167
0.9408217 0.9277634 0.016739167 0.03704092 0.8986073 2.235542 1.0991349 1.3503166
0.055873275 0.95596623 1.5408006 0.9622977 1.8873744 -0.013090767 1.0678518 0.9762417
-0.36001167 0.9528483 -0.0048011974 1.1580256 0.99943227 2.0421143 0.9504075 1.1880069
1.0703844 0.9988598 1.6305037 -0.033961345 1.1232929 1.173106 0.3732096 0.95224816
-0.06021323 2.2515855 0.068361886 0.1088375 1.257597 -0.34309813 1.3566943 1.0934203
0.005962522 0.056230616 0.9657365 -0.035526473 0.002374029 0.0069760634 1.1789701 -0.041492723
1.0242413 0.99912363 1.0176189 0.033822898 0.9642466 0.9705798 0.87584394 1.164245
0.90891755 2.5536263 1.023834 2.2916808 1.0285866 1.0747638 1.3845838 0.88033086
1.0260102 1.0282273 1.4833161 0.9269274 1.0082059 -0.009840655 -0.10316205 1.1996505
1.0154577 0.07298774 0.91834545 1.1054102 2.2867415 0.064993374 1.0993897 0.6729866
1.0373126 0.9900994 0.94064933 1.116424 1.0441508 0.070127964 1.0157447 -0.061831452
0.9848231 2.3766146 0.94815946 0.8586679 0.9887413 0.9123687 -0.05541766 0.01826552
0.91570973 0.9672283 0.9078653 1.4306825 -0.062209975 0.8383746 1.1102695 0.06150148
0.985322 0.9089026 -0.06627046 0.04817676 1.3105296 1.0476967 1.191203 -0.04804184
1.0144453 0.8651774 0.091068156 1.0643771 0.90234023 1.3557049 -0.13165769 2.0558088
0.9587037 1.1850344 1.1004548 1.1104635 0.90738696 0.946013 1.6840307 1.0658468
0.9605532 1.0561728 0.08235007 -0.03232425 1.0531276 2.3849585 0.9276016 1.1898564
0.011295337 0.9798607 1.3406786 0.8024577 1.8033671 -0.037927676 0.97297007 0.9199227
-0.2375481 0.9708329 -0.057716426 1.6467664 0.97214365 2.0650148 0.9167825 1.0671734
1.1649523 1.008468 1.5740231 0.011280926 0.8551559 0.917958 0.11829792 0.92819226
-0.00088706275 2.192462 0.02638767 0.15446013 1.097265 -0.34140426 1.2410269 1.013673
0.039852683 -0.040927522 0.86888325 -0.03315666 -0.011859066 -0.043675832 1.1997795 -0.041826613
1.0153522 0.98058754 0.9182925 0.027621048 0.9783999 1.0015544 0.94234645 1.204454
00000000: eb14 6f3f f10e 1140 2ae8 733f 98dd 0140
00000010: a8be 913f 7852 933f f35b bb3f f7fe 7d3f
00000020: 2962 683f 5e2b 643f 52bd d83f ea56 883f
00000030: efc4 683f 64b2 6ebd 0fe9 debc e766 8b3f
00000040: 47d9 773f d5c0 d5b9 27bb 7b3f 7e5c 9e3f
00000050: 2778 e73f 433f 9f3d 3eca 7b3f 65df e63f
00000060: 83b9 733f dafa 7c3f 51b9 6f3f d4c0 a23f
00000070: 3da8 803f 4fda 0abd fd59 6c3f 8bb5 43bd
00000080: 6434 653f af59 0a40 6421 7b3f 335c 7d3f
00000090: cc7a 753f 9aa0 853f 8b8a 873a b9f0 b0bc
000000a0: 6cbb 7b3f 4818 683f c0c1 5f3f d65e b23f
000000b0: e481 c93d 8a99 823f 0ab5 853f 9466 aebd
000000c0: f7db 6d3f 4dee 723f b76b 6e3c f976 15bd
000000d0: 7d7b c03f f865 803f e05c b03f 90a8 8f3d
000000e0: b42f 8e3f f1a2 8a3f 48e6 2ebd 7efb 733f
000000f0: d245 1a3f 472d bb3f 9d77 6ebe ddb1 f33f
00000100: 3208 7c3f 3e0b ad3f bdc3 8f3f b6a7 9a3f
00000110: 0ea8 743f 2f8d 723f 500d da3e 1b9b 783f
00000120: b1d9 703f e781 6d3f 9420 893c 38b8 173d
00000130: 210b 663f 1f13 0f40 74b0 8c3f 2dd7 ac3f
00000140: 60db 643d 34ba 743f f438 c53f 2459 763f
00000150: 7c95 f13f a87a 56bc 5eaf 883f faea 793f
00000160: 7353 b8be deed 733f 5d53 9dbb 2f3a 943f
00000170: cbda 7f3f 00b2 0240 e84d 733f 9c10 983f
00000180: 5b02 893f 47b5 7f3f 58b4 d03f 0d1b 0bbd
00000190: 10c8 8f3f 5628 963f 5415 bf3e 89c6 733f
000001a0: 26a2 76bd fa19 1040 5101 8c3d 32e6 de3d
000001b0: f0f8 a03f 8faa afbe 29a8 ad3f 32f5 8b3f
000001c0: 4261 c33b 1352 663d 823a 773f 3584 11bd
000001d0: 9995 1b3b 7697 e43b 7ee8 963f 46f4 29bd
000001e0: 571a 833f 91c6 7f3f 5641 823f e189 0a3d
000001f0: ddd8 763f eb77 783f 4f37 603f fb05 953f
00000200: d2ae 683f 9d6e 2340 fe0c 833f e6aa 1240
00000210: baa8 833f dc91 893f 0b3a b13f 5d5d 613f
00000220: 4d54 833f f49c 833f 4ddd bd3f 1d4b 6d3f
00000230: e40c 813f b33a 21bc a046 d3bd 268e 993f
00000240: 85fa 813f 997a 953d b018 6b3f 157e 8d3f
00000250: f959 1240 3f1b 853d cdb8 8c3f da48 2c3f
00000260: a9c6 843f 2777 7d3f 65ce 703f fbe6 8e3f
00000270: bca6 853f 409f 8f3d ec03 823f fa42 7dbd
00000280: 5e1d 7c3f 741a 1840 94ba 723f a9d1 5b3f
00000290: 261e 7d3f ff90 693f a1fd 62bd 92a1 953c
000002a0: f46b 6a3f 469c 773f dc69 683f 9b20 b73f
000002b0: e3cf 7ebd b89f 563f 501d 8e3f fae8 7b3d
000002c0: 103e 7c3f d7ad 683f cfb8 87bd ff54 453d
000002d0: 6fbf a73f ed1a 863f 5779 983f 85c7 44bd
000002e0: 58d9 813f 447c 5d3f f181 ba3d 823d 883f
000002f0: c5ff 663f bd87 ad3f 46d1 06be 5f92 0340
00000300: 9b6d 753f 35af 973f b4db 8c3f ab23 8e3f
00000310: 834a 683f e82d 723f 518e d73f ab6d 883f
00000320: d1e6 753f ac30 873f 27a7 a83d 6f66 04bd
00000330: e3cc 863f 29a3 1840 4c77 6d3f 374d 983f
00000340: 1410 393c 27d8 7a3f 5b9b ab3f de6d 4d3f
00000350: bcd4 e63f 0d5a 1bbd 9114 793f 0e80 6b3f
00000360: cf3f 73be 8188 783f 0f68 6cbd 3ec9 d23f
00000370: 68de 783f 3429 0440 42b2 6a3f 2399 883f
00000380: 281d 953f 7b15 813f 9779 c93f a2d3 383c
00000390: 7feb 5a3f 4cff 6a3f 2e46 f23d 029e 6d3f
000003a0: c689 68ba 4c51 0c40 f42a d83c cc2a 1e3e
000003b0: 2e73 8c3f 8acc aebe f8d9 9e3f 09c0 813f
000003c0: 913c 233d 9ea3 27bd 226f 5e3f 47cf 07bd
000003d0: 874c 42bc 6ee5 32bd 6092 993f 6252 2bbd
000003e0: 10f7 813f c907 7b3f 3815 6b3f 8945 e23c
000003f0: 6a78 7a3f ef32 803f 9e3d 713f 8c2b 9a3f

fc3.bias f4 [4]
-0.46811268 -0.14358526 -0.5661565 -0.7287127
00000000: 77ac efbe 0408 13be a2ef 10bf ea8c 3abf
