ai/models/dqn/trained_models/dqn_2048_800.pth (torch, 78975 bytes, 6 tensors)

fc1.weight f4 [128, 16]
-0.07877409 0.48662084 0.8819612 -0.033687852 0.56048614 -0.29276398 0.15923685 -0.12101328
0.046672497 0.6604733 0.618752 -0.17906652 -0.4911808 0.27784035 -0.51724356 -0.030188316
-1.1882071 1.1101992 0.41625378 0.3789167 0.09221696 0.5379253 0.32177505 -0.51851827
-1.1923131 -0.242528 0.8935766 -0.8135237 -1.7010759 0.6156859 -0.76391125 0.89684355
0.548493 0.50803113 -0.9044481 0.059181772 -0.14522594 0.6906551 -0.245645 0.79073316
-0.24049225 -0.12302375 0.01692433 0.16083042 0.07995812 -0.3438162 -0.43930367 0.19006927
0.23697431 -0.7786019 0.29436314 1.1455877 -0.2291274 0.29130524 -0.4441242 0.022339476
0.29445675 -0.5053477 0.42372903 0.04845539 -0.51981586 0.26382452 0.25807008 0.30781028
0.104317635 -0.114095 -0.02293956 0.4593484 0.063070655 0.15881965 0.23694801 0.3850171
0.11218553 -0.0477112 0.07083376 0.10737697 0.29035592 0.21113288 0.4337014 0.022638015
0.9084327 0.38474452 -0.10207609 0.013032278 0.5013908 0.55723584 0.10979797 0.11942151
0.52391976 0.22248821 0.0970059 0.2287101 0.8561187 0.2666627 -0.32479838 -0.20669986
-0.079111874 0.76246166 -0.72450584 0.35134706 0.4086612 0.43553525 0.14953683 0.37168744
0.3017495 0.12941314 0.3397845 -0.47312266 -0.21301286 -0.18573709 0.031713586 -0.21738479
0.50506604 0.89223903 0.042074066 -0.68821764 0.105841726 0.78840584 0.078817785 0.43810913
-0.33377486 -0.5194002 -0.41356537 -0.09265326 -0.037714813 -0.18954271 0.09712462 -0.15132885
0.11527894 0.43072435 0.07236416 0.7688132 0.2217915 -0.33217695 0.20573135 -0.380871
-0.5801078 -1.0964766 -0.22922862 0.8757438 0.21272561 -0.15724252 -0.8164968 -0.27470386
0.21650885 -0.03969645 -0.13624227 -0.0303864 0.58241826 0.3250455 -0.5036992 0.12970397
0.61314654 -0.038725507 -0.055633176 -0.01028723 1.2755288 0.46472383 0.5324083 0.5178472
0.28889817 0.08371871 -0.23788682 0.29288578 -0.11569712 0.35255656 0.2160259 0.09738775
-0.10110658 0.14101125 0.31403118 -0.16027245 0.42777917 0.5474798 0.23992443 -0.03847959
0.8525676 0.501241 -0.016168581 -0.06469787 0.35805243 0.90425736 0.24511592 0.010349843
0.26816678 0.21674892 0.24825561 -0.11185921 0.46582818 0.7537005 -1.2235155 -0.63749504
0.30645454 0.45973736 0.5981247 0.16217496 0.10497877 -0.07899382 0.10453284 -0.09464777
-0.041990936 0.33559057 -0.15830821 -0.52074826 -0.31337038 -0.095913686 0.38892838 -0.74214476
-0.33003926 1.0139794 -0.42943814 -0.2154259 -0.18532003 0.53368527 0.096383385 -1.6481746
0.3243931 -0.094106905 0.114349276 -0.7027456 0.60070664 0.1691511 -0.026690168 -0.80747813
-0.6308363 -1.0526502 -0.59359133 0.731201 0.42461804 1.0663679 -0.07591933 0.2586843
0.33777514 0.22001846 -0.040198058 0.5644531 -0.013631265 0.31448403 -0.23800948 -0.11174715
0.8218031 0.8334188 0.96675444 1.0055904 -0.0042182 -0.24511944 -0.55801344 0.0025300435
0.5853443 -0.45708913 0.2043183 0.7026987 1.0141271 1.8219854 0.9784169 1.1427741
00000000: 4f54 a1bd 5e26 f93e 36c8 613f 46fc 09bd
00000010: 057c 0f3f 29e5 95be fc0e 233e cfd5 f7bd
00000020: a92b 3f3d c714 293f 8866 1e3f 375d 37be
00000030: 0d7c fbbe 1741 8e3e 136a 04bf 7d4d f7bc
00000040: 2c17 98bf 021b 8e3f 371f d53e 5f01 c23e
00000050: 3fdc bc3d 79b5 093f b3bf a43e 9dbd 04bf
00000060: b79d 98bf 4359 78be 70c1 643f 1743 50bf
00000070: dbbc d9bf 979d 1d3f b08f 43bf 8a97 653f
00000080: 0a6a 0c3f 540e 023f e989 67bf 9668 723d
00000090: 1cb6 14be c6ce 303f 5d8a 7bbe 7d6d 4a3f
000000a0: 9a43 76be e0f3 fbbd e4a4 8a3c bbb0 243e
000000b0: 15c1 a33d ad08 b0be 69ec e0be 85a1 423e
000000c0: 65a9 723e 7452 47bf c4b6 963e 9ea2 923f
000000d0: 60a0 6abe f625 953e 3f64 e3be 4701 b73c
000000e0: 09c3 963e 785e 01bf 03f3 d83e 2979 463d
000000f0: a712 05bf 0214 873e c321 843e 4f99 9d3e
00000100: 7ca4 d53d a4aa e9bd beeb bbbc b72f eb3e
00000110: 302b 813d 9ea1 223e 80a2 723e f620 c53e
00000120: 87c1 e53d d26c 43bd 4a11 913d 75e8 db3d
00000130: 88a9 943e 3833 583e 1c0e de3e 5c73 b93c
00000140: 0c8f 683f 3cfd c43e 450d d1bd 5685 553c
00000150: 265b 003f 02a7 0e3f c2dd e03d 4493 f43d
00000160: 9b1f 063f f3d3 633e 08ab c63d fb32 6a3e
00000170: 982a 5b3f 0388 883e f94b a6be 21a9 53be
00000180: 6805 a2bd b030 433f 3779 39bf c3e3 b33e
00000190: 0a3c d13e 7afe de3e 2f20 193e d14d be3e
000001a0: e97e 9a3e e184 043e 3cf8 ad3e 223d f2be
000001b0: 0b20 5abe dd31 3ebe 1be6 013d 1e9a 5ebe
000001c0: 024c 013f c769 643f db55 2c3d 082f 30bf
000001d0: 8cc3 d83d f7d4 493f 386b a13d d74f e03e
000001e0: 8ae4 aabe 69f7 04bf d7be d3be fec0 bdbd
000001f0: d97a 1abd 7c17 42be 46e9 c63d f3f5 1abe
00000200: 5d17 ec3d e787 dc3e a933 943d f1d0 443f
00000210: 501d 633e 1913 aabe 3dab 523e 8601 c3be
00000220: f281 14bf 5859 8cbf e8ba 6abe bf30 603f
00000230: bed4 593e 2f04 21be ef05 51bf fca5 8cbe
00000240: 7fb4 5d3e bf98 22bd 1883 0bbe e6ec f8bc
00000250: 5d19 153f 5d6c a63e 6ef2 00bf 1ed1 043e
00000260: 2cf7 1c3f a39e 1ebd 9ddf 63bd c58b 28bc
00000270: 8744 a33f 48f0 ed3e e94b 083f a291 043f
00000280: 76ea 933e b774 ab3d 9a98 73be 20f5 953e
00000290: 9df2 ecbd 4b82 b43e e535 5d3e 3b73 c73d
000002a0: f710 cfbd 4165 103e b2c8 a03e 761e 24be
000002b0: df05 db3e a327 0c3f c0ae 753e c69c 1dbd
000002c0: df41 5a3f 5551 003f f973 84bc 5180 84bd
000002d0: a652 b73e 697d 673f abff 7a3e 6392 293c
000002e0: 284d 893e 6ef3 5d3e b836 7e3e 7116 e5bd
000002f0: 0881 ee3e 84f2 403f 289c 9cbf e032 23bf
00000300: 9ce7 9c3e b262 eb3e b31e 193f 3111 263e
00000310: 1cff d63d 83c7 a1bd 5015 d63d b1d6 c1bd
00000320: b0fe 2bbd 87d2 ab3e 8c1b 22be c24f 05bf
00000330: 1572 a0be 656e c4bd 9f21 c73e 33fd 3dbf
00000340: e8fa a8be 14ca 813f 51df dbbe 9b98 5cbe
00000350: 89c4 3dbe 999f 083f a764 c53d 63f7 d2bf
00000360: da16 a63e 1fbb c0bd f42f ea3d 23e7 33bf
00000370: e9c7 193f f235 2d3e 57a5 dabc e3b6 4ebf
00000380: 7d7e 21bf 3ebd 86bf 9af5 17bf fd2f 3b3f
00000390: 8967 d93e be7e 883f 987b 9bbd 4572 843e
000003a0: ddf0 ac3e 854c 613e b8a6 24bd 0080 103f
000003b0: ab55 5fbc 0d04 a13e c2b8 73be b1db e4bd
000003c0: b061 523f ef5a 553f 387d 773f 30b7 803f
000003d0: d438 8abb 9700 7bbe f8d9 0ebf 16cf 253b
000003e0: 20d9 153f 9607 eabe d138 513e 10e4 333f
000003f0: ebce 813f d136 e93f 8879 7a3f 6c46 923f

fc1.bias f4 [128]
-2.7742486 -0.08118179 -2.9450047 -2.4916873 6.6435957 -2.2732654 -2.3918052 -3.376268
-2.6372592 -2.85808 6.6753106 -1.7511228 -2.9767683 -2.4269922 -3.072884 8.321397
-2.2046542 -0.6866274 -2.945499 -3.1191063 6.0300093 -2.847258 2.1890943 -2.393058
-3.0593004 -3.5002882 5.7529907 5.994206 -1.7286613 -1.7841719 -2.9600441 -2.6392708
-2.9606519 -2.094747 6.099293 -2.6904671 -2.2583528 -2.2517762 -1.469935 -2.2614107
-1.8482716 -2.361907 0.0011898286 -2.5749946 -2.2175758 -2.856522 -2.362928 -2.086378
-2.9785354 -2.9508665 -2.6307511 -2.60213 -1.4582903 -1.87641 -1.5777245 -1.3250043
-3.5238683 -2.1159282 -2.3846052 3.553651 -2.4613707 -0.12041558 -2.9207191 -1.1544976
-1.5653275 -2.95186 -1.7057952 -2.6031444 -2.742369 -2.6382787 -3.2036524 -2.859935
-2.0237157 -2.6974084 -2.844579 -2.5340538 -2.7577362 -2.6079848 -2.682502 -2.480221
-2.7298434 -2.9215488 -2.7541945 -2.7495675 6.5797358 -3.0696902 -2.4237204 -2.3334482
-3.0004108 -2.888317 -2.8837476 -3.063876 -2.1100452 -1.5792881 -3.2527065 0.911928
-2.6193817 -2.2902548 -2.0673516 -0.2978469 -2.5783925 -2.8569908 -2.0623634 -2.7717638
-2.84388 -2.2337286 -2.820289 -2.1823552 -3.049289 0.95561886 -2.61236 -2.844705
-1.5150211 -2.0298667 -3.0751014 -2.515935 0.6550934 4.6952605 6.0990944 -2.4397535
-1.9160777 -1.542568 -2.545741 -1.7546502 -1.733808 -3.16053 -2.7204719 -2.3627098
00000000: 4a8d 31c0 a342 a6bd f57a 3cc0 ce77 1fc0
00000010: 5698 d440 2e7d 11c0 5613 19c0 c614 58c0
00000020: dbc8 28c0 c8ea 36c0 259c d540 cb24 e0bf
00000030: 5f83 3ec0 d753 1bc0 22aa 44c0 7124 0541
00000040: 0e19 0dc0 d0c6 2fbf 0e83 3cc0 709f 47c0
00000050: d6f5 c040 7a39 36c0 1f1a 0c40 dd27 19c0
00000060: 94cb 43c0 b904 60c0 8018 b840 89d0 bf40
00000070: c644 ddbf bf5f e4bf 5d71 3dc0 d0e9 28c0
00000080: 527b 3dc0 5610 06c0 692d c340 9d30 2cc0
00000090: da88 10c0 1a1d 10c0 d526 bcbf f4ba 10c0
000000a0: 2a94 ecbf 7c29 17c0 06f4 9b3a b6cc 24c0
000000b0: c3ec 0dc0 42d1 36c0 363a 17c0 3887 05c0
000000c0: 53a0 3ec0 ffda 3cc0 3a5e 28c0 4c89 26c0
000000d0: 42a9 babf 342e f0bf e0f2 c9bf be99 a9bf
000000e0: 0f87 61c0 5e6b 07c0 5f9d 18c0 056f 6340
000000f0: 1987 1dc0 729c f6bd 10ed 3ac0 94c6 93bf
00000100: a75c c8bf 46eb 3cc0 7f57 dabf eb99 26c0
00000110: f982 2fc0 8fd9 28c0 a408 4dc0 2d09 37c0
00000120: 8f84 01c0 57a2 2cc0 950d 36c0 f02d 22c0
00000130: c07e 30c0 39e9 26c0 1dae 2bc0 f1bb 1ec0
00000140: c1b5 2ec0 a8fa 3ac0 b944 30c0 eaf8 2fc0
00000150: 328d d240 ce75 44c0 3c1e 1bc0 3757 15c0
00000160: bb06 40c0 30da 38c0 528f 38c0 8b16 44c0
00000170: fb0a 07c0 1d26 cabf 582c 50c0 1d74 693f
00000180: f3a3 27c0 8993 12c0 7d4f 04c0 647f 98be
00000190: 6204 25c0 f0d8 36c0 c3fd 03c0 9464 31c0
000001a0: 2102 36c0 69f5 0ec0 9d7f 34c0 b5ab 0bc0
000001b0: 8d27 43c0 70a3 743f e830 27c0 a60f 36c0
000001c0: 36ec c1bf 56e9 01c0 76ce 44c0 1405 21c0
000001d0: 33b4 273f 933f 9640 c82b c340 ec24 1cc0
000001e0: 0942 f5bf de72 c5bf 6ced 22c0 6198 e0bf
000001f0: 6ced ddbf 2046 4ac0 361c 2ec0 a336 17c0

fc2.weight f4 [128, 128]
1.8994557 0.39364758 2.035001 2.7700448 0.8389957 0.18270503 1.099773 3.251699
2.5109544 -0.36146876 1.0272077 0.3828232 1.5916824 3.655263 4.777025 1.4046632
2.1711235 3.5960062 2.4441729 2.7451415 0.8942443 0.0077117733 0.74360514 1.2599657
-0.52011555 -0.05809341 0.5607446 0.84750646 3.4119267 2.1441166 0.39961833 2.6172895
3.8227897 0.21383275 0.36141333 0.11533101 3.4066978 1.6230462 3.7467637 0.26710436
1.183073 2.4979396 3.0281036 2.4500191 -2.5017047 1.8360424 2.1308706 0.3290547
-0.24462132 1.4521631 1.260639 3.1284344 2.2371268 2.2783976 3.6321013 0.038496543
2.6192617 2.874599 0.92443347 7.5317197 1.6489857 2.7845004 2.2318044 3.649056
2.5575469 0.08235415 1.659661 2.5814426 0.2861637 0.7055464 0.16929057 2.9207149
1.2016505 0.65749294 2.7477515 5.695492 1.6174023 2.328662 1.8027233 0.52775365
5.6453185 -1.7020936 3.3268757 3.5846334 0.8803745 1.0411696 4.2755704 1.3015653
2.4448934 1.8317302 4.7138944 1.3289169 1.3728004 2.9480186 3.8556085 3.7648036
2.462916 0.115970924 3.6632006 1.9405502 3.4230595 1.7187941 3.9801588 0.45146036
0.86505586 4.012706 3.6090567 0.22269805 1.7793405 0.61221415 2.1573787 3.749386
4.6510277 -0.13252158 1.6124549 0.7817903 4.061214 0.57569957 0.7805651 1.5022957
4.009541 2.959503 0.12158108 -0.7938018 1.6420109 3.1146712 1.5051693 -0.27649087
-0.14342459 2.8887913 -3.0720322 -0.91323143 3.580876 -1.962063 -0.6580731 -5.3449717
-0.94653124 -2.7181587 3.4033437 -1.9045129 1.1561564 -1.2611961 -1.9567735 2.347013
-0.6165629 1.6257095 -0.70511603 -5.1010537 3.7433562 -2.4540823 0.005073979 -1.5683349
-1.8432322 -3.0756252 3.410036 3.2033608 3.1824982 -1.8800925 -2.1092556 -1.9716189
-0.9294105 -1.5868486 7.455734 -1.8126522 -2.6905708 -1.8997687 0.44221547 -1.8556297
-1.7296174 -0.9275537 -0.65226984 -1.0613486 -2.1369576 1.7250277 -1.605327 -1.1470621
-1.8793882 0.18262142 -1.0974913 -1.2768934 -1.0536228 -2.2963748 1.0638142 -1.3194108
-2.6778898 -0.20245 1.5363024 4.13012 -1.5568889 0.089029156 -1.4805493 1.7391238
-1.2377744 -2.2717125 -1.056848 0.38203543 -3.0393953 -1.0563309 -0.17265536 -1.4908382
-3.361534 -6.909163 -1.250074 3.7297764 0.7597385 -4.0710683 -3.2090251 0.15833937
3.756226 -1.193298 0.602751 0.4464316 3.4578624 -2.5236819 1.0728834 -0.36774242
0.2672857 -2.9656587 -0.89298546 -1.4564381 -0.17990446 3.064692 -3.5563314 0.26117232
-1.6617529 -1.9851245 1.4397488 -4.461465 -0.82908154 -3.1931286 1.8417867 -0.8454313
-0.91107506 3.16011 -2.8883994 -2.0299528 -2.3721595 -0.12338128 -2.0655339 -1.5265096
3.2038465 -2.2374563 -0.9309683 -0.5912719 -1.9229512 2.5986714 3.759755 -1.0900989
0.68509126 -1.1099719 -2.3435514 -1.5509381 -3.472003 -3.0416653 -0.16653566 -1.8622489
00000000: 5d21 f33f 2d8c c93e 753d 0240 6a48 3140
00000010: 6cc8 563f 0717 3b3e 5dc5 8c3f d61b 5040
00000020: 7ab3 2040 6f12 b9be 8b7b 833f 6701 c43e
00000030: 40bc cb3f d4ef 6940 64dd 9840 01cc b33f
00000040: b0f3 0a40 f724 6640 546d 1c40 66b0 2f40
00000050: 32ed 643f 0bb3 fc3b e85c 3e3f 8e46 a13f
00000060: 4b26 05bf 5bf3 6dbd f58c 0f3f 2ff6 583f
00000070: 025d 5a40 3539 0940 c69a cc3e ac81 2740
00000080: 96a8 7440 f9f6 5a3e 2b0b b93e aa32 ec3d
00000090: 5607 5a40 fabf cf3f faca 6f40 e7c1 883e
000000a0: f06e 973f 3ede 1f40 73cc 4140 1dcd 1c40
000000b0: ee1b 20c0 7003 eb3f 2f60 0840 dc79 a83e
000000c0: 037e 7abe 7be0 b93f 9e5c a13f 4538 4840
000000d0: 162d 0f40 44d1 1140 5974 6840 8dae 1d3d
000000e0: fca1 2740 6ef9 3740 aca7 6c3f d903 f140
000000f0: f711 d33f 4135 3240 e2d5 0e40 228a 6940
00000100: d9ae 2340 4ba9 a83d c66f d43f 5b36 2540
00000110: 0c84 923e b09e 343f 825a 2d3e feec 3a40
00000120: afcf 993f 7551 283f 29db 2f40 7841 b640
00000130: 0a07 cf3f cc08 1540 a3bf e63f dd1a 073f
00000140: 73a6 b440 34de d9bf 88eb 5440 a26a 6540
00000150: 3960 613f 0c45 853f 79d1 8840 b199 a63f
00000160: 2279 1c40 2376 ea3f 39d8 9640 f319 aa3f
00000170: ecb7 af3f 56ac 3c40 4ac2 7640 8bf2 7040
00000180: 6aa0 1d40 2a82 ed3d e171 6a40 f363 f83f
00000190: 6813 5b40 7201 dc3f ecba 7e40 d025 e73e
000001a0: 4d74 5d3f 1668 8040 c9fa 6640 f50a 643e
000001b0: 6ec1 e33f 11ba 1c3f 7e12 0a40 f1f5 6f40
000001c0: 38d5 9440 bdb3 07be ec64 ce3f 6923 483f
000001d0: 77f5 8140 0c61 133f 1dd3 473f 3a4b c03f
000001e0: 294e 8040 7f68 3d40 80ff f83d 9836 4bbf
000001f0: 6a2d d23f c656 4740 63a9 c03f 3690 8dbe
00000200: e5dd 12be f5e1 3840 2d9c 44c0 89c9 69bf
00000210: 132d 6540 e124 fbbf 7b77 28bf 020a abc0
00000220: df4f 72bf 50f6 2dc0 62d0 5940 14c7 f3bf
00000230: effc 933f e06e a1bf 8e77 fabf 7635 1640
00000240: 11d7 1dbf 4017 d03f 7c82 34bf d53b a3c0
00000250: 2693 6f40 af0f 1dc0 9f43 a63b 33bf c8bf
00000260: 08ef ebbf 0bd7 44c0 083e 5a40 dd03 4d40
00000270: 0dae 4b40 dfa6 f0bf 0bfe 06c0 025e fcbf
00000280: d9ed 6dbf db1d cbbf 5f95 ee40 fd04 e8bf
00000290: 5032 2cc0 9f2b f3bf 116a e23e 4685 edbf
000002a0: 1a64 ddbf 2974 6dbf 28fb 26bf 45da 87bf
000002b0: eac3 08c0 b5cd dc3f 5b7b cdbf eed2 92bf
000002c0: cb8f f0bf 1c01 3b3e 987a 8cbf 3e71 a3bf
000002d0: 1ddd 86bf cef7 12c0 102b 883f 74e2 a8bf
000002e0: 8c62 2bc0 0e4f 4fbe 8fa5 c43f f129 8440
000002f0: 2348 c7bf eb54 b63d a482 bdbf 9c9b de3f
00000300: 646f 9ebf bd63 11c0 cc46 87bf 269a c33e
00000310: 7485 42c0 da35 87bf 91cc 30be c9d3 bebf
00000320: 6023 57c0 dd17 ddc0 6d02 a0bf a8b4 6e40
00000330: 397e 423f 3146 82c0 ab60 4dc0 b723 223e
00000340: 0266 7040 fdbd 98bf e44d 1a3f af92 e43e
00000350: 9e4d 5d40 0184 21c0 3e54 893f bc48 bcbe
00000360: acd9 883e 5acd 3dc0 b29a 64bf 906c babf
00000370: e038 38be ea23 4440 ef9a 63c0 61b8 853e
00000380: 52b4 d4bf 8f18 febf b049 b83f 52c4 8ec0
00000390: b03e 54bf 385c 4cc0 abbf eb3f 306e 58bf
000003a0: 373c 69bf 3e3f 4a40 89db 38c0 bfea 01c0
000003b0: 76d1 17c0 53af fcbd b531 04c0 ab64 c3bf
000003c0: d20b 4d40 7c32 0fc0 f053 6ebf 985d 17bf
000003d0: 4423 f6bf a250 2640 d39f 7040 5c88 8bbf
000003e0: 2462 2f3f 8f13 8ebf bffc 15c0 2485 c6bf
000003f0: 4c35 5ec0 a5aa 42c0 5388 2abe 2c5e eebf

fc2.bias f4 [128]
2.1286073 9.163748 1.6875587 -3.893104 -0.75609994 -3.231279 -4.539333 -1.9572254
1.5310428 2.5386767 -4.4916964 -1.8411869 -2.1617558 -0.08780026 -0.1132946 -3.518182
2.0772872 -0.065625735 1.789441 -4.2105236 4.417168 -0.08186763 -2.277458 2.973602
1.9521817 2.0219603 1.5321258 -3.6508317 -1.7833731 -0.06759665 2.20463 -0.0151686035
2.7155545 3.8002002 2.270505 2.0826926 2.5800338 -1.9956049 -0.09470469 0.005942398
1.2231059 1.7859848 2.0825694 -4.5108695 0.013080058 -2.1517467 -0.3545875 0.055238504
2.4949079 1.5705216 0.16641484 -0.10131938 -4.13482 2.0816894 -4.2421365 -0.049593672
-2.2583735 -3.3967319 -0.014924923 2.032732 3.610269 -4.5745974 0.45701337 -4.061174
1.941521 -3.549928 -3.5367217 -3.63571 1.7915938 2.1349764 5.7038503 -2.6209583
2.202452 2.2206087 -0.07810237 0.063102394 1.7680916 -4.4792466 -3.064564 -4.466978
-0.13102587 -0.6644793 -3.851143 1.145572 -4.1413875 -0.09262986 -2.8248227 2.2635927
0.43126345 2.2600422 0.054480825 2.331482 -1.1859897 -3.7516136 2.1530867 -4.052985
-3.3537014 2.2691786 -4.3345613 -0.032630183 -2.4483948 -3.2453852 4.6210184 2.28366
0.060158577 -4.0993953 -0.020670481 -0.06924009 -4.211905 0.32556206 -4.433619 -2.1764536
-0.04008724 -0.10013266 2.2717443 0.012461248 0.06639504 -0.052168973 -3.6533885 -0.055650473
1.3798416 2.0580175 1.8146958 -0.017710878 1.9132053 -2.5332873 2.3742824 -3.872122
00000000: 1a3b 0840 b69e 1241 ec01 d83f 9e28 79c0
00000010: c48f 41bf 46cd 4ec0 3742 91c0 5d86 fabf
00000020: 36f9 c33f ae79 2240 fabb 8fc0 03ac ebbf
00000030: 355a 0ac0 9fd0 b3bd 0007 e8bd e529 61c0
00000040: 46f2 0440 c966 86bd 670c e53f 9cbc 86c0
00000050: 7159 8d40 37aa a7bd dfc1 11c0 7f4f 3e40
00000060: 17e1 f93f cc67 0140 b31c c43f 3aa7 69c0
00000070: 9245 e4bf 1d70 8abd a818 0d40 bc85 78bc
00000080: a5cb 2d40 7b36 7340 f44f 1140 d64a 0540
00000090: 461f 2540 fb6f ffbf 88f4 c1bd 73b8 c23b
000000a0: bc8e 9c3f 269b e43f d148 0540 0b59 90c0
000000b0: bd4d 563c 38b6 09c0 7e8c b5be c541 623d
000000c0: 92ac 1f40 da06 c93f a768 2a3e 8980 cfbd
000000d0: 7250 84c0 663a 0540 95bf 87c0 bc22 4bbd
000000e0: 3189 10c0 0e64 59c0 aa87 74bc 4818 0240
000000f0: a60e 6740 1a63 92c0 a8fd e93e 23f5 81c0
00000100: c383 f83f 0532 63c0 a659 62c0 79af 68c0
00000110: f252 e53f 74a3 0840 f185 b640 c8bd 27c0
00000120: f9f4 0c40 741e 0e40 23f4 9fbd d43b 813d
00000130: d350 e23f fd55 8fc0 d121 44c0 7cf1 8ec0
00000140: a52b 06be 511b 2abf 2079 76c0 1aa2 923f
00000150: 3f86 84c0 b9b4 bdbd e5c9 34c0 b4de 1040
00000160: 90ce dc3e 88a4 1040 4927 5f3d 0037 1540
00000170: 83ce 97bf 701a 70c0 2ccc 0940 0eb2 81c0
00000180: 0ba3 56c0 393a 1140 bab4 8ac0 3aa7 05bd
00000190: 80b2 1cc0 64b4 4fc0 62df 9340 7c27 1240
000001a0: d768 763d 3f2e 83c0 2455 a9bc c0cd 8dbd
000001b0: edc7 86c0 12b0 a63e 35e0 8dc0 044b 0bc0
000001c0: 8532 24bd 5a12 cdbd 4264 1140 432a 4c3c
000001d0: 1ffa 873d 22af 55bd 1ed1 69c0 c0f1 63bd
000001e0: a69e b03f 8fb6 0340 f447 e83f 6716 91bc
000001f0: e9e3 f43f 6121 22c0 3ef4 1740 d9d0 77c0

fc3.weight f4 [4, 128]
1.4904894 20.648241 1.4987178 5.4068255 1.8526973 2.3515265 5.6976953 2.12537
1.4208272 1.3916228 7.759288 2.1579928 1.3011895 -0.058275595 -0.02721074 2.0685627
1.4992564 -0.00040770197 1.6044304 4.6289454 3.2661378 0.07775738 1.7089857 2.783362
1.4887106 1.5457745 1.4972299 5.177535 1.6601979 -0.0338996 1.4346288 -0.047780555
1.4069885 6.5519724 1.5288346 1.6121715 1.488845 2.2605236 0.0010340972 -0.02159916
1.5821542 1.4362533 1.4263937 6.001461 0.09839228 2.235308 1.6193902 -0.08515659
1.4574413 1.5300205 -0.32360536 -0.036490414 7.2852077 1.5537739 6.5335975 0.070145726
2.3843586 3.5068803 -0.042700082 1.4708252 1.0413908 6.607307 -0.23248537 6.2936997
1.5424082 4.2150745 2.578546 4.3066754 1.5350112 1.4956499 0.59329295 1.8318893
1.4817601 1.4350789 0.016739167 0.03704092 1.4018514 5.7999215 3.3932135 7.21518
0.055873275 1.5412956 4.9217987 1.5912538 6.0516133 -0.026990226 2.5564733 1.5386192
-0.36001167 1.4943448 -0.0048011974 1.5503438 1.6541781 6.3316717 1.5135428 6.8708653
2.4484131 1.5411986 7.6591816 -0.033961345 2.3909562 3.8090882 1.474304 1.5144396
-0.06021323 6.6603746 0.068361886 0.1088375 6.514386 -0.34309813 6.6375036 2.262514
0.005962522 0.056230616 1.5408014 -0.035526473 0.002374029 0.0069760634 4.3724813 -0.041393377
1.5957308 1.550461 1.613308 0.0020570748 1.507939 2.2345238 1.4055898 2.984279
1.452694 16.249216 1.3996152 5.487614 1.7303025 2.4938886 5.630495 0.95782477
1.4620526 1.7028421 7.906197 1.2192539 1.1050667 -0.009840655 -0.10316205 3.9560757
1.6335214 0.07298774 1.2801163 5.4240236 3.2277443 0.064993374 1.882844 1.1298292
1.4173822 1.6431586 1.3273847 5.16224 1.5191727 0.070127964 1.6807911 -0.061831452
1.6670585 5.013185 1.6220835 1.3450383 1.6187112 1.2813464 -0.05541766 0.01826552
1.3128829 1.3189012 1.2558819 5.0240154 -0.062209975 0.22861673 1.6098002 0.06150148
1.6485603 1.3248249 -1.8337231 0.04817676 9.711147 1.6723729 6.125663 -0.04804184
2.3452945 0.9650377 0.091068156 1.7957525 1.4458961 6.3481665 -0.13165769 7.4245443
1.4964627 5.8273892 4.316369 4.252659 1.2978741 1.398963 2.5135658 1.4424514
1.5094123 1.5961772 0.08235007 -0.03232425 1.4829423 7.29274 -0.634571 8.208326
0.011295337 1.4248946 4.210995 1.1583346 5.3458686 -0.08567698 -0.9331295 1.5419447
-0.2375481 1.4733196 -0.057716426 2.185441 1.5045296 6.302555 1.4389377 6.1095295
3.3677294 1.6289681 6.8958116 0.011280926 1.2017198 4.136957 0.88768 1.4989485
-0.00088706275 5.942039 0.02638767 0.15446013 7.3699512 -0.34140426 6.552833 1.8730067
0.039852683 -0.040927522 1.4275032 -0.03315666 -0.011859066 -0.043675832 5.0362267 -0.041727267
1.5285308 1.6071789 1.4256835 0.027621048 1.5609709 1.5349232 1.4359454 3.2794647
00000000: 5bc8 be3f 992f a541 fcd5 bf3f b704 ad40
00000010: 2f25 ed3f 697f 1640 8553 b640 1006 0840
00000020: aadd b53f b220 b23f 164c f840 8e1c 0a40
00000030: 618d a63f 64b2 6ebd 0fe9 debc 5563 0440
00000040: a2e7 bf3f d5c0 d5b9 fa5d cd3f 5220 9440
00000050: 6708 5140 433f 9f3d 0bc0 da3f 9a22 3240
00000060: 128e be3f f0db c53f 3ba5 bf3f 5eae a540
00000070: 5d81 d43f 4fda 0abd eba1 b73f 8bb5 43bd
00000080: 3318 b43f c2a9 d140 dab0 c33f a35b ce3f
00000090: 7992 be3f 6bac 1040 8b8a 873a b9f0 b0bc
000000a0: 0784 ca3f 26d7 b73f 1294 b63f f80b c040
000000b0: e481 c93d 490f 0f40 2e48 cf3f 9466 aebd
000000c0: 708d ba3f b6d7 c33f 9aaf a5be f976 15bd
000000d0: 6c20 e940 10e2 c63f 3b13 d140 90a8 8f3d
000000e0: 5599 1840 ba70 6040 48e6 2ebd 0044 bc3f
000000f0: 4b4c 853f 0f6f d340 a510 6ebe fd65 c940
00000100: a26d c53f e4e1 8640 e606 2540 49d0 8940
00000110: 3f7b c43f 7571 bf3f 0ce2 173f 597b ea3f
00000120: 51aa bd3f aab0 b73f 9420 893c 38b8 173d
00000130: de6f b33f f598 b940 692a 5940 c1e2 e640
00000140: 60db 643d 2d49 c53f 607f 9d40 34ae cb3f
00000150: d1a6 c140 9b1a ddbc 429d 2340 79f1 c43f
00000160: 7353 b8be b146 bf3f 5d53 9dbb aa71 c63f
00000170: 1cbc d33f 0e9d ca40 c5bb c13f 21de db40
00000180: cdb2 1c40 ff45 c53f 0418 f540 0d1b 0bbd
00000190: 6d05 1940 1ac8 7340 feb5 bc3f 28d9 c13f
000001a0: 26a2 76bd ca21 d540 5101 8c3d 32e6 de3d
000001b0: da75 d040 8faa afbe 6e66 d440 08cd 1040
000001c0: 4261 c33b 1352 663d fb38 c53f 3584 11bd
000001d0: 9995 1b3b 7697 e43b 5eeb 8b40 1a8c 29bd
000001e0: e840 cc3f 8275 c63f e080 ce3f fdcf 063b
000001f0: 2504 c13f 7002 0f40 5eea b33f 6dfe 3e40
00000200: e1f1 b93f 65fe 8141 9726 b33f 899a af40
00000210: 8d7a dd3f df9b 1f40 042d b440 0134 753f
00000220: 8a24 bb3f bbf6 d93f 91ff fc40 8310 9c3f
00000230: d372 8d3f b33a 21bc a046 d3bd 5830 7d40
00000240: 3b17 d13f 997a 953d dada a33f 9a91 ad40
00000250: 5d93 4e40 3f1b 853d 0801 f13f 3e9e 903f
00000260: c86c b53f 0553 d23f bee7 a93f 1231 a540
00000270: 4074 c23f 409f 8f3d 2a24 d73f fa42 7dbd
00000280: 2c62 d53f 036c a040 6fa0 cf3f 372a ac3f
00000290: ee31 cf3f 2903 a43f a1fd 62bd 92a1 953c
000002a0: 8c0c a83f c1d1 a83f bdc0 a03f bcc4 a040
000002b0: e3cf 7ebd 811a 6a3e ef0d ce3f fae8 7b3d
000002c0: 0604 d33f dd93 a93f 70b7 eabf ff54 453d
000002d0: dc60 1b41 5110 d63f 6e05 c440 85c7 44bd
000002e0: 4e19 1640 b60c 773f f181 ba3d 38db e53f
000002f0: 2013 b93f 2e24 cb40 46d1 06be de95 ed40
00000300: 178c bf3f f979 ba40 b21f 8a40 c815 8840
00000310: bd20 a63f 3811 b33f 43de 2040 3fa2 b83f
00000320: 6c34 c13f 894f cc3f 27a7 a83d 6f66 04bd
00000330: 0ed1 bd3f 205e e940 3f73 22bf 4e55 0341
00000340: 1410 393c f262 b63f 79c0 8640 4f44 943f
00000350: 5b11 ab40 6a77 afbd 93e1 6ebf 725e c53f
00000360: cf3f 73be bd95 bc3f 0f68 6cbd 44de 0b40
00000370: 6d94 c03f 88ae c940 1c2f b83f 4481 c340
00000380: e188 5740 0782 d03f 7daa dc40 a2d3 383c
00000390: f4d1 993f f461 8440 ff3e 633f 8bdd bf3f
000003a0: c689 68ba 2f25 be40 f42a d83c cc2a 1e3e
000003b0: a4d6 eb40 8acc aebe cfb0 d140 afbe ef3f
000003c0: 913c 233d 9ea3 27bd 6db8 b63f 47cf 07bd
000003d0: 874c 42bc 6ee5 32bd c528 a140 36ea 2abd
000003e0: e6a6 c33f 0ab8 cd3f cc7c b63f 8945 e23c
000003f0: e5cd c73f 5d78 c43f 0fcd b73f c0e2 5140

fc3.bias f4 [4]
0.56433594 1.683715 5.6841927 1.32555
00000000: 5278 103f f983 d73f e8e4 b540 9fab a93f
