ai/models/dqn/trained_models/dqn_2048_700.pth (torch, 78975 bytes, 6 tensors)

fc1.weight f4 [128, 16]
0	0xbebcf976	-0.36909074
1	0xbdf305f1	-0.118663676
2	0x3d7ec930	0.062203586
3	0xbdc1daf0	-0.09465587
4	0xbeea743e	-0.4579181
5	0xbdee1b6f	-0.11626326
6	0xbe1eeddc	-0.15520424
7	0xbf204a46	-0.6261333
8	0x3f10a3eb	0.5650012
9	0x3e5d7084	0.21624953
10	0xbe2c1bf6	-0.16807541
11	0x3d4c2387	0.04983857
12	0x3dc45cc4	0.09588006
13	0xbdff2c03	-0.124595664
14	0x3f1081a5	0.5644782
15	0x3f9dd125	1.2329451
16	0x3f7f370b	0.99693364
17	0x3ef6a610	0.4817357
18	0xbf0517d7	-0.519895
19	0x3eba9886	0.3644449
20	0x3f7e8e99	0.99436337
21	0xbb4cfde6	-0.0031279265
22	0xbebccf4d	-0.36876908
23	0x3f253411	0.6453257
24	0xbf1c7f7d	-0.6113203
25	0x3ee168dd	0.44025317
26	0xbea565a5	-0.3230411
27	0x3f4bf91d	0.7967699
28	0xbf1055b2	-0.5638076
29	0xbe3564c8	-0.17714226
30	0x3f16185c	0.5863092
31	0xbe8011ae	-0.2501349
32	0xbddae284	-0.10687736
33	0x3f017b55	0.50578815
34	0x3fb11dab	1.3837179
35	0xbdfc7e90	-0.123288274
36	0xbd1d4cfc	-0.038403496
37	0xbf16e7ef	-0.5894765
38	0xbca1b29e	-0.019738492
39	0x3f02b844	0.5106242
40	0xbe4d5c14	-0.20054656
41	0x3dad4f12	0.08462347
42	0xbf889589	-1.0670635
43	0x3e7537bf	0.23947047
44	0x3f330242	0.6992532
45	0xbe140de2	-0.14458421
46	0xbf24786d	-0.64246255
47	0xbddfaf11	-0.10922063
48	0x3dd3e76a	0.10346873
49	0xbe14d387	-0.14533816
50	0x3c26aaa0	0.010172516
51	0xbf32b076	-0.6980051
52	0x3eb3b6e4	0.35100472
53	0x3dc7a357	0.097479515
54	0x3f563104	0.8366854
55	0xbe88bafb	-0.26705155
56	0x3e81404f	0.25244376
57	0xbc0838a1	-0.008314283
58	0xbd26e82b	-0.040748756
59	0x3f04f88a	0.5194174
60	0xbeaad49c	-0.33365333
61	0xbea09948	-0.31366944
62	0x3f852681	1.0402375
63	0xbec6908a	-0.3878215
64	0x3e586e7e	0.211359
65	0x3dfef35d	0.124487616
66	0x3f1ef24c	0.62088466
67	0x3e3da508	0.18519986
68	0x3df9ba02	0.12193681
69	0xbd33b4be	-0.04387354
70	0xbda95136	-0.08267443
71	0x3ead8ce6	0.3389656
72	0xbd45521a	-0.048174
73	0x3e279eb3	0.16369133
74	0xbea60cce	-0.32431644
75	0x3edf4907	0.43610403
76	0x3e4822d7	0.1954454
77	0x3eef664a	0.46757728
78	0x3d0f5eac	0.035002396
79	0x3e99460c	0.29936254
80	0xbf3566e8	-0.7086015
81	0x3ab350d6	0.0013680707
82	0x3ef5520a	0.47914153
83	0x3e578bca	0.21049419
84	0xbf2c2172	-0.67238533
85	0x3e306243	0.17224984
86	0xbd7ff26d	-0.062487055
87	0xbb995fa7	-0.004680592
88	0x3ec44b6a	0.38338786
89	0x3d6cfe99	0.05785999
90	0x3ccf7ab7	0.02532707
91	0x3ea64b67	0.32479402
92	0x3f070550	0.5274248
93	0x3e53432d	0.20631094
94	0x3e0a8d93	0.13530569
95	0x3e1f1c48	0.15538132
96	0xbf31893b	-0.6935002
97	0x3ea04382	0.31301504
98	0x3e859e43	0.26097307
99	0xbef95ea5	-0.4870502
100	0x3eabab89	0.33529308
101	0x3d99b343	0.075048946
102	0xbdf4b519	-0.11948604
103	0x3f269b76	0.65080965
104	0xbe662b59	-0.22477473
105	0x3e3d3696	0.18477854
106	0xbde9180e	-0.11381541
107	0x3e97933a	0.29604512
108	0x3e001ef0	0.12511802
109	0x3e06dde9	0.1317059
110	0x3ed92764	0.42412865
111	0xbd810cfe	-0.06301306
112	0xbc82e55b	-0.015978506
113	0x3f2c3b17	0.67277664
114	0xbf02293e	-0.5084418
115	0xbe860697	-0.26176903
116	0x3e93883d	0.2881488
117	0xbed0749b	-0.40713963
118	0x3db0c9f0	0.086322665
119	0x3f4f9613	0.8108837
120	0x3ea9e070	0.33179045
121	0x3cd9b7c1	0.026576879
122	0xbda695d9	-0.0813405
123	0x3ee34c18	0.44393992
124	0xbe98a6c5	-0.29814735
125	0x3ede3c2a	0.43405277
126	0x3deb7c5a	0.114983276
127	0xbea9bee9	-0.33153465
128	0x3e1ce33a	0.15321055
129	0x3e7cea68	0.24698794
130	0x3f07e008	0.5307622
131	0x3e973d4d	0.29538956
132	0x3ec63710	0.38713884
133	0xbd103680	-0.035208225
134	0xbd494316	-0.049136244
135	0x3d96cf92	0.0736381
136	0x3d133126	0.035935543
137	0xbdac34ab	-0.08408483
138	0xbdce1277	-0.10062116
139	0x3e5cba14	0.21555358
140	0xbcf73b1f	-0.030179558
141	0x3e4b6bf7	0.19865404
142	0x3ea0bba3	0.31393155
143	0x3ed258c7	0.41083357
144	0x3ea3c2bb	0.31984505
145	0x3e55013d	0.20801254
146	0x3f0e0ee7	0.5549149
147	0x3e8b802d	0.27246228
148	0x3e31b6bf	0.17354868
149	0xbe62c613	-0.22145872
150	0x3df179c7	0.11790805
151	0x3e5068a5	0.20352419
152	0x3e6bbd85	0.23021515
153	0x3bdf9b31	0.00682392
154	0xbd217b78	-0.03942439
155	0x3e983ffb	0.29736313
156	0x3f311780	0.69176483
157	0x3e8b823e	0.27247804
158	0x3e887689	0.26652935
159	0x3ef631b1	0.48084787
160	0xbebc24e9	-0.3674691
161	0x3e9b9eae	0.303945
162	0x3e946cdd	0.28989306
163	0x3f0f81d4	0.56057477
164	0x3f268049	0.650395
165	0xbf069c9c	-0.52582717
166	0xbf73288d	-0.9498375
167	0x3e82139e	0.25405592
168	0xbe7a58f6	-0.24447998
169	0xbdaed7af	-0.08537232
170	0x3ddc56aa	0.10758717
171	0x3dd20778	0.10255331
172	0xbd9952ee	-0.07486521
173	0xbeaafa2c	-0.3339399
174	0x3c47c989	0.012194046
175	0x3f08998d	0.533593
176	0xbefa1520	-0.48844242
177	0xbe31e670	-0.17373061
178	0x3f266e97	0.65012497
179	0x3e8ea5d3	0.2786089
180	0xbf31b736	-0.6942018
181	0xbe50f865	-0.20407255
182	0xbef358e3	-0.47528753
183	0xbe2be57d	-0.16786762
184	0xbe7d434e	-0.24732706
185	0xbd670920	-0.056405187
186	0x3ee1b3ef	0.4408259
187	0x3e499ab0	0.19687915
188	0xbecf72a3	-0.40517148
189	0x3e2fca37	0.17166983
190	0x3f2a4f8a	0.66527617
191	0x3f7d7d33	0.99019164
192	0xbf1da00a	-0.61572325
193	0x3ed827d3	0.42217883
194	0xbe0dce09	-0.13848127
195	0x3e4a602d	0.1976325
196	0x3ca9771f	0.020686684
197	0x3e2d7349	0.16938509
198	0xbe92f11d	-0.2869958
199	0x3d59e36f	0.053195413
200	0x3ee3cc03	0.44491586
201	0xbdb9dce3	-0.09075334
202	0x3da87708	0.082258284
203	0x3ed2f6d3	0.41203937
204	0x3ed32d6b	0.4124559
205	0xbd734f86	-0.05940201
206	0x3d20d022	0.03926099
207	0x3f083e8f	0.53220457
208	0x3e69c3cb	0.22828595
209	0x3f13596c	0.5755832
210	0x3e9e4e0b	0.30918917
211	0x3ef21600	0.4728241
212	0x3df851f5	0.12125007
213	0xbe49e0d9	-0.19714679
214	0x3db30437	0.08741038
215	0x3d83e417	0.06439989
216	0x3ef23218	0.47303843
217	0xbef11a59	-0.47090414
218	0x3d5f23fc	0.054477677
219	0x3ed748d3	0.42047748
220	0x3f1acd6c	0.604697
221	0xbd88ae41	-0.06673861
222	0x3e716f57	0.23577629
223	0x3f29ddcc	0.6635406
224	0x3f004677	0.5010752
225	0x3c88a6ae	0.016681042
226	0x3f462c35	0.77411205
227	0x3f198194	0.59963346
228	0xbe193088	-0.1495992
229	0xbe41f84b	-0.18942373
230	0x3ed39da0	0.41331196
231	0x3f3018f7	0.68788093
232	0x3db59c50	0.08867705
233	0xbf945542	-1.1588519
234	0xbe9bbf43	-0.3041936
235	0x3d9f6f53	0.07784905
236	0x3dab3cb2	0.08361186
237	0xbd2b0081	-0.041748527
238	0xbda65528	-0.08121711
239	0x3ed251bc	0.41077983
240	0xbc32c3ca	-0.010910938
241	0x3f2fe298	0.6870513
242	0x3f466dc2	0.7751123
243	0xbcee57f9	-0.029094683
244	0xbd35e6fd	-0.04440974
245	0xbe6f8021	-0.23388721
246	0x3ee69086	0.45032138
247	0x3f156c33	0.58368224
248	0xbf164d08	-0.5871129
249	0xbdac6238	-0.08417171
250	0x3c7a13b0	0.015263483
251	0x3e1419b5	0.14462931
252	0xbf2721ca	-0.65285933
253	0xbe71f322	-0.23627904
254	0xbc9ceca6	-0.019155812
255	0x3f0fde29	0.56198364

fc1.bias f4 [128]
0	0xc0759672	-3.8373075
1	0xc009a3f9	-2.150633
2	0xbfc0fdd7	-1.5077466
3	0xc04d393e	-3.2066188
4	0xc02a2aaf	-2.6588552
5	0xc02e98df	-2.7280805
6	0xc03b6c82	-2.9284978
7	0xc02a5962	-2.6617055
8	0xc031f0af	-2.7803152
9	0xbebc507e	-0.3678016
10	0xbfd5741b	-1.6676058
11	0xc040fdbb	-3.0154865
12	0xc0015d82	-2.0213323
13	0x3e4181a5	0.18897112
14	0xbf99be5f	-1.2011222
15	0xbfffd7e5	-1.9987761
16	0xc05a6440	-3.4123688
17	0xbe2844b4	-0.16432458
18	0xc00a8f9a	-2.1650147
19	0xc0465ca5	-3.0994046
20	0xc0296a5e	-2.6471171
21	0x3eb21cb7	0.34787533
22	0x4095d58e	4.6823187
23	0xc02d5357	-2.7082117
24	0x3f17bad4	0.5926945
25	0xbf6a4f19	-0.91526943
26	0xc06417dc	-3.5639563
27	0xbc1ce357	-0.009575686
28	0xc05193d6	-3.2746482
29	0xc00b2da8	-2.1746616
30	0xbfdc20ed	-1.7197548
31	0xbcfc157e	-0.030771967
32	0xc0239ca7	-2.5564363
33	0xc0337be7	-2.8044374
34	0xc007b7e8	-2.1205997
35	0xc0385da3	-2.8807151
36	0xbff887a5	-1.9416395
37	0x3f31ac0e	0.6940316
38	0xc03acb5e	-2.9186625
39	0xc04ad966	-3.169519
40	0xc013e579	-2.310881
41	0xc035a6a6	-2.8382964
42	0xbf7543f4	-0.95806813
43	0xc000daa1	-2.013344
44	0x3f605217	0.8762526
45	0xc00c843d	-2.1955712
46	0xc03ae47a	-2.920195
47	0xc0304f0f	-2.7548254
48	0xc02d276a	-2.7055306
49	0xc03dae8c	-2.9637785
50	0xc04357e9	-3.0522406
51	0xc0148421	-2.3205645
52	0xc05f2067	-3.4863527
53	0xc0463bfe	-3.0974116
54	0xc0260668	-2.594141
55	0xc03bafc7	-2.9326036
56	0xc00e3128	-2.2217503
57	0xc03ae2bd	-2.920089
58	0xc00454b5	-2.06767
59	0xbf386f42	-0.72044766
60	0x41343d97	11.265037
61	0xc044214a	-3.0645318
62	0xc01e8237	-2.4766977
63	0xc018e206	-2.3887954
64	0x3f1f2fd2	0.62182343
65	0xc05d11f6	-3.4542212
66	0xc038309e	-2.8779674
67	0xc0458738	-3.086378
68	0xc03dbcf0	-2.9646568
69	0xbed6c203	-0.41944894
70	0x4123bf3b	10.234187
71	0xbc925b05	-0.017865667
72	0xc016b398	-2.3547115
73	0xc0527719	-3.2885191
74	0xc03101c9	-2.765734
75	0xbf8d8c62	-1.1058466
76	0xc0110787	-2.2660844
77	0xc01d1f8a	-2.45505
78	0xc035873a	-2.8363786
79	0x3dede641	0.11616183
80	0xbfb780b7	-1.4336156
81	0xc05b9b9b	-3.4313724
82	0xc0072677	-2.1117227
83	0xc06a98c2	-3.6655736
84	0x3f25115b	0.6447961
85	0xc080a7e3	-4.020494
86	0xc04d57d5	-3.2084858
87	0xc046808a	-3.1015954
88	0xc030f1fc	-2.7647696
89	0xc02d251a	-2.7053895
90	0xc04ceb2f	-3.2018545
91	0xc0039a0b	-2.056277
92	0xc045970f	-3.087345
93	0xc02d4b09	-2.7077048
94	0x401affcf	2.4218633
95	0xbfe21346	-1.7662132
96	0xbfc355ab	-1.5260519
97	0xc02eb8a4	-2.7300196
98	0xc018ad9e	-2.3855968
99	0xc00ccf44	-2.2001505
100	0xc045a227	-3.088022
101	0xbe6505e1	-0.22365524
102	0x3ef53845	0.47894493
103	0xbf8f0ac9	-1.1175166
104	0xc034e04e	-2.8261905
105	0xc02a4f18	-2.6610775
106	0xc0496a66	-3.147119
107	0xc0223e72	-2.5350614
108	0x4124a360	10.289886
109	0xc037552a	-2.864573
110	0xc039b8fb	-2.9019153
111	0xc033c97b	-2.8091724
112	0xbef6a928	-0.4817593
113	0xc04ebba8	-3.2302036
114	0x413b4d18	11.706322
115	0xc04b75c8	-3.1790638
116	0xc03a2acd	-2.9088624
117	0xc02a22c5	-2.6583722
118	0x3eb7fe69	0.35936287
119	0xc01bfbd5	-2.4372456
120	0x411c1591	9.755265
121	0xc02005ba	-2.5003495
122	0x3f505ba4	0.8138983
123	0x3f0cb044	0.5495646
124	0xc0629800	-3.5405273
125	0xc02863a8	-2.6310825
126	0xc0573923	-3.3628623
127	0xbead6786	-0.33868045

fc2.weight f4 [128, 128]
0	0xbc832c6d	-0.016012395
1	0x3d7ab16a	0.06120435
2	0xbc6ae4d2	-0.014336782
3	0xbc8adf10	-0.016952068
4	0xbd9810f2	-0.07425107
5	0xbd7e4d47	-0.062085416
6	0xbdb3f579	-0.087870546
7	0xbcb8ac3a	-0.022543062
8	0xbddf12f4	-0.10892287
9	0x3c3c4341	0.011490644
10	0x3d7e5a00	0.06209755
11	0x3d3dcd04	0.046338096
12	0xbcb5567b	-0.022135964
13	0xbd11287a	-0.035438992
14	0xbdddd341	-0.10831309
15	0xbdbcf7fd	-0.092269875
16	0xbc8fcdf4	-0.01755426
17	0x3d2d2bbb	0.042278033
18	0xbd893f37	-0.067015104
19	0xbd56b44b	-0.052418035
20	0xbd902a36	-0.07039301
21	0xbcbf0cb0	-0.02332148
22	0xbd95e18b	-0.073184095
23	0xbcfbdf88	-0.030746236
24	0xbd347f63	-0.044066798
25	0xbd57fbb7	-0.05273029
26	0xbd0d4635	-0.034490783
27	0xbdc59e8c	-0.09649381
28	0xbc9a7198	-0.018852994
29	0xbd836a2a	-0.064167336
30	0xbd1cc302	-0.03827191
31	0xbc7357ca	-0.0148524735
32	0xbd5cd2ea	-0.05391208
33	0x3c866be5	0.01640887
34	0x3c11bbd5	0.00889488
35	0xbd5f6f11	-0.05454928
36	0xbcade4d6	-0.021227282
37	0xbd972f18	-0.07382029
38	0x3cc3d0e2	0.023903314
39	0xbde335b1	-0.11094225
40	0xbde5b1d8	-0.11215562
41	0xbdcc9fb8	-0.099914014
42	0xbc8e74e9	-0.017389731
43	0xbd8b591d	-0.068041064
44	0xbd9c3637	-0.07627528
45	0x3c172224	0.009224448
46	0xbd777b60	-0.060420394
47	0xbdc79c26	-0.0974658
48	0x3d3428dd	0.043984283
49	0xbd13961d	-0.03603183
50	0x3c8ef281	0.01744962
51	0x3cb1d1e9	0.021706538
52	0x3d6a49aa	0.057199158
53	0x3d1aefa2	0.037826188
54	0x3ce79bf6	0.02827261
55	0x3ba25992	0.0049545253
56	0x3d870282	0.06592275
57	0x3d130baa	0.035899796
58	0x3d4d5a12	0.050134726
59	0xbda7e3ff	-0.08197784
60	0x3c4bef23	0.012447151
61	0xbd2eb5cb	-0.04265384
62	0xbdf70b4c	-0.120627016
63	0xbccd07de	-0.025028165
64	0x3cf3ae70	0.029746264
65	0xbdc478c5	-0.095933475
66	0x3cf280be	0.029602405
67	0x3cb65897	0.02225904
68	0x3d2c8e54	0.042127922
69	0xbcd833c6	-0.026391875
70	0x3bc60b42	0.0060438225
71	0xbd213acf	-0.039362725
72	0x3bb85395	0.005625198
73	0x3d7210c7	0.05909803
74	0x3b782d45	0.003786878
75	0xbdd6ccf2	-0.10488309
76	0xbd24756b	-0.04015104
77	0x3be7f100	0.00707829
78	0xbdd1eaf2	-0.102498904
79	0xbd8e6ea3	-0.06954696
80	0xbd848493	-0.06470599
81	0xbd9db94a	-0.07701357
82	0xbddc6889	-0.10762126
83	0xbd9a49b6	-0.075335905
84	0xbd94aec8	-0.072598994
85	0xbde1b063	-0.11019971
86	0xbc75edd5	-0.015010317
87	0xbd59936f	-0.05311912
88	0xbd7ed238	-0.0622122
89	0x3cb8b1c1	0.022545697
90	0xbd17de34	-0.037077144
91	0xbd3f1958	-0.04665503
92	0xbd628d08	-0.05531028
93	0xbdb91b4e	-0.09038411
94	0xbbaf0d00	-0.005342126
95	0x3d80252c	0.0625709
96	0xbcd43b2b	-0.02590712
97	0xbc63654c	-0.0138791315
98	0x3cb46291	0.022019656
99	0xbde2f675	-0.11082164
100	0xbd24c882	-0.04023028
101	0xbdacf38b	-0.0844489
102	0x3d29264c	0.04129629
103	0xbd63671e	-0.055518262
104	0xbca7d100	-0.020485401
105	0xbdd377af	-0.10325562
106	0xbc89a5b6	-0.01680265
107	0xbd7224d2	-0.059117146
108	0xbde3fcf3	-0.111322306
109	0xbd1f2713	-0.038855623
110	0x3ce3433f	0.027742026
111	0xbd14f546	-0.036366723
112	0xbc494f53	-0.012286979
113	0xbcb6acda	-0.022299219
114	0x3d902f86	0.070403144
115	0x3d58a121	0.05288804
116	0xbd94503a	-0.072418645
117	0xbd4f202e	-0.0505678
118	0x3c8690c2	0.016426448
119	0xbdad12b5	-0.08450834
120	0xbd934240	-0.071903706
121	0xbde7f20c	-0.11325464
122	0xbdf58879	-0.11988921
123	0xbd8834d9	-0.06650705
124	0xbc51a49b	-0.012795593
125	0xbd829a4c	-0.06377086
126	0xb84c3e57	-4.869545e-05
127	0xbda06716	-0.07832162
128	0x40872fda	4.2245913
129	0x3fc618e2	1.5476344
130	0x3f943f2e	1.1581781
131	0x40179605	2.3685315
132	0x3f0870c9	0.53297096
133	0x3eaa2538	0.3323152
134	0x3f25a6c5	0.64707595
135	0x3f72b9a0	0.9481449
136	0x3efc47ce	0.49273533
137	0x3e9080e6	0.28223342
138	0x3fd15c02	1.6356204
139	0x405cdbcd	3.4509156
140	0x3d5cde7a	0.053923108
141	0x3eb99542	0.36246687
142	0x3e4ef352	0.20210007
143	0xbda3699a	-0.07979126
144	0x4049e323	3.1544883
145	0x3e11126e	0.14167187
146	0x3f16a311	0.5884257
147	0x3ff1742c	1.8863578
148	0x3eccd776	0.40008134
149	0x3e7b9e48	0.24572098
150	0x40bdd70d	5.9325013
151	0x3e6097e7	0.21932946
152	0x40640f15	3.5634205
153	0x3eba8578	0.36429954
154	0x406dc795	3.7153065
155	0x401d0a8b	2.4537685
156	0x40764ac6	3.8483138
157	0x409a2f8f	4.8183055
158	0x3e57b5c2	0.21065429
159	0x3eb419ad	0.3517584
160	0x40041168	2.0635624
161	0x3fdcbe40	1.724556
162	0x3e2c0904	0.16800314
163	0x3eae3103	0.34021768
164	0x3ee4c712	0.4468313
165	0x3e8dbfdd	0.27685443
166	0x3eadfe51	0.3398309
167	0x40bb2d51	5.849282
168	0x3f6846bd	0.9073294
169	0x400eb446	2.229753
170	0x3d9df5c9	0.077128954
171	0x408072f1	4.014031
172	0x3eb527cd	0.35381928
173	0x3f762a80	0.961586
174	0x404183f2	3.0236783
175	0x4030dc4f	2.7634466
176	0x401bca6f	2.4342306
177	0x3f43548f	0.763009
178	0x3f913adc	1.1346087
179	0x400a2127	2.1582735
180	0x3ff6412c	1.9238639
181	0x408479a9	4.139851
182	0x3f64f5d4	0.89437604
183	0x401a8031	2.4140742
184	0x3fd6a5b4	1.6769319
185	0x3e937bf2	0.288055
186	0x3f3f0e88	0.7463155
187	0xbeada559	-0.33915213
188	0x3f286ea7	0.6579384
189	0x3fe69626	1.8014572
190	0x3f38259b	0.7193238
191	0x40786a64	3.8814936
192	0x3e64f771	0.22360016
193	0x407c0bee	3.9382281
194	0x3f8f6bb1	1.120474
195	0x404c50cc	3.1924314
196	0x3faed5fc	1.3659053
197	0x3e5096ba	0.20369998
198	0x40111ab3	2.2672546
199	0x4014dbff	2.3259275
200	0x407f057d	3.98471
201	0x3f77d74e	0.96812904
202	0x3f9e41fe	1.2363889
203	0xbae22fc2	-0.0017256665
204	0x4025a7ac	2.5883589
205	0x406b304d	3.674823
206	0x3fbfcbce	1.4984071
207	0x3e8c4bec	0.27401674
208	0x3e167286	0.14692125
209	0x40450004	3.078126
210	0x401a3f0b	2.4100978
211	0x407337a8	3.800272
212	0x3ea9fd0e	0.33200878
213	0x40beff8f	5.968696
214	0x404b4753	3.1762283
215	0x3fa1c844	1.2639241
216	0x408b0932	4.3448725
217	0x409f2170	4.9728317
218	0x40128da9	2.2898962
219	0x3ecfef8b	0.40612444
220	0x4034c8bf	2.8247526
221	0x4023a41d	2.5568917
222	0xbf2856ac	-0.6575725
223	0x3e5967c1	0.21230985
224	0x3e38ea75	0.18058188
225	0x4027e55a	2.6233735
226	0x3f88af3a	1.0678475
227	0x3e263100	0.1622963
228	0x3f73708e	0.9509362
229	0x3e9afc0d	0.30270424
230	0x3ee310be	0.4434871
231	0x3e555f47	0.20837127
232	0x3f6032cc	0.8757751
233	0x3f00e81c	0.5035417
234	0x40222c3e	2.5339503
235	0x3ee5564a	0.44792396
236	0x3f6ebbfe	0.93255603
237	0x408169b3	4.0441527
238	0x405abe70	3.4178734
239	0x3ff66730	1.925024
240	0x3e9f21e3	0.3108054
241	0x406d756d	3.710292
242	0x3eedc2cc	0.4643768
243	0x4040bc0c	3.0114775
244	0x3ef405e0	0.47660732
245	0x3f293e4b	0.66110677
246	0x405fab9b	3.494849
247	0x404c94df	3.1965864
248	0x3f2e292e	0.68031585
249	0x3f4f2c5b	0.80927056
250	0x405d6f59	3.4599211
251	0x3e8e9da9	0.2785466
252	0x40a5578e	5.166938
253	0x400fde47	2.2479417
254	0x405757ba	3.3647294
255	0x3e8c000d	0.2734379

fc2.bias f4 [128]
0	0xbd8426b7	-0.06452697
1	0x3f4023f1	0.7505484
2	0xbdb1197e	-0.086474404
3	0x3f2d93df	0.6780376
4	0x3d37d0d6	0.044876896
5	0xbd7b8503	-0.061406147
6	0x3d8fb531	0.070169814
7	0xbcf73596	-0.030176919
8	0xc0014df0	-2.020382
9	0x3f3c56b1	0.7356978
10	0x3f885efc	1.0653987
11	0x3f32e36a	0.69878256
12	0x3f18ffe5	0.59765464
13	0x3ed30156	0.41211957
14	0xc0318ac7	-2.7740953
15	0xc0889fda	-4.269513
16	0x3f495fca	0.7866179
17	0x3f910c23	1.1331829
18	0xbcfdba13	-0.030972516
19	0x3f9f8746	1.2463157
20	0xbd1e9668	-0.038717657
21	0x3fa751b6	1.3071811
22	0xbf02a4ac	-0.5103252
23	0x3eb3df84	0.35131466
24	0x3e948506	0.2900774
25	0xbff4307f	-1.90773
26	0x3fb1e9b0	1.3899441
27	0x40409927	3.0093477
28	0x3fa9812d	1.3242546
29	0x3f02b9fd	0.51065046
30	0x3f52cdae	0.8234509
31	0x3fc129ee	1.5090921
32	0x3faba4ac	1.3409629
33	0x3f9c2388	1.2198343
34	0x4095416b	4.6642356
35	0xbbf4c537	-0.007469799
36	0xc04c224a	-3.1895928
37	0xc0040175	-2.062589
38	0x3f6c58e3	0.9232313
39	0xbd3686ad	-0.04456203
40	0x3faf5329	1.3697253
41	0xbd9f5397	-0.07779615
42	0x3fc3c783	1.5295261
43	0x3fbc7fd7	1.4726514
44	0xbfc9a71a	-1.575412
45	0x3f75fa43	0.96084994
46	0x3fa19cbb	1.2625955
47	0x3d49e7c7	0.049293306
48	0xc09c1b32	-4.8783197
49	0xbd1da475	-0.038486917
50	0xbd649b68	-0.05581227
51	0x4084f8dd	4.155379
52	0x3d73947a	0.05946777
53	0x3f1fd79d	0.62438375
54	0x3f440a9d	0.76578695
55	0x3f1c4592	0.61043656
56	0xbb90bbc0	-0.004416913
57	0x3ac9a3b4	0.001538387
58	0xc0127693	-2.2884872
59	0x3f161451	0.5862475
60	0x3f5fecc7	0.8747067
61	0xbd9886a4	-0.07447556
62	0xc059ccce	-3.4031253
63	0xc03cda1e	-2.9508128
64	0x3ec3579a	0.38152772
65	0x3f3d7e32	0.74020684
66	0xc0400b34	-3.0006838
67	0x3f7ad2e0	0.9797802
68	0x3d18e35d	0.037326206
69	0x40487f7b	3.1327808
70	0x3ec2752a	0.37980014
71	0xc005d5e1	-2.0911791
72	0xbccf8fc9	-0.025337117
73	0x3f833c3e	1.025276
74	0x3fc7ed49	1.5619289
75	0x3ee179fb	0.44038376
76	0x404206b9	3.0316603
77	0x3eea3539	0.4574373
78	0xc0891ace	-4.284522
79	0xbd73b660	-0.0595001
80	0x3d6414f2	0.055684038
81	0xbd097293	-0.033556532
82	0x3f928a58	1.1448469
83	0x3f2ceb6e	0.6754674
84	0x4071fef7	3.7811868
85	0xc0998e87	-4.7986484
86	0x405f2f96	3.4872794
87	0x3f45257e	0.77010334
88	0x3f680eeb	0.90647763
89	0x3fbc381c	1.4704623
90	0xbcb21474	-0.021738268
91	0xbcf10495	-0.02942113
92	0xc050a9fc	-3.260375
93	0x3f4eb38d	0.8074272
94	0x3f7cff52	0.9882709
95	0x3d936f7d	0.07198999
96	0xbd65725f	-0.056017276
97	0x3f8cf846	1.1013267
98	0x3f715a89	0.9427877
99	0x3f65aa1a	0.8971268
100	0xbdbc9431	-0.09207953
101	0x406a95e9	3.6653998
102	0xbf56d4b9	-0.8391834
103	0xbd593628	-0.053030163
104	0x3f1aaa97	0.6041655
105	0x3f88a9d2	1.0676825
106	0xbcd68a84	-0.026189096
107	0xbdd2a6b4	-0.10285702
108	0x3fa44cbf	1.2835921
109	0x4041e0e4	3.0293512
110	0x3fb00107	1.3750314
111	0x3fc884c7	1.566552
112	0xbdaad8f0	-0.08342159
113	0xbebee49c	-0.3728379
114	0xc090b6b4	-4.5223026
115	0x3f087439	0.5330234
116	0x3f859f98	1.0439329
117	0x3f8d9f69	1.1064273
118	0x3f42a60d	0.76034623
119	0x3f8e3421	1.1109658
120	0x3f9622c0	1.1729355
121	0xbcffda5a	-0.031232048
122	0xbd9248c6	-0.07142787
123	0x3c9e42e5	0.019319007
124	0x3f6ffa50	0.9374132
125	0x3f3ac990	0.7296381
126	0xc04cc057	-3.1992395
127	0x3f8ae267	1.0850343

fc3.weight f4 [4, 128]
0	0x3d206019	0.039154146
1	0x3f97dcce	1.1864259
2	0xbd40406c	-0.046936437
3	0x3faf2216	1.3682277
4	0x3d360352	0.04443676
5	0xbc85c8aa	-0.016331036
6	0xbd2af2d3	-0.04173548
7	0xbd0c32c3	-0.034228098
8	0x3f414011	0.7548838
9	0x3f9bb375	1.2164141
10	0x3f93e5aa	1.1554463
11	0x3f77b1be	0.9675559
12	0x3f886edd	1.0658833
13	0x3f961f5e	1.1728323
14	0x3fbe1985	1.4851538
15	0x40954f78	4.665951
16	0x3f9b3ee5	1.2128569
17	0x3f9c08c8	1.219018
18	0xbd456aca	-0.048197545
19	0x3f9f4bcb	1.2445005
20	0x37185fef	9.082242e-06
21	0x3f991814	1.1960473
22	0x3f931a44	1.1492391
23	0x3f95dff1	1.1708966
24	0x3f8355aa	1.0260518
25	0x3f1ff465	0.6248229
26	0x3fa20d38	1.2660284
27	0x3fbbb53e	1.4664686
28	0x3f8847ac	1.0646873
29	0x3f863aa5	1.0486647
30	0x3f9b7403	1.2144779
31	0x3f98436f	1.1895579
32	0x3f9fd18a	1.2485821
33	0x3f8721b6	1.0557163
34	0xbf16e142	-0.58937466
35	0x3f7f5483	0.9973833
36	0x406906b4	3.6410341
37	0x3f2b688b	0.66956395
38	0x3f83bb39	1.0291511
39	0xbd0a7c91	-0.033810202
40	0x3f9af87f	1.2107085
41	0x3d128a04	0.035776153
42	0x3f9dacdd	1.2318379
43	0x3fa3f277	1.2808369
44	0x3f6818c3	0.90662783
45	0x3f9347fc	1.1506343
46	0x3fa1e73b	1.2648691
47	0xbb790059	-0.0037994592
48	0x40927428	4.576679
49	0xbd32f269	-0.04368821
50	0xbd5a91db	-0.053361755
51	0x40851bd6	4.159648
52	0x3c33cfa0	0.010974795
53	0x3f932aab	1.1497396
54	0x3f9c2292	1.219805
55	0x3f7efda4	0.99605775
56	0x3d847869	0.06468279
57	0x3f6cb91f	0.9246997
58	0x3f9ec0b3	1.2402557
59	0x3f9510bc	1.1645732
60	0x3f9dd161	1.2329522
61	0x3f7e52bd	0.99345
62	0x3fe4e039	1.7880927
63	0x400c4adc	2.192069
64	0x3f8db206	1.1069953
65	0x3f9d9705	1.2311713
66	0x3ffd515b	1.9790453
67	0x3f970099	1.1797057
68	0x3d9beb4e	0.0761324
69	0x404984c2	3.148728
70	0x3f96b94d	1.1775299
71	0x3f14a49c	0.58063674
72	0xbd863595	-0.06553189
73	0x3f95e9ba	1.1711953
74	0x3fa7131e	1.3052709
75	0x3e3036b8	0.17208374
76	0x4004552a	2.067698
77	0x3f81b410	1.0133076
78	0x4087afb5	4.2401986
79	0xbc9eb5b2	-0.019373748
80	0xbcfebc96	-0.031095784
81	0xbccec3ee	-0.02523991
82	0x3f929347	1.1451195
83	0x3f6f688f	0.9351892
84	0x4080fcee	4.030875
85	0x4099d144	4.806795
86	0x4074f419	3.8273985
87	0x3f88f915	1.0701014
88	0x3f860d08	1.0472727
89	0x3fa09e41	1.2548295
90	0x3b1b4e45	0.0023697775
91	0xbcaa4320	-0.02078396
92	0x3fc34dc4	1.5258107
93	0x3f818143	1.0117573
94	0x3fa2a1b1	1.2705594
95	0x3f79d318	0.9758773
96	0x3cf2ef27	0.029655052
97	0x3f8b5891	1.0886403
98	0x3fa08e71	1.254347
99	0x3f9b0a6b	1.2112554
100	0xbd640c53	-0.055675816
101	0x408afcac	4.3433437
102	0x3f6491c0	0.89284897
103	0xbd4444b3	-0.04791708
104	0x3f78d2b4	0.9719651
105	0x3f8b43a7	1.0880021
106	0x3dace9dd	0.084430434
107	0xbd944439	-0.07239575
108	0x3f9c9a76	1.2234638
109	0x3fd80a46	1.6878135
110	0x3f8a2fac	1.0795798
111	0x3f9f5e72	1.2450697
112	0xbd81f8cd	-0.06346283
113	0x3f864b47	1.0491723
114	0x408643c1	4.1957707
115	0x3f74732e	0.9548825
116	0x3f7dc03b	0.99121445
117	0x3f9e8d18	1.2386808
118	0x3f913346	1.1343772
119	0x3fa3f4de	1.2809103
120	0x3f8d8e51	1.1059057
121	0x3cdbdaef	0.026837794
122	0xbbfe87be	-0.0077676466
123	0x3c4588fe	0.012056587
124	0x3f9e6726	1.2375228
125	0x3f88fc9e	1.0702093
126	0x408d3f86	4.4140043
127	0x3f9c9e8d	1.2235886
128	0xb9ebb280	-0.00044955686
129	0x3f3fdf3c	0.74950004
130	0x3c4cb4e0	0.012494296
131	0x3f5aab76	0.8541788
132	0xbd59071b	-0.052985292
133	0xbd62d512	-0.05537898
134	0xbd7ff572	-0.062489934
135	0xbc172e5b	-0.009227361
136	0x3fde48fa	1.7366021
137	0x3f45107f	0.76978296
138	0x3f5ff6f2	0.87486184
139	0x3f696dc1	0.91183096
140	0x3f403a19	0.7508865
141	0x3f6a925d	0.9162958
142	0x4031a4fe	2.7756953
143	0x40854f52	4.1659327
144	0x3f58b889	0.8465658
145	0x3f5ef923	0.870989
146	0x3d3d3c48	0.046200067
147	0x3f7808a8	0.9688821
148	0xbd20221c	-0.03909503
149	0x3f78b244	0.9714701
150	0x3f1b8bfa	0.6076046
151	0x3f30303b	0.68823594
152	0x3f31e12d	0.69484216
153	0x4001b48d	2.026645
154	0x3f86ae5d	1.0521961
155	0x400f165a	2.2357392
156	0x3f8b4b2a	1.0882313
157	0x3f59cde4	0.8507979
158	0x3f29c354	0.6631367
159	0x3f933495	1.1500422
160	0x3f8691d4	1.0513253
161	0x3f88e682	1.0695345
162	0x40c7c85b	6.2432075
163	0x3f3ac71c	0.72960067
164	0x40a8e458	5.277874
165	0x3ffa9097	1.9575375
166	0x3f8284bb	1.0196756
167	0x3c5d3ebf	0.013503729
168	0x3f889ad9	1.0672256
169	0xbc9506f9	-0.018191801
170	0x3f91f497	1.1402768
171	0x3f888923	1.0666851
172	0x3fb27162	1.3940852
173	0x3f59a774	0.8502114
174	0x3f67358b	0.90316075
175	0xbc166fc5	-0.009181921
176	0x408a3447	4.3188815
177	0xbb0fc6b1	-0.0021938498
178	0x3b0ef49f	0.0021813286
179	0x40b032de	5.5062094
180	0x3c6ca670	0.014443979
181	0x3f416dd6	0.7555822
182	0x3f3e9ef0	0.7446127
183	0x3f489aef	0.7836141
184	0xbbafa020	-0.0053596646
185	0x3f1c9574	0.6116555
186	0x4002e641	2.0453036
187	0x3f422182	0.7583238
188	0x3f401c42	0.7504312
189	0x3f058d92	0.52169144
190	0x407aca6b	3.9186046
191	0x406efda6	3.7342315
192	0x3f2a7ae5	0.6659377
193	0x3f4ecc62	0.80780613
194	0x4017edcb	2.3738887
195	0x3f62178a	0.8831717
196	0x3bd83dbc	0.006599156
197	0x406239e8	3.5347843
198	0x3f3173b9	0.69317204
199	0x3fe07212	1.7534811
200	0xbb57d147	-0.0032931136
201	0x3f5f12c2	0.87138
202	0x3f8a63a3	1.0811657
203	0xbee297f1	-0.44256547
204	0x3fd35054	1.6508889
205	0x3f3a5a7e	0.7279433
206	0x4092ed06	4.5914335
207	0x3da0ebf1	0.07857502
208	0xbd838d2e	-0.06423412
209	0x3b3c1181	0.0028696957
210	0x3f6574ce	0.89631355
211	0x3f6dbb33	0.9286377
212	0x40bdc991	5.9308553
213	0x409f6c7c	4.9819927
214	0x409e4253	4.945596
215	0x3f6bfcd5	0.92182666
216	0x3f821b4d	1.0164582
217	0x3f893bda	1.072139
218	0xbc415a8c	-0.011801373
219	0xbd444020	-0.047912717
220	0x4067865d	3.617576
221	0x3f653cd7	0.8954596
222	0x3f5b079f	0.85558504
223	0x3f5ae41d	0.85504323
224	0xbcbc34d7	-0.022974415
225	0x3f7fc1d1	0.99905115
226	0x3f713239	0.9421726
227	0x3f41ed8a	0.7575308
228	0xbd672dfa	-0.05644033
229	0x40a6e11c	5.214979
230	0x3f2cb517	0.6746382
231	0x3cb33934	0.021877863
232	0x3f3cd3e6	0.7376083
233	0x3f895ee8	1.0732088
234	0x3c1eeac8	0.009699531
235	0x3bf77708	0.0075520314
236	0x3f800ff9	1.0004874
237	0x400ad108	2.1690083
238	0x3f8eb68e	1.1149461
239	0x3f8d673c	1.104713
240	0x3ceeb023	0.029136723
241	0x3efcfbe1	0.49410918
242	0x4093c7fe	4.618163
243	0x3f52ee6f	0.8239507
244	0x3f840dcc	1.031671
245	0x3f502eca	0.81321394
246	0x3f62c90a	0.8858801
247	0x3f60d9be	0.8783225
248	0x3f7e7534	0.9939759
249	0x3d5e6b62	0.054301627
250	0xbd09f36a	-0.033679403
251	0x3d16ac85	0.03678562
252	0x3f43ecce	0.7653321
253	0x3f759c1e	0.9594134
254	0x407a5dd3	3.9119766
255	0x3f8250d3	1.0180916

fc3.bias f4 [4]
0	0x3fd571be	1.6675336
1	0x40a5160a	5.1589403
2	0xbf2f8eae	-0.68577087
3	0xbf791e5c	-0.9731195
