ai/models/dqn/trained_models/dqn_2048_500.pth (torch, 78975 bytes, 6 tensors)

fc1.weight f4 [128, 16]
00000000: e437 4fbe 6a5c 013f 74a6 5a3f 5505 6cbd
00000010: fe83 113f e8f5 67be 03a9 123e b299 65be
00000020: a87d 383d 2950 ea3e 7a1a cd3e 071b 6fbe
00000030: 5bd0 ccbe 8be2 fa3d e036 02bf 7381 67bd
00000040: f301 90be a048 9b3e 3f9f 913d c1a8 103f
00000050: c187 a4be c8c5 a73e b942 27bd e361 b33c
00000060: 52e3 77be 18d2 d0be 9684 e13e 0d4d e4bd
00000070: 13e0 2fbe a519 583f b613 033f d04f 8a3e
00000080: b0dd a53e cf5f 163e 148d a9be fee6 00be
00000090: 8292 63be 0208 4f3f eba9 0fbf f3e2 e13e
000000a0: a3d4 84be fa14 983e d782 083e b218 61be
000000b0: c67e ba3e 3967 a33d b55e bfbe 3312 323d
000000c0: 6478 983e 78ba 22bf 7b11 be3e 7129 463f
000000d0: 7e72 2bbf 5d17 b43e 0f53 5bbe 2511 00bf
000000e0: 21fc c53e 0d84 bcbd a356 c13d d1fe fa3e
000000f0: fc2f 583c 964a c8bc 5f94 b23e 25ce 2abe
00000100: f17d 783e 9f46 21bd c852 ca3c f18f f13e
00000110: 331a 2d3e ba52 2b3e 0b77 b33e c9bd 033f
00000120: 09de 4e3d b770 8d3c 9eb6 4f3e c394 193e
00000130: 9566 8a3e 9901 653e 571a b93e bf23 dd3b
00000140: 9aa0 e83e 30e9 8b3e cdb8 3b3e ab8a 433e
00000150: 3d27 063e c4e7 fd3d c475 f73d 8368 a63d
00000160: bf68 d83e b38a ab3e 0c20 0f3d 172a a43e
00000170: e09d 313f 8722 833c 92e2 3e3e 9128 5e3e
00000180: c7a8 8fbe 80f2 183f 5cf1 1cbf c1bb 803e
00000190: c504 933e 258e c33e 4b8b 783e ca07 593d
000001a0: 0ec9 723d 7c0b 563e 38ae 033e b1a7 07bf
000001b0: 79c7 a0bd 3f7d ffbc b390 a83d 061c 80bd
000001c0: 2c88 db3e 6232 2e3f 2c8a 7b3c 2617 47bf
000001d0: edeb 2cbd 3edc 583f d553 2d3e 2a6b 353f
000001e0: cc57 2dbe 0e90 9fbe f9c5 77be 90e2 7dbe
000001f0: aba8 8f3d 29e1 17be 7166 483d e44b f7bd
00000200: 78b2 29be efdc 3d3e ec26 823e adad fc3e
00000210: 03da dd3e 6dc5 33bc 0b13 493e 40d0 cabe
00000220: c93b f4bc af2c 25be 60aa b43d f4b4 9a3e
00000230: 4307 c43e 6deb 833e 970a 1fbf 1587 97be
00000240: 988f 903e 74da 043e 6991 7a3e f147 923e
00000250: 7142 583d 6689 4e3c b5fa 51be c3d6 d03d
00000260: beca af3e 83d9 273e dbf0 023d d80e 2abd
00000270: 01ff 323f a77b 013f aa74 e93d ddb0 243d
00000280: f2d5 ec3e 7a6d 0b3e e130 4ebe ce45 a73e
00000290: 329b c53c 9188 bc3e 498a 9d3e ee4f 813e
000002a0: d842 09be 0ac1 503e e4f9 e53e 50a9 b4bd
000002b0: 5921 db3e 8248 113f ca1f 4d3e 03db 84bd
000002c0: 68fc b33e 8e09 b83e f9d5 b73e 1333 913e
000002d0: a3a5 3a3e 64a8 7e3e 9c9d a53e 22ed 133e
000002e0: 6047 b63e d841 873e 459e ac3e a9dd 183e
000002f0: d450 123f fdf7 dd3e 4cf3 39be 3e5b 32bc
00000300: 92e3 e03d 2ace a23e 55b1 be3e cb68 d43d
00000310: c07a 22bc f90e 213d 6392 923e 3ea4 683d
00000320: 1822 6b3e 05d9 643e 8066 c53c 44c5 41be
00000330: 4fbc aabe 05f1 633e b242 eb3e 8170 94be
00000340: 08db 08be 0997 0c3f e3cc 6ebd 1d31 483e
00000350: 5b14 efbd 206d 1c3f 14f1 0a3f f174 35bf
00000360: 9386 053e 253c 473e 3500 463e 113e 47bf
00000370: ab3c bbbd d88d 04bd 4a31 e1be dfdf 86bc
00000380: 9d97 01bf 570b e1be f0d6 bebe 8036 823e
00000390: 34c1 183e 9b7f 6f3f 9574 8bbd 64b8 333e
000003a0: 47f1 cfbe a861 163f 9834 7fbe c3ff 2c3f
000003b0: e4a8 9cbc 6c34 3fbe c20e e2bc 0039 cb3c
000003c0: 7431 803f 7a0d 3a3f bcf8 753f 4463 893f
000003d0: e578 be3e 0655 a83d cfdb 32be 1b5f 883e
000003e0: 2cfd 363f 3961 8dbe b5e7 203f 9712 6d3f
000003f0: dba7 863f 25cf fc3f a377 893f 3d4a 973f
-0.20236164 0.5053164 0.8541024 -0.057622273 0.5684203 -0.226524 0.14322285 -0.22421911
0.04504171 0.45764282 0.40059263 -0.23350154 -0.40002713 0.12250241 -0.5086498 -0.056519937
-0.28126487 0.30328846 0.07110452 0.565075 -0.32134822 0.32768083 -0.040835116 0.021897262
-0.2420781 -0.4078529 0.44046468 -0.11147509 -0.17175321 0.8441413 0.5120195 0.27014017
0.32395697 0.14684986 -0.33115447 -0.12588117 -0.22223857 0.80871594 -0.5611865 0.4411846
-0.2594348 0.29703504 0.13331161 -0.21982077 0.36424845 0.079786725 -0.37376943 0.043474387
0.2977935 -0.6356578 0.37122712 0.77406985 -0.66971576 0.35174075 -0.21418403 -0.5002616
0.38668922 -0.09204874 0.09440353 0.49022534 0.013195034 -0.024449628 0.34878823 -0.166802
0.24266793 -0.03937399 0.024697676 0.4718013 0.16904525 0.16730776 0.3505176 0.51461464
0.050504718 0.01726566 0.20284507 0.14998154 0.2703139 0.2236389 0.36152908 0.006748646
0.4543503 0.27326345 0.18332215 0.19095866 0.13100906 0.123977214 0.12083009 0.08125403
0.42267415 0.33504257 0.03494267 0.32063362 0.69381523 0.016007675 0.18641117 0.21695162
-0.28058454 0.59745026 -0.61305785 0.25143245 0.28714576 0.38194385 0.24271886 0.052985944
0.059273772 0.20902818 0.12859428 -0.5299025 -0.078505464 -0.031187652 0.08230724 -0.06255345
0.42877328 0.6804563 0.015352767 -0.77769697 -0.042217184 0.8471106 0.1692651 0.70866644
-0.16928023 -0.31164593 -0.24196614 -0.24793458 0.07014593 -0.14831986 0.04892582 -0.12075022
-0.16571987 0.1854131 0.2542032 0.49351254 0.43330392 -0.010972363 0.1963617 -0.39612007
-0.029813664 -0.16130327 0.08821559 0.3021618 0.3828679 0.25765553 -0.62125534 -0.29595247
0.28234553 0.12973958 0.24469532 0.28570512 0.05279774 0.0126060005 -0.20505793 0.101972125
0.34334368 0.16391568 0.03196798 -0.041518062 0.69920355 0.50579304 0.11399205 0.040207732
0.46256977 0.1361598 -0.20135833 0.32670444 0.024121854 0.36822942 0.30769566 0.25256294
-0.13404405 0.20386139 0.44917214 -0.08821356 0.4279888 0.56751263 0.20031658 -0.06487086
0.35153508 0.3594479 0.35905436 0.2835928 0.18227248 0.24868923 0.3234681 0.14445928
0.3560133 0.26417422 0.337145 0.14928307 0.57154584 0.43353263 -0.18159217 -0.010886012
0.109809056 0.31797916 0.3724467 0.1037155 -0.009916961 0.03932092 0.2862731 0.05679726
0.22962224 0.22348411 0.024096727 -0.18922907 -0.33346793 0.2225991 0.45949322 -0.28992084
-0.13364804 0.5491796 -0.058300864 0.19549985 -0.116738044 0.6110401 0.54274106 -0.70881563
0.13039617 0.19456537 0.19336016 -0.7782908 -0.09142431 -0.032361835 -0.43982917 -0.016464172
-0.5062197 -0.43953964 -0.3727336 0.25432205 0.14917451 0.93554085 -0.06809346 0.17550808
-0.40613768 0.5874276 -0.24922407 0.6757776 -0.019123502 -0.18672341 -0.027594928 0.024807453
1.0015092 0.72676814 0.96082664 1.0733418 0.3720161 0.08219342 -0.17466663 0.2663506
0.7148006 -0.27613238 0.62853557 0.9260649 1.0519975 1.9750715 1.0739635 1.1819531

fc1.bias f4 [128]
00000000: 017b 0bc0 04ac 47bf 6c20 20c0 b84a ffbf
00000010: 605b 8640 7a87 debf b845 f0bf b584 2dc0
00000020: 7406 06c0 a111 e6bf 98c8 8340 155b cbbf
00000030: ccc5 14c0 80d6 04c0 ae48 32c0 248e b740
00000040: 5eee 0fc0 871b 39bf c5e5 18c0 5c6b 1ec0
00000050: 41ee 7c40 2a67 12c0 d963 053f f01e e4bf
00000060: 0b94 01c0 1da1 1fc0 32b8 7140 af04 7640
00000070: dd67 97bf 063b b9bf 4726 14c0 795a 09c0
00000080: 87a3 17c0 d343 c4bf e4b8 8340 ac4a 0bc0
00000090: 6b5e 11c0 ade3 f4bf 0b45 c8bf 41b5 c9bf
000000a0: 757b a5bf bfac 12c0 df88 9cbf 83f8 0cc0
000000b0: d4cc cbbf 1791 06c0 27c1 dabf e9d2 b6bf
000000c0: 3b12 fdbf 76ca 18c0 6e60 03c0 1e2d 0cc0
000000d0: 4deb 91bf e547 ddbf e9cf c7bf e4d2 02c0
000000e0: 0611 42c0 a2d0 c4bf 46a9 e8bf e522 ccbf
000000f0: ad70 07c0 15fd 07bf 7778 1ac0 67f0 d6bf
00000100: 1bfe 91bf 5123 14c0 0ee4 cabf b039 0ac0
00000110: 8f7a 17c0 4d16 09c0 50c5 0ac0 34d4 11c0
00000120: 0b3a e7bf 035c 05c0 4d85 1ac0 fd38 0dc0
00000130: a5f3 0ec0 ba5f f3bf 3a09 07c0 2141 e8bf
00000140: 1609 0fc0 1bd1 01c0 58bf 10c0 7834 09c0
00000150: fa5b 8a40 f2c6 16c0 978a f9bf dcd0 e5bf
00000160: 5925 0ec0 aa26 0dc0 60a2 06c0 96cf 26c0
00000170: 06d1 d7bf 78e4 e6bf 077e 2cc0 d97c be3e
00000180: 6a3f 17c0 214a fcbf 93b8 e5bf 57ba 4cbd
00000190: 2602 0ac0 0f1a 1ac0 5979 e5bf 9fec 01c0
000001a0: a5c9 0bc0 adc8 edbf 7e25 15c0 91f1 01c0
000001b0: 3fe9 1ac0 3cd5 4b3e b7cc 02c0 3463 1dc0
000001c0: 9582 17c0 32b7 9fbf 86c3 13c0 abd0 f1bf
000001d0: f8ec 12bf 5ff1 4e40 ce2d 7840 76af edbf
000001e0: 231b dabf de4a b6bf c92a 03c0 2c76 94bf
000001f0: 5308 9bbf 8db8 23c0 dbe3 07c0 7aba b4bf
-2.1793826 -0.7799685 -2.5019789 -1.9944677 4.198654 -1.7385094 -1.8771276 -2.7112248
-2.0941439 -1.797413 4.1182365 -1.5887171 -2.3245726 -2.075592 -2.785686 5.736101
-2.2489238 -0.7230763 -2.389024 -2.4753027 3.9520419 -2.2875466 0.5210548 -1.7821941
-2.0246608 -2.4942086 3.7768674 3.8440359 -1.1828572 -1.4471138 -2.3148363 -2.146147
-2.369356 -1.5333198 4.1163197 -2.1764326 -2.2713878 -1.9131981 -1.564607 -1.5758439
-1.2928301 -2.2917936 -1.222927 -2.202668 -1.5921884 -2.1026056 -1.7090195 -1.4283115
-1.9771188 -2.3873572 -2.0527606 -2.1902537 -1.1399933 -1.7287565 -1.5610324 -2.0441217
-3.032289 -1.537617 -1.8176658 -1.5948149 -2.1162522 -0.5312055 -2.4136026 -1.6792115
-1.1405672 -2.3146555 -1.5850847 -2.159771 -2.3668554 -2.1419861 -2.168293 -2.2785769
-1.8064588 -2.083741 -2.414386 -2.2066033 -2.233621 -1.9013588 -2.1099381 -1.8144876
-2.2349296 -2.0283878 -2.2616787 -2.1438274 4.3237276 -2.3558927 -1.9495419 -1.7954364
-2.2210295 -2.2054849 -2.1036606 -2.60642 -1.6860664 -1.8038473 -2.695192 0.37204626
-2.3632455 -1.9710122 -1.7946953 -0.049982395 -2.1563811 -2.4078405 -1.7927657 -2.0300672
-2.1841824 -1.8576866 -2.3304133 -2.030369 -2.4204862 0.19905561 -2.0437448 -2.4591799
-2.367345 -1.2477782 -2.3088088 -1.8891805 -0.57392836 3.2334821 3.8777957 -1.8569171
-1.7039531 -1.4241598 -2.0494864 -1.1598563 -1.2111915 -2.558139 -2.1232822 -1.4119408

fc2.weight f4 [128, 128]
00000000: c1ae d33f 8956 fb3e 96e1 f53f 236d ea3f
00000010: a4b3 033f b762 973e 975e 553f fd87 3940
00000020: 70cd 663f 276a 2f3e dc87 303f 46c8 d73e
00000030: 13d9 de3e 2e01 eb3f 4142 4740 21a7 a53f
00000040: 0753 0040 3ae8 f03e 8408 2440 82c3 1c40
00000050: dd3c fe3e 3aa9 053e 714f 2f3f 4df4 b93f
00000060: 10c1 a23e 9271 5f3e efa3 3e3e ca09 e03e
00000070: 6a8a 4d40 a8c0 ea3f 3ba8 043f 7223 1840
00000080: d805 db3f a4c7 e33e b950 e6be 9eae 873e
00000090: a462 4540 c668 1040 7734 3e40 0377 0f3f
000000a0: fd79 b03f ab6f 1b40 5237 fd3f febc 1940
000000b0: a8c9 ad3e a4a9 d13f dac2 ba3f 9744 333f
000000c0: f129 343e 5397 bb3f c296 d23f 56a4 f43f
000000d0: a19f 3240 c734 ea3f 57a0 f53f dc25 6c3e
000000e0: f6f2 2840 be58 4e40 a3da a73e a3e1 5a40
000000f0: 3fd5 bd3f 13c0 1340 07db 0940 3d29 5740
00000100: 26c4 e83f 414a 263e a524 c43f 56dd 0640
00000110: 4213 4d3f ced8 d13e bfea 983d 723b 1440
00000120: a2d6 0040 18f0 d53f bf7c 1340 915c 1140
00000130: c3d8 cf3f 4e22 1a40 d63d e43f cac5 063f
00000140: 34e2 6240 bf14 7f3e 7591 df3f 0b86 0a40
00000150: de61 063f a696 823f 8c44 ef3f dda8 a83f
00000160: 40f0 bf3f 98f8 f53f 2356 5340 fb4a b63f
00000170: 048c 913e f91a 1b40 12aa 5740 6de8 3e40
00000180: fb47 4240 724e 4a3e b559 4a40 bbd1 3540
00000190: 18e2 1e40 8c79 bb3f 8948 cc3f 6a46 063f
000001a0: 8cd5 f43e 0506 2a40 0d54 3840 052a 943e
000001b0: 6c14 c33f 9ca3 423f 719b 0340 9bc8 e63f
000001c0: 5b76 f73f 7d05 003f 938f c03f 1108 283f
000001d0: 4895 4040 3b75 663e c10d b03e 4446 c43f
000001e0: 67aa 5c40 0fb9 5040 4f2a c43e 0a83 bc3e
000001f0: f809 d33f f4c3 f53f 9099 bf3f c3c8 ab3e
00000200: e077 d3be c5fd d93e 43ce ccbf 977a 7bbd
00000210: ab86 3740 9699 afbf d7ba cdbe 293b 55c0
00000220: 14a9 6dbf 8573 b3bf 79b1 3340 8fb5 98bf
00000230: e1e6 4bbf 29ba bcbf 7e4a 33c0 e271 0240
00000240: 33fe cabf c884 97be 8b4c 1dbf a6e2 39c0
00000250: 3792 3740 6dd1 f4bf 699d 903d 7bd3 79bf
00000260: 13a2 7bbf c67b fcbf 1a76 2540 0552 1940
00000270: 7453 0e40 68bd 54bf 6424 0ac0 8d50 1ec0
00000280: abb1 b8bf 39f4 84bf 8fd0 b240 f5de 9dbf
00000290: eaf6 29bf 8b02 28bf 3c67 58bc 5c98 b1bf
000002a0: cf80 cbbf c6a0 93bf d428 f3be d9d1 95be
000002b0: 59bc afbe aa1c 18be c91b ee3d 9632 5ebf
000002c0: 776c 8bbf 9916 1a3d 99d7 43bf 97d6 51be
000002d0: 8384 ac3f d0dc 6d3d 43c9 0cbf 7494 c2bf
000002e0: 395d 20bf 3704 05bf 577c adbe 5a9f dcbd
000002f0: 3a7b 85be 412a 36be 8c01 afbf a594 833f
00000300: 2add 8c3f d222 dcbf 373b a4bf 5e36 86be
00000310: 7b90 03c0 0585 f9be 9d68 6dbf 4301 01c0
00000320: 1b02 f4bf 281d 2bc0 8058 c2bf 00aa c0be
00000330: 09b6 863e 4e4c b9bf be21 15c0 d4ed 6abf
00000340: 68d1 da3f c55d 68bf 477b 393e e0a6 9b3e
00000350: 247c 3240 9530 28c0 22f4 92bf 3a9c 22bf
00000360: c0de 34bf 5e80 0fc0 de3a 6a3d 1120 d6bf
00000370: af92 5bbf 4759 a93f b8d6 6fc0 031f 65bf
00000380: 58cb 403f 603c b1bf c938 3c3f d087 0cc0
00000390: fce3 09c0 ee38 55c0 132b d13d f698 45bf
000003a0: 6aa0 04c0 b3fd ea3f efad 2cc0 fe35 b6bf
000003b0: 8862 46c0 4e0a 95bd 2250 13c0 ca4f 0dc0
000003c0: 86e5 f63d b418 7fbf d60b 9abf c37d a3be
000003d0: d1a4 b6bf 12ce 0440 88b2 3740 cc82 c2be
000003e0: a8a3 dc3e 6ad4 60bf d9c8 95bf c186 3fbf
000003f0: a29f 05c0 3428 43c0 bab9 38bf c325 75bf
1.6537706 0.4908946 1.9209468 1.8314556 0.51445985 0.295675 0.8334746 2.898925
0.9015722 0.17130338 0.68957305 0.42144984 0.4352499 1.8359735 3.1134188 1.2941629
2.0050676 0.47052175 2.5630198 2.4494328 0.4965581 0.13052836 0.6848059 1.452768
0.3178792 0.21820667 0.18617223 0.43757468 3.2115731 1.8340044 0.518192 2.3771634
1.7111158 0.4448825 -0.44983461 0.2650041 3.0841455 2.2563949 2.9719522 0.5604097
1.3787228 2.4286907 1.9782507 2.4021602 0.33942914 1.6379895 1.4590714 0.70026535
0.17594124 1.4655555 1.6452258 1.9112651 2.790993 1.8297356 1.9189557 0.23061317
2.6398292 3.2241664 0.32783994 3.4200218 1.4830703 2.3085983 2.1539934 3.361892
1.818486 0.16239263 1.5323683 2.1072593 0.8010751 0.4098572 0.07466649 2.3161283
2.0131001 1.6713896 2.304489 2.2712748 1.6238025 2.4083438 1.7831371 0.5264555
3.5450563 0.24910258 1.7466265 2.1644313 0.52493083 1.0202224 1.8692794 1.3176533
1.4995193 1.921649 3.3021324 1.4241632 0.28427136 2.4235213 3.3697553 2.9829361
3.0356433 0.19756487 3.1617253 2.840926 2.4825497 1.4646468 1.5959636 0.52451193
0.47819173 2.6566174 2.88013 0.28938308 1.5240607 0.760309 2.0563624 1.802997
1.9332994 0.50008374 1.5043815 0.6563731 3.0091114 0.22505657 0.34385493 1.5333943
3.4479005 3.261295 0.3831353 0.36818725 1.6487417 1.9200425 1.4968739 0.33551607
-0.41302395 0.42576423 -1.6000446 -0.061396208 2.8675945 -1.3718746 -0.4018161 -3.3317358
-0.9283612 -1.4019629 2.807707 -1.1930407 -0.7964917 -1.4744312 -2.8014216 2.0382009
-1.5858825 -0.29593492 -0.6144492 -2.9044585 2.8682992 -1.9126412 0.070612736 -0.9758832
-0.9829418 -1.9725273 2.5853333 2.395631 2.2238436 -0.8310151 -2.158471 -2.4736664
-1.442922 -1.0387031 5.587959 -1.2333666 -0.66392386 -0.6562888 -0.013208207 -1.3874621
-1.5898684 -1.1533439 -0.47492087 -0.29261664 -0.34323385 -0.14854684 0.11626393 -0.8679594
-1.0892476 0.037619207 -0.7650085 -0.20492016 1.3477939 0.05807191 -0.549946 -1.5201554
-0.62642246 -0.51959556 -0.33883926 -0.107725814 -0.26070577 -0.17789556 -1.3672347 1.0279738
1.1004994 -1.7198126 -1.2830571 -0.26213354 -2.0556934 -0.48734298 -0.9273775 -2.015702
-1.9063143 -2.6736546 -1.5183258 -0.376297 0.26310757 -1.4476411 -2.3301845 -0.91769147
1.7095156 -0.9076808 0.18113433 0.30400753 2.788827 -2.6279652 -1.1480753 -0.6351963
-0.7065239 -2.24221 0.057185046 -1.6728536 -0.85770696 1.323037 -3.7474804 -0.89500445
0.7531028 -1.384655 0.7352415 -2.1957893 -2.15454 -3.3315997 0.10213294 -0.77186525
-2.072291 1.8358673 -2.698116 -1.4235227 -3.0997639 -0.07277356 -2.301766 -2.207995
0.12055497 -0.9964707 -1.2034862 -0.31931886 -1.4269048 2.0750775 2.8702717 -0.37990415
0.4309361 -0.8782412 -1.1701919 -0.74814993 -2.0878682 -3.0493288 -0.72158396 -0.95760745

fc2.bias f4 [128]
00000000: 0a6a 9f3f c065 d840 6ae3 453f ab00 52c0
00000010: 98ee 20bf 9e8a 18c0 a92e 63c0 2cb6 bcbf
00000020: 360f 233f 4768 d33f 31fc 64c0 bcce 96bf
00000030: 101b e7bf 9fd0 b3bd 0007 e8bd 1bcd 28c0
00000040: 7f1a a03f c966 86bd e9a7 643f f262 52c0
00000050: 796f 4140 37aa a7bd 566b d8bf 1c3d 0940
00000060: e8b9 7f3f dd79 9c3f 6a63 273f 6a19 3bc0
00000070: 05bf a6bf 1d70 8abd 496b af3f bc85 78bc
00000080: d247 e73f 1575 3240 0ee9 b93f 4ff7 983f
00000090: 0abe d73f 15d8 b8bf 88f4 c1bd 73b8 c23b
000000a0: b5fe d43e c0eb 553f ed67 8e3f 601b 5ac0
000000b0: bd4d 563c 6f46 bcbf c647 69be c541 623d
000000c0: 3b11 d13f e0a7 333f bf64 82bd 8980 cfbd
000000d0: a704 59c0 f4ca a13f f93b 5bc0 bc22 4bbd
000000e0: de41 d3bf 2349 11c0 aa87 74bc 579a 9a3f
000000f0: 2fa5 1840 69ef 5dc0 a8fd e93e 2ddd 4fc0
00000100: d84b 8c3f e7ed 3cc0 4baf 2fc0 f2fd 39c0
00000110: 9574 663f 0690 9b3f f217 8740 7b57 14c0
00000120: 00eb a63f 64d4 a53f 23f4 9fbd d43b 813d
00000130: 3291 573f 5750 58c0 02ae 0ec0 ab7a 58c0
00000140: a52b 06be b184 bfbe 19c9 46c0 3050 ae3e
00000150: 5e13 4cc0 df5a 6bbd 6d39 03c0 004e b53f
00000160: 90ce dc3e 0315 ac3f 4927 5f3d 5101 9e3f
00000170: 7067 35bf 638e 58c0 1b8e a33f 206a 51c0
00000180: 3d17 2dc0 dd3e b33f 1c84 5ac0 3aa7 05bd
00000190: 7f53 05c0 5463 2cc0 6696 6140 5ead b13f
000001a0: d768 763d e947 4dc0 2455 a9bc c0cd 8dbd
000001b0: 02c8 4dc0 12b0 a63e 8188 61c0 6f00 ccbf
000001c0: 8532 24bd 5a12 cdbd 5151 b13f 432a 4c3c
000001d0: 1ffa 873d 22af 55bd 2cc4 49c0 c0f1 63bd
000001e0: bd42 1d3f 9601 9f3f c571 7b3f 5145 223c
000001f0: 2cff 883f 4e07 07c0 b65a b63f 048c 3cc0
1.2454236 6.7624207 0.7730013 -3.2812908 -0.62864065 -2.3834605 -3.549723 -1.4743094
0.63695085 1.6516198 -3.5778925 -1.178184 -1.8055134 -0.08780026 -0.1132946 -2.6375186
1.2508086 -0.065625735 0.8931871 -3.2872891 3.0224288 -0.08186763 -1.6907756 2.1443548
0.99893045 1.222469 0.6538607 -2.9234262 -1.3027045 -0.06759665 1.3704616 -0.0151686035
1.8068793 2.7883961 1.4524248 1.1950473 1.685487 -1.4440943 -0.09470469 0.005942398
0.41600576 0.8356285 1.1125466 -3.4079208 0.013080058 -1.4708995 -0.22781286 0.055238504
1.6333383 0.7017803 -0.06366872 -0.10131938 -3.390909 1.2640061 -3.4255354 -0.049593672
-1.6504476 -2.270089 -0.014924923 1.2078351 2.385082 -3.4677374 0.45701337 -3.2478745
1.0960646 -2.9520204 -2.745074 -2.9061246 0.9002164 1.2153327 4.221673 -2.3178394
1.3040466 1.2955441 -0.07810237 0.063102394 0.84205925 -3.3799036 -2.2293706 -3.382487
-0.13102587 -0.37405923 -3.106024 0.34045553 -3.188682 -0.05745971 -2.05038 1.4164429
0.43126345 1.3443912 0.054480825 1.2344152 -0.7086096 -3.3836906 1.2777742 -3.2721024
-2.7045434 1.4003559 -3.4143133 -0.032630183 -2.0832212 -2.6935625 3.5248046 1.3881032
0.060158577 -3.207514 -0.020670481 -0.06924009 -3.2153325 0.32556206 -3.5239565 -1.5937632
-0.04008724 -0.10013266 1.3852941 0.012461248 0.06639504 -0.052168973 -3.1525984 -0.055650473
0.6142996 1.2422359 0.98220474 0.009904222 1.0702872 -2.1098208 1.4246433 -2.9460459

fc3.weight f4 [4, 128]
00000000: 0f24 ad3f 940e 5c41 6753 ac3f 7f14 8f40
00000010: f86b c83f daba e23f 8830 9040 26b3 b23f
00000020: 8c80 a43f e293 a23f 350d a740 748c bc3f
00000030: 1256 9c3f 64b2 6ebd 0fe9 debc cedb e43f
00000040: 93e5 ae3f d5c0 d5b9 ea2f b33f 7680 7540
00000050: 0839 4640 433f 9f3d d8aa 9e3f a9f0 1e40
00000060: a09e aa3f 6468 b23f c4c7 ac3f b142 3e40
00000070: 201f ab3f 4fda 0abd e09d a73f 8bb5 43bd
00000080: 54fe a43f 1c5d c340 4c15 b23f cef4 b83f
00000090: 4120 ad3f c9a6 b73f 8b8a 873a b9f0 b0bc
000000a0: e7df b33f 6c31 a73f 08bc a53f 050c 8e40
000000b0: e481 c93d bf95 b93f 0b32 b23f 9466 aebd
000000c0: 4adc a93f f4a7 b03f b76b 6e3c f976 15bd
000000d0: 8f95 9b40 4480 b23f a7bd 9840 90a8 8f3d
000000e0: 7a92 bd3f ad61 e33f 48e6 2ebd c514 ab3f
000000f0: 4638 7d3f 7672 9940 a510 6ebe 7a3b 9340
00000100: 786f b13f 54eb 4640 5112 0240 2644 2d40
00000110: aafb af3f 84f8 ad3f 44f8 253f d4b9 b33f
00000120: 4331 ab3f 0e84 a73f 9420 893c 38b8 173d
00000130: 2e8c a23f 5658 a640 0b5b e73f 5c96 9440
00000140: 60db 643d 96bc ac3f ee3c 8440 35bd b33f
00000150: 9bda 9540 a87a 56bc cf45 bf3f c22c b23f
00000160: 7353 b8be f4d2 ad3f 5d53 9dbb 2711 ba3f
00000170: ef33 b13f 44c3 a740 be27 af3f 6d0a 9140
00000180: fb43 e63f 1ed8 b33f 3b2b a540 0d1b 0bbd
00000190: 6b7c d13f 9619 1a40 25ce 8b3f 489f af3f
000001a0: 26a2 76bd b757 a140 5101 8c3d 32e6 de3d
000001b0: 0cfb 7f40 8faa afbe 5956 9a40 1d51 bc3f
000001c0: 4261 c33b 1352 663d 5eef b03f 3584 11bd
000001d0: 9995 1b3b 7697 e43b 7d67 5640 1a8c 29bd
000001e0: cc2c b63f bd90 b33f 1a92 b73f e189 0a3d
000001f0: 3b8e ad3f 5ecb aa3f 08c4 a33f 81b7 1640
00000200: 89b9 a83f 4c5f 2e41 350e ab3f 1417 8b40
00000210: 2c1e af3f 2be7 b23f 5106 8640 1836 6e3f
00000220: a152 ad3f 9ce9 c03f e7ea a040 b7da 893f
00000230: 1d9f 753f b33a 21bc a046 d3bd 1994 f53f
00000240: 7ee1 b93f 997a 953d 771f a03f 91da 5e40
00000250: df67 6340 3f1b 853d ff05 9f3f 34c4 973f
00000260: 50d2 ae3f 55a0 b93f 50e3 a03f a90b 3140
00000270: a14a 9a3f 409f 8f3d cf5d bd3f fa42 7dbd
00000280: 87b1 bc3f 259d a240 9992 b53f 0e1b a13f
00000290: 370a ba3f 9fb3 883f a1fd 62bd 92a1 953c
000002a0: fafc 9c3f ece2 a13f 6677 9c3f 6075 8e40
000002b0: e3cf 7ebd 8c85 643f 4c4a b13f fae8 7b3d
000002c0: e2de ba3f 7862 9e3f cfb8 87bd ff54 453d
000002d0: 9f13 a940 6ef5 be3f 220a 8540 85c7 44bd
000002e0: 25c0 9b3f 704d 2d3f f181 ba3d 2d4c c73f
000002f0: 881a af3f d6f6 8440 46d1 06be 9e78 9240
00000300: bff6 ad3f 29c1 4d40 98b2 0640 2b3f 2240
00000310: 3ad7 9e3f df05 a83f 68e1 1240 0ea6 893f
00000320: 5aca b03f b0ef b93f 27a7 a83d 6f66 04bd
00000330: 906a b13f 5ec3 ac40 4531 4e3f 4267 9440
00000340: 1410 393c d290 9c3f bcd0 5740 e90d 8d3f
00000350: 5a3b 8540 0d5a 1bbd 1d8e 513f 2d9b b03f
00000360: cf3f 73be 59c8 ae3f 0f68 6cbd 3f6a 0440
00000370: 0db5 993f dabb 9e40 3027 a93f 2af4 6840
00000380: 253a ed3f edf3 ba3f ed5d 9040 a2d3 383c
00000390: b717 773f 0d9d 0c40 b7a5 5e3f ac7d ae3f
000003a0: c689 68ba df99 9340 f42a d83c cc2a 1e3e
000003b0: b0b9 8440 8acc aebe cfb6 8d40 6873 943f
000003c0: 913c 233d 9ea3 27bd ef75 a63f 47cf 07bd
000003d0: 874c 42bc 6ee5 32bd a47f 4840 36ea 2abd
000003e0: 34d8 b03f e93f b73f d033 a83f 8945 e23c
000003f0: 02cf b33f e57f 7a3f 7bc4 aa3f 49d1 0e40
1.3526629 13.753559 1.3462952 4.471252 1.565795 1.7713273 4.505924 1.3960922
1.2851729 1.270138 5.220362 1.4730363 1.2213767 -0.058275595 -0.02721074 1.7879579
1.366381 -0.00040770197 1.3998997 3.8359656 3.097231 0.07775738 1.2395887 2.4834387
1.3329659 1.3938107 1.3498464 2.9728205 1.3368874 -0.0338996 1.3095055 -0.047780555
1.2890115 6.105116 1.3912749 1.4449708 1.3525468 1.4347774 0.0010340972 -0.02159916
1.4052705 1.3061957 1.2948008 4.438967 0.09839228 1.4498824 1.3921522 -0.08515659
1.3270352 1.3801255 0.014552048 -0.036490414 4.8620067 1.3945394 4.773151 0.070145726
1.4810326 1.7764183 -0.042700082 1.3365713 0.9891399 4.7952223 -0.23248537 4.6010103
1.3862143 3.1081133 2.032368 2.7072845 1.3748677 1.3591466 0.6483195 1.4041085
1.3374408 1.3087175 0.016739167 0.03704092 1.269903 5.198283 1.8074659 4.6433544
0.055873275 1.3495052 4.1324377 1.4042116 4.682935 -0.013090767 1.4943179 1.3919909
-0.36001167 1.3580003 -0.0048011974 1.4536484 1.3843974 5.242586 1.3684003 4.5325227
1.7989496 1.4050329 5.161527 -0.033961345 1.6366094 2.4078116 1.0922285 1.3720484
-0.06021323 5.0419574 0.068361886 0.1088375 3.9996977 -0.34309813 4.8230405 1.4712254
0.005962522 0.056230616 1.3823049 -0.035526473 0.002374029 0.0069760634 3.3500664 -0.041393377
1.4232421 1.4028546 1.4341462 0.033822898 1.355903 1.3343313 1.2794199 2.3549502
1.3181621 10.898266 1.3363711 4.346567 1.3681083 1.3976797 4.188271 0.9305129
1.3540841 1.5071292 5.0286746 1.0769871 0.9594591 -0.009840655 -0.10316205 1.9185821
1.452194 0.07298774 1.2509602 3.4820902 3.5532148 0.064993374 1.2423705 1.1856751
1.3657932 1.4502054 1.256937 2.7663367 1.2054025 0.070127964 1.4794253 -0.061831452
1.4741677 5.0816827 1.4185363 1.2586381 1.4534367 1.0679816 -0.05541766 0.01826552
1.2264702 1.2647376 1.2223938 4.451828 -0.062209975 0.89266276 1.3850799 0.06150148
1.4599268 1.23738 -0.06627046 0.04817676 5.283645 1.4918649 4.157487 -0.04804184
1.2168013 0.67696285 0.091068156 1.5570122 1.3679972 4.1551313 -0.13165769 4.577224
1.3590926 3.2149146 2.1046505 2.5351055 1.2409432 1.3126792 2.2950077 1.0753801
1.3811753 1.4526272 0.08235007 -0.03232425 1.3860645 5.3988485 0.8054393 4.6376047
0.011295337 1.2231696 3.3721151 1.101987 4.163495 -0.037927676 0.8185747 1.3797356
-0.2375481 1.3654891 -0.057716426 2.0689847 1.2008377 4.960431 1.3215084 3.6399026
1.8533369 1.460569 4.5114655 0.011280926 0.9652056 2.1970856 0.8697161 1.3632102
-0.00088706275 4.612533 0.02638767 0.15446013 4.147667 -0.34140426 4.4285655 1.1597719
0.039852683 -0.040927522 1.300474 -0.03315666 -0.011859066 -0.043675832 3.1327906 -0.041727267
1.381598 1.4316379 1.3140812 0.027621048 1.4047549 0.978514 1.3341211 2.2315238

fc3.bias f4 [4]
00000000: b793 3c3e 04c4 d03f d091 7440 09e2 023f
0.18415724 1.6309819 3.8213997 0.5112615
