ai/models/dqn/trained_models/dqn_2048_900.pth (torch, 78975 bytes, 6 tensors)

fc1.weight f4 [128, 16]
0	0xbe72d7aa	-0.23715082
1	0x3e9e7452	0.3094812
2	0x3f666b59	0.9000755
3	0xbdff82f3	-0.124761485
4	0x3f0f4cb7	0.5597643
5	0xbea8b8a5	-0.32953373
6	0x3dc66ba1	0.09688497
7	0xbe035098	-0.12823713
8	0x3e6f68f0	0.23379874
9	0x3f1e4f1b	0.61839455
10	0x3ef2fd3a	0.47458822
11	0xbe5c0f49	-0.21490206
12	0xbecbb3fb	-0.39785752
13	0x3df549c3	0.119769596
14	0xbf3256a0	-0.6966343
15	0xbebff0b7	-0.37488338
16	0xbf5fb72b	-0.8738887
17	0x3f8c88c0	1.0979233
18	0x3f6cfbe8	0.9257188
19	0x3ec153c8	0.37759233
20	0x3e7f21db	0.24915259
21	0x3f15b842	0.5848428
22	0x3ee85ece	0.4538483
23	0xbf40c380	-0.7529831
24	0xbfb57dc1	-1.4179002
25	0xbf3ef5fe	-0.74594104
26	0x3f6b6e54	0.9196522
27	0xbe8bf4cb	-0.273352
28	0xc0302f87	-2.7529008
29	0x3f445358	0.7668967
30	0xbf32a6a2	-0.6978551
31	0x3f8a7b57	1.081889
32	0x3ec6e66a	0.38847667
33	0x3f29fc08	0.66400194
34	0xbf0628a7	-0.5240578
35	0x3ecfe520	0.40604496
36	0x3cf9466c	0.030429088
37	0x3f5fa8f1	0.8736716
38	0xbe888386	-0.26662844
39	0x3f45d048	0.77270937
40	0xbec4b6d0	-0.38420725
41	0xbe767833	-0.2406929
42	0x3e450a90	0.1924231
43	0x3eebf057	0.46081802
44	0x3d1b7225	0.037950654
45	0xbf334b4c	-0.7003677
46	0xbf1480c2	-0.5800897
47	0x3de7999b	0.11308595
48	0x3e68ab8b	0.22721688
49	0xbf424f85	-0.7590259
50	0x3eec8fc7	0.46203443
51	0x3facdb56	1.3504436
52	0xbe98c825	-0.29840198
53	0x3eb82cab	0.3597158
54	0xbe6462f0	-0.22303367
55	0xbd012e18	-0.0315381
56	0x3e77a8f5	0.24185546
57	0xbf26af51	-0.6511126
58	0x3eade598	0.3396423
59	0xbd1b4807	-0.037910488
60	0xbf092158	-0.53566504
61	0x3e1d8e2c	0.15386266
62	0x3e5c99a6	0.21542987
63	0x3eab9aa4	0.3351642
64	0x3d959858	0.07304448
65	0xbd4b76d7	-0.04967388
66	0x3d668f11	0.056288783
67	0x3ee8b5c4	0.45451176
68	0x3d8ed1f6	0.069736406
69	0x3d24b6d6	0.04021343
70	0x3e893bf0	0.2680354
71	0x3ee3820b	0.44435152
72	0x3e8cbee1	0.2748938
73	0xbe332e13	-0.17498045
74	0x3e6a79e3	0.22898059
75	0x3e0adb2b	0.13560168
76	0x3edade02	0.42747504
77	0x3e35a6e6	0.17739448
78	0x3e3ffb64	0.18748242
79	0xbd966c50	-0.07344878
80	0x3f3f53d7	0.74737304
81	0x3eb75ec2	0.35814482
82	0xbecb8ec4	-0.3975736
83	0xbe02114f	-0.12701915
84	0x3f273b52	0.6532489
85	0x3f02d2aa	0.511027
86	0xbd88c354	-0.06677881
87	0x3ec1676c	0.37774217
88	0x3eef5d93	0.4675108
89	0x3e28a266	0.164682
90	0xbe2e280a	-0.17007461
91	0xbd2afc1a	-0.04174433
92	0x3f7e0139	0.99220616
93	0x3e77bc4d	0.24192925
94	0xbed7f146	-0.42176265
95	0xbe6cb535	-0.23116
96	0xbe1284aa	-0.1430842
97	0x3f3e0320	0.7422352
98	0xbf668497	-0.90046066
99	0x3e075730	0.13216853
100	0x3f1c74d5	0.6111577
101	0x3eddbda1	0.43308738
102	0xbd1d3cd9	-0.038388107
103	0x3ea5c2e3	0.3237525
104	0x3ea4d1b4	0.3219124
105	0xbd0cade8	-0.034345537
106	0x3ede71b7	0.43446133
107	0xbf106e48	-0.56418276
108	0xbe8b7187	-0.27235052
109	0xbe715e0d	-0.23571034
110	0xbe5db845	-0.21652324
111	0xbe582ea4	-0.21111542
112	0x3eede86d	0.4646639
113	0x3f43b6f0	0.76451015
114	0x3e617452	0.22017029
115	0xbed5874d	-0.4170479
116	0xbe802170	-0.2502551
117	0x3f60253a	0.87556803
118	0x3e87494c	0.2642311
119	0x3eeb1fd7	0.4592273
120	0xbf057637	-0.52133507
121	0xbf2f2c55	-0.6842702
122	0xbedb9d76	-0.4289357
123	0xbde50339	-0.11182255
124	0xbdbc82a6	-0.09204607
125	0xbe79df1d	-0.24401517
126	0x3e0d339f	0.13789223
127	0xbc7db759	-0.015485608
128	0xbe4de596	-0.20107111
129	0x3ec3219c	0.3811158
130	0xbe0a1e07	-0.13488017
131	0x3f7edd4f	0.9955644
132	0x3ed035f3	0.4066616
133	0xbf526eb4	-0.8220017
134	0x3e22bb33	0.15891723
135	0x3ed415f3	0.41422996
136	0xbf9a7d5f	-1.206951
137	0xbf55decb	-0.8354308
138	0xbec9da8e	-0.39424556
139	0x3f61b15f	0.8816127
140	0xbf93eb0d	-1.1556107
141	0x3da1a1b2	0.07892169
142	0xbea3218f	-0.3186154
143	0xbf4adf82	-0.79247296
144	0xbf154eeb	-0.58323544
145	0xbe42f3b4	-0.19038278
146	0xbef3e4fd	-0.47635642
147	0xbe7f5501	-0.2493477
148	0x3f953e6c	1.1659675
149	0x3dad4764	0.08460882
150	0xbf1526ee	-0.58262527
151	0x3ede4f65	0.43419948
152	0x3ebae64a	0.36503822
153	0xbd77fbac	-0.060542747
154	0xbe8809c6	-0.26569957
155	0xbcc0245f	-0.023454843
156	0x3f9c211e	1.2197607
157	0x3f000800	0.5001221
158	0x3f50ae6e	0.8151616
159	0x3f318600	0.6934509
160	0x3e7696f1	0.24081017
161	0x3e1615e6	0.14656791
162	0xbe0fbfbc	-0.14037985
163	0x3e9c5753	0.30535373
164	0xbe34fdc7	-0.17674933
165	0x3e7de960	0.24796057
166	0x3e7ed2fe	0.24885175
167	0x3dda321f	0.10654091
168	0x3de9cf59	0.114165016
169	0x3d329114	0.04359539
170	0x3ef82a65	0.48469844
171	0xbe4c545b	-0.19954054
172	0x3f10560d	0.56381303
173	0x3f0094e2	0.5022718
174	0xbd3c646c	-0.045994207
175	0xbdceb912	-0.10093893
176	0x3f2de6bb	0.6793019
177	0x3f2889c4	0.65835214
178	0xbe194852	-0.14968994
179	0xbc73c82e	-0.0148792695
180	0x3e9768a0	0.2957201
181	0x3f73bdfc	0.9521177
182	0x3e29ef0a	0.16595092
183	0x3e92ae3f	0.28648564
184	0x3eabf85e	0.33587927
185	0x3ec03207	0.37538168
186	0x3e0575b7	0.13033186
187	0xbe77dc03	-0.24205022
188	0x3f20934c	0.6272476
189	0x3f5ac1b7	0.85451835
190	0xbfaad093	-1.3344902
191	0xbecf5b3e	-0.404993
192	0x3ebaf670	0.36516142
193	0x3ec93702	0.3929978
194	0x3f5cb93b	0.8622014
195	0x3e5994bb	0.21248142
196	0x3d21c85e	0.039497726
197	0x3bd60084	0.006530823
198	0x3d818b56	0.06325404
199	0xbe4b4788	-0.19851506
200	0xbe5b98a3	-0.21444945
201	0x3de4940c	0.1116105
202	0x3e141126	0.14459667
203	0xbe195580	-0.14974022
204	0xbf086a45	-0.53287154
205	0xbe0c18b5	-0.136813
206	0x3f0f02cc	0.5586364
207	0xbf31b1a0	-0.6941166
208	0xbf9ab2d1	-1.208582
209	0x3f8208f1	1.0158979
210	0xbf7ccb1e	-0.9874743
211	0xbe5c8926	-0.21536693
212	0xbdf28433	-0.11841621
213	0x3e9649fe	0.29353327
214	0x3eca07bf	0.39459035
215	0xbf65ffed	-0.89843637
216	0x3f2351f1	0.6379691
217	0xbeea2979	-0.45734766
218	0x3ed7ca11	0.42146352
219	0xbeff51db	-0.49867138
220	0x3efdb500	0.49552155
221	0xbe14d441	-0.14534093
222	0x3f3b6411	0.73199564
223	0xbf787645	-0.97055465
224	0xbf6d8902	-0.9278718
225	0xbf34bcbf	-0.70600504
226	0xbf407a4c	-0.7518661
227	0x3f1713dd	0.59014684
228	0x3ed9e17b	0.4255484
229	0x3f975343	1.1822284
230	0x3dcd34d0	0.10019839
231	0x3d06a430	0.032871425
232	0x3ebc2621	0.3674784
233	0x3e33b4ef	0.1754949
234	0xbe104ffa	-0.14093009
235	0x3f024526	0.5088676
236	0x3e9d0aa1	0.30672172
237	0x3ed4496b	0.41462263
238	0xbe2e2737	-0.17007147
239	0x3dd96e31	0.106167205
240	0x3f4b5c46	0.79437673
241	0x3f5dbc77	0.866157
242	0x3f7e0808	0.99231005
243	0x3f7da53b	0.99080247
244	0xbbe5c58a	-0.007012074
245	0xbe88edac	-0.2674383
246	0xbf1c421c	-0.61038375
247	0xbd1dd5b5	-0.038533885
248	0x3f3c0c02	0.7345582
249	0xbf018563	-0.50594157
250	0x3e8a4542	0.27005965
251	0x3f2c7ab7	0.6737475
252	0x3f90ab15	1.130221
253	0x3fe48dad	1.7855736
254	0x3f3de956	0.7418417
255	0x3f876225	1.0576826

fc1.bias f4 [128]
0	0xc0352ffd	-2.831054
1	0x3df864c3	0.12128594
2	0xc02d71d4	-2.7100725
3	0xc01b5caf	-2.427532
4	0x40e70bff	7.2202144
5	0xc0245b63	-2.5680778
6	0xc0140bc1	-2.3132174
7	0xc0586309	-3.3810446
8	0xc040e364	-3.0138788
9	0xc03cfba9	-2.95286
10	0x40e7c152	7.2423487
11	0xbfed39fd	-1.8533322
12	0xc036cdde	-2.8563151
13	0xc038b6f2	-2.886166
14	0xc0423d9d	-3.0350106
15	0x410a6a83	8.651004
16	0xc012eb82	-2.2956243
17	0xbf8a44dd	-1.0802265
18	0xc03dd489	-2.966097
19	0xc05b3b30	-3.4254875
20	0x40d1f99d	6.5617204
21	0xc050d4be	-3.2629848
22	0x401d6d5d	2.4598
23	0xc01b4c5e	-2.426536
24	0xc02f1a30	-2.7359734
25	0xc066d240	-3.6065826
26	0x40c87aa2	6.26497
27	0x40d1c931	6.5558095
28	0xbfe6d6be	-1.8034284
29	0xbff8fe8f	-1.9452685
30	0xc04144ff	-3.0198362
31	0xc02ac292	-2.6681256
32	0xc040b30b	-3.010928
33	0xc015a1e2	-2.3380055
34	0x40d856d6	6.7606
35	0xc01bd36d	-2.4347794
36	0xc0165d77	-2.3494546
37	0xc00dd557	-2.2161462
38	0xbfcd4f95	-1.6039912
39	0xc01ccb17	-2.4498956
40	0xbfdfcf0c	-1.7485061
41	0xc0164bf0	-2.3483849
42	0x3b78bae4	0.0037953192
43	0xc024ccb6	-2.5749946
44	0xc01dd25d	-2.4659646
45	0xc0347149	-2.8194144
46	0xc012ea99	-2.2955687
47	0xc00db291	-2.2140238
48	0xc0436a66	-3.053369
49	0xc0420bc2	-3.0319676
50	0xc024de0b	-2.5760524
51	0xc034ba53	-2.8238723
52	0xbfab3a3b	-1.3377146
53	0xbff44f54	-1.9086709
54	0xbfd568e5	-1.6672636
55	0xbfa9a374	-1.3253007
56	0xc05ad70a	-3.419375
57	0xc009bff1	-2.1523402
58	0xc013d10c	-2.3096342
59	0x407c919a	3.9463868
60	0xc025b638	-2.5892467
61	0xbcf0410e	-0.029327895
62	0xc036cd47	-2.8562791
63	0xbfa97b1f	-1.3240699
64	0xbfb961b7	-1.4482945
65	0xc0582762	-3.3774037
66	0xbff001c2	-1.8750536
67	0xc02363bd	-2.5529625
68	0xc036f90d	-2.8589509
69	0xc01a2b5d	-2.4088967
70	0xc058cb8a	-3.387423
71	0xc0406fc5	-3.0068219
72	0xbff9e216	-1.9522121
73	0xc0303045	-2.7529461
74	0xc0302206	-2.7520766
75	0xc03ac652	-2.9183545
76	0xc02e727c	-2.7257376
77	0xc02999b9	-2.6500075
78	0xc01fb9d6	-2.4957175
79	0xc0201c42	-2.5017247
80	0xc030be35	-2.7616093
81	0xc04537a3	-3.0815208
82	0xc0264d97	-2.5984857
83	0xc03f9154	-2.9932451
84	0x40e4bd49	7.148106
85	0xc0435981	-3.052338
86	0xc01db495	-2.4641469
87	0xc011b943	-2.2769325
88	0xc04f4d44	-3.239091
89	0xc02be52e	-2.685863
90	0xc03c9df7	-2.9471414
91	0xc03fab2d	-2.9948227
92	0xc016543f	-2.348892
93	0xbfcbea3c	-1.5930858
94	0xc05a88c1	-3.4145968
95	0x3f8cfcea	1.1014683
96	0xc021543d	-2.5207665
97	0xc026cac1	-2.606125
98	0xc00a4c1b	-2.160895
99	0xbe8c27f7	-0.2737424
100	0xc01c6fec	-2.4443312
101	0xc03d8223	-2.961068
102	0xc004b6e1	-2.073662
103	0xc0350356	-2.8283286
104	0xc0328c00	-2.789795
105	0xc0215079	-2.5205367
106	0xc03ae9d1	-2.920521
107	0xc0243b94	-2.5661364
108	0xc03fd8aa	-2.9975991
109	0x3f96f76c	1.1794257
110	0xc02b204e	-2.6738467
111	0xc04ebcce	-3.2302737
112	0xc0101721	-2.2514117
113	0xc008c2fa	-2.1369004
114	0xc03dfa40	-2.968399
115	0xc01c793d	-2.4448998
116	0x3f6139b4	0.87978673
117	0x40a167cc	5.0439205
118	0x40d5d221	6.6819005
119	0xc016e520	-2.3577347
120	0xc00a1e4a	-2.1580987
121	0xbfce79bf	-1.6130904
122	0xc02c2ed9	-2.6903594
123	0xbfffb267	-1.9976319
124	0xbfdc5f3b	-1.7216562
125	0xc04881b0	-3.1329155
126	0xc034cfcc	-2.825183
127	0xc02a5fcd	-2.6620972

fc2.weight f4 [128, 128]
0	0x3fdeb03d	1.7397534
1	0xbcef57da	-0.029216696
2	0x40165c5b	2.349387
3	0x402a4398	2.6603756
4	0x3f7640b9	0.9619251
5	0x3e445896	0.19174418
6	0x3f806948	1.0032129
7	0x4034b41c	2.823493
8	0x405ae09f	3.4199598
9	0xbedd31a1	-0.43201926
10	0x3f95109a	1.1645691
11	0x3ee45aba	0.4460047
12	0x3fbcd3ff	1.4752196
13	0x4097d177	4.7443194
14	0x408cfef0	4.4061203
15	0x3fbc422c	1.4707694
16	0x4019a21d	2.4005196
17	0x408b6eee	4.357291
18	0x4026dc8d	2.6072114
19	0x4025ba5b	2.5894992
20	0x3f85946e	1.0435922
21	0x3d2c15b0	0.04201287
22	0x3f840a4a	1.031564
23	0x401f9cf3	2.4939544
24	0xc061c0fc	-3.5274038
25	0xbcbdf6a8	-0.023188904
26	0x3f34c8f9	0.7061916
27	0x3f817858	1.0114851
28	0x4041f960	3.0308456
29	0x40255c5d	2.5837624
30	0x3e638714	0.22219497
31	0x401c9b48	2.4469776
32	0x406bf736	3.6869636
33	0x3e61fdd7	0.22069488
34	0xbe1e533c	-0.15461439
35	0x3da3f481	0.0800562
36	0x40625b48	3.5368214
37	0x3f8fb87b	1.1228174
38	0x40581bda	3.3767
39	0x3e4dfee4	0.20116764
40	0x3f889d20	1.0672951
41	0x405cd7d7	3.4506738
42	0x4056a5aa	3.3538613
43	0x401ccd1d	2.4500191
44	0xc0262316	-2.5958915
45	0x4053258b	3.2991664
46	0x3fd4fa27	1.663884
47	0x3d939f46	0.07208113
48	0xbe7fccbb	-0.24980442
49	0x3ffb0a1e	1.9612463
50	0x3f936d82	1.1517794
51	0x400ec0e6	2.2305236
52	0x400f1cbf	2.2361295
53	0x40184582	2.3792424
54	0x405c0e45	3.438371
55	0x3d442773	0.047889184
56	0x4030b803	2.7612312
57	0x4048d07c	3.1377249
58	0x3f077d4b	0.52925557
59	0x40dc561f	6.885513
60	0x3fdb6dd9	1.7142898
61	0x4035f3e7	2.8430116
62	0x4008cc5c	2.137473
63	0x4073ab6d	3.807338
64	0x405462bd	3.3185265
65	0x3de3144b	0.11087855
66	0x404b2067	3.1738527
67	0x403adb5b	2.9196384
68	0x3e819756	0.25310773
69	0x3f66083e	0.89856327
70	0x3f83a9ea	1.0286229
71	0x4017ee5f	2.373924
72	0x3f838d9d	1.0277592
73	0x3fab1cab	1.3368124
74	0x4025e822	2.5922933
75	0x40bd99b2	5.9250116
76	0x405c6a8e	3.4440036
77	0x4006e823	2.1079185
78	0x3fd74062	1.6816523
79	0x3fad10fc	1.3520808
80	0x40b3a23d	5.6135545
81	0xbfe4c8ac	-1.787374
82	0x409ada9e	4.8391867
83	0x40794774	3.8949862
84	0x3f83aefb	1.0287775
85	0x3f0429bc	0.5162618
86	0x40960589	4.6881757
87	0x3f91011b	1.1328462
88	0x403c92f0	2.9464684
89	0x3fda3a19	1.704898
90	0x40a43e61	5.1326146
91	0x3f6df352	0.929494
92	0x400793f8	2.1184063
93	0x400f16f9	2.2357771
94	0x4095f3cf	4.686012
95	0x406e3786	3.722139
96	0x4003026f	2.0470235
97	0x3e1e177b	0.15438645
98	0x405a5766	3.4115844
99	0x401c933d	2.4464867
100	0x40894d59	4.290692
101	0x3fdf8674	1.7462907
102	0x40a14c4e	5.0405645
103	0x3f02e9b2	0.5113784
104	0x3fcded6a	1.6088078
105	0x4091895d	4.548018
106	0x40b37c8d	5.608954
107	0x3e86b8b6	0.26312798
108	0x3fc4cbeb	1.5374731
109	0x3f14e9f5	0.5816949
110	0x4056f8b6	3.35893
111	0x40824fbc	4.072233
112	0x4087091e	4.219863
113	0xbdaa01ca	-0.083011225
114	0x40254e75	2.5829136
115	0x3f149093	0.580331
116	0x40812fba	4.037076
117	0x3f3c50fe	0.73561084
118	0x3f6fd86f	0.93689626
119	0x3f7a5fdd	0.97802526
120	0x40872e31	4.2243886
121	0x406cc553	3.6995437
122	0x3e0e52b9	0.13898744
123	0xbf3ec6bb	-0.7452199
124	0x3fc04dd2	1.5023749
125	0x40279a2a	2.6187844
126	0x40053f4e	2.0819888
127	0xbea87774	-0.32903636
128	0xbe58b154	-0.21161395
129	0x403c1ef2	2.9393888
130	0xc03f5ec9	-2.9901602
131	0xbf428262	-0.759802
132	0x405f4ac4	3.4889383
133	0xc00d07d0	-2.2036018
134	0xbfa643a2	-1.298939
135	0xc096ae61	-4.7087865
136	0x3f50ee1d	0.8161333
137	0xc04b0d63	-3.172692
138	0x40540699	3.3129027
139	0xc003e082	-2.0605779
140	0x3fe4962c	1.7858329
141	0xbfd71fde	-1.68066
142	0xc04730f9	-3.112364
143	0x400d658d	2.2093232
144	0xbf0759b2	-0.5287124
145	0x400ace36	2.168836
146	0xbe060891	-0.13089205
147	0xc0d1edee	-6.560294
148	0x406de1a5	3.7168972
149	0xc0297b3c	-2.6481466
150	0xbdf1581b	-0.11784383
151	0xbf44812d	-0.76759607
152	0xc073b3b6	-3.8078437
153	0xc05fa59e	-3.4944835
154	0x40562867	3.346216
155	0x404bc558	3.18392
156	0x400641c4	2.097764
157	0xbf7bae8c	-0.9831321
158	0xc0253720	-2.5814896
159	0xc00c4a99	-2.192053
160	0xbfb61e29	-1.4227954
161	0xbfe064ea	-1.7530797
162	0x40f1a795	7.551707
163	0xc045da27	-3.09144
164	0xc0671977	-3.6109293
165	0xc02bd863	-2.6850822
166	0x3edfe7f2	0.43731648
167	0xc00435b6	-2.0657783
168	0xc008cc41	-2.1374667
169	0xbe68f321	-0.22748996
170	0xbf218b8e	-0.6310357
171	0xbf87da45	-1.0613486
172	0xc003d4c7	-2.059862
173	0x3f2c145b	0.6721856
174	0xc012e3e9	-2.2951605
175	0xbfc57f9d	-1.542957
176	0xc0139e8f	-2.3065526
177	0x3ed3f6d4	0.41399252
178	0xbfa814ca	-1.3131344
179	0xc004fef5	-2.0780613
180	0xbfc71b69	-1.555524
181	0xbf950dde	-1.1644857
182	0xbd736a47	-0.059427526
183	0xbf17076a	-0.5899569
184	0xc02a0b58	-2.6569424
185	0x3f18ef9d	0.5974062
186	0x3f18120e	0.5940255
187	0x40675003	3.6142585
188	0xbfc99cf5	-1.5751024
189	0xbe49a67c	-0.19692415
190	0xbfe81c56	-1.8133647
191	0x3f749239	0.9553562
192	0xbfa98fff	-1.3247069
193	0xc01f7a79	-2.4918501
194	0x3f02b4b1	0.51056963
195	0x3e8a4673	0.27006873
196	0xc0394c00	-2.8952637
197	0xbe3c7488	-0.18403828
198	0x3f538e42	0.82638943
199	0xbff0bdc9	-1.8807918
200	0xc062ea11	-3.5455363
201	0xc0b7c552	-5.742837
202	0xbfc0d8ba	-1.506614
203	0x4076b26e	3.8546405
204	0x405d5a7e	3.4586482
205	0xc084c1bb	-4.1486487
206	0xc04e4f12	-3.223576
207	0x3f9ba530	1.2159786
208	0x406e5d8e	3.7244601
209	0xbf8c0606	-1.0939338
210	0x3fbabb19	1.4588348
211	0x3f396fbc	0.7243612
212	0x405a9be4	3.4157648
213	0xc05751d9	-3.3643706
214	0x3fb399e0	1.4031334
215	0xbf24348c	-0.6414268
216	0x3eaa131e	0.3321771
217	0xc02695ec	-2.6029005
218	0xbf0de799	-0.55431515
219	0xbfd8a0df	-1.6924094
220	0x3de8a3f7	0.11359399
221	0x3fc981d9	1.5742751
222	0xc0279ecf	-2.619068
223	0xbe293be3	-0.16526751
224	0xbff6c0e0	-1.9277611
225	0xc00beae7	-2.1862123
226	0x3f330201	0.6992493
227	0xc0a57005	-5.1699243
228	0xbf45bf83	-0.7724535
229	0xc04c5859	-3.1928923
230	0x40046d84	2.0691843
231	0xbf585f1b	-0.8452012
232	0x3ea4ec46	0.32211512
233	0x3f839a96	1.0281551
234	0xbfdb6ac2	-1.7141955
235	0xc00d5b6f	-2.2087057
236	0xbffbeecb	-1.9682249
237	0xbed558c7	-0.41669294
238	0xbf46731f	-0.7751941
239	0xbfeb0ec5	-1.8363882
240	0x404b71fb	3.1788318
241	0xc00654c8	-2.0989246
242	0x3ea3bbef	0.3197932
243	0xbf217b3c	-0.63078666
244	0xc007aeb1	-2.1200373
245	0x4024274b	2.5648983
246	0x406db6dc	3.7142859
247	0xbfce823d	-1.6133496
248	0x3d37d10e	0.044877104
249	0xbebd1e3c	-0.3693713
250	0xc02d1ebc	-2.7050009
251	0xbfec2e9b	-1.8451723
252	0xc087415b	-4.226728
253	0xc05b9416	-3.4309134
254	0xbf44d6d2	-0.7689029
255	0xc00b73db	-2.1789463

fc2.bias f4 [128]
0	0x4016e849	2.3579276
1	0x4115da84	9.365849
2	0x3ff43c72	1.9080946
3	0xc07385f8	-3.8050518
4	0xbf220de6	-0.6330246
5	0xc04d2852	-3.205586
6	0xc0898a63	-4.298143
7	0xc00177f8	-2.0229473
8	0x3fdeaa45	1.7395712
9	0x4031b862	2.7768788
10	0xc0929ee2	-4.581895
11	0xbff13a1b	-1.8845857
12	0xc0020a47	-2.0318773
13	0xbdb3d09f	-0.08780026
14	0xbde80700	-0.1132946
15	0xc04fbf9f	-3.2460706
16	0x4011f652	2.2806592
17	0xbd8666c9	-0.065625735
18	0x400142e9	2.0197089
19	0xc08a39d2	-4.319558
20	0x4097b25d	4.740523
21	0xbda7aa37	-0.08186763
22	0xc007e085	-2.1230786
23	0x404d500d	3.208011
24	0x400c7dfa	2.195189
25	0x400ed4ce	2.2317386
26	0x3fdde80e	1.7336442
27	0xc06d0b9e	-3.703834
28	0xbfd1d4c6	-1.6393058
29	0xbd8a701d	-0.06759665
30	0x401a8682	2.4144597
31	0xbc7885bc	-0.0151686035
32	0x403d9287	2.9620683
33	0x4082b1e0	4.0842133
34	0x401f15b8	2.4857006
35	0x40141d1c	2.3142767
36	0x4034d0ae	2.8252368
37	0xc005025a	-2.0782685
38	0xbdc1f488	-0.09470469
39	0x3bc2b873	0.005942398
40	0x3fb377d6	1.4020946
41	0x4000d088	2.0127277
42	0x401438b8	2.3159618
43	0xc0854284	-4.1643696
44	0x3c564dbd	0.013080058
45	0xc02844bd	-2.6291955
46	0xbe658539	-0.22414102
47	0x3d6241c5	0.055238504
48	0x402e66cc	2.7250242
49	0x3fe33388	1.7750101
50	0xbdfdc6fa	-0.123914674
51	0xbdcf8089	-0.10131938
52	0xc08c3039	-4.3808866
53	0x4012ec07	2.295656
54	0xc08ad9b9	-4.3390775
55	0xbd4b22bc	-0.049593672
56	0xc0269438	-2.6027966
57	0xc0479914	-3.1187181
58	0xbc7487aa	-0.014924923
59	0x40100167	2.2500856
60	0x4079ea0b	3.9049098
61	0xc08d0a35	-4.407496
62	0x3ee9fda8	0.45701337
63	0xc07ebc4a	-3.9802423
64	0x400a219b	2.158301
65	0xc08482e1	-4.1409764
66	0xc0607ff4	-3.5078096
67	0xc0653651	-3.5814402
68	0x400091e5	2.0089047
69	0x40174fb9	2.364241
70	0x40c26355	6.0746255
71	0xc01d9239	-2.4620497
72	0x401bed27	2.4363496
73	0x401d4f08	2.4579487
74	0xbd9ff423	-0.07810237
75	0x3d813bd4	0.063102394
76	0x3ffeb919	1.9900237
77	0xc08bca03	-4.3684096
78	0xc0373af3	-2.862973
79	0xc08be77a	-4.3720064
80	0xbe062ba5	-0.13102587
81	0xbf047d33	-0.5175354
82	0xc07665c7	-3.849962
83	0x3fa920c1	1.3213121
84	0xc08d1500	-4.4088135
85	0xbdbdb4b9	-0.09262986
86	0xc0420703	-3.031678
87	0x401f38af	2.4878347
88	0x3edcce90	0.43126345
89	0x401f95e9	2.4935248
90	0x3d5f2749	0.054480825
91	0x4026aaf8	2.604185
92	0xbf9401ea	-1.1563084
93	0xc07700b6	-3.8594184
94	0x40181fae	2.3769336
95	0xc07a99e6	-3.9156432
96	0xc06a9040	-3.6650543
97	0x40200555	2.5003254
98	0xc08c1d8f	-4.378608
99	0xbd05a73a	-0.032630183
100	0xc00d83f2	-2.2111783
101	0xc05f9d11	-3.4939616
102	0x40a0d374	5.025812
103	0x4021845a	2.523703
104	0x3d7668d7	0.060158577
105	0xc087e1f4	-4.246332
106	0xbca95524	-0.020670481
107	0xbd8dcdc0	-0.06924009
108	0xc08ea9e0	-4.4582367
109	0x3ea6b012	0.32556206
110	0xc088f776	-4.2802076
111	0xc00f911c	-2.2432318
112	0xbd243285	-0.04008724
113	0xbdcd125a	-0.10013266
114	0x4020d313	2.512883
115	0x3c4c2a43	0.012461248
116	0x3d87fa1f	0.06639504
117	0xbd55af22	-0.052168973
118	0xc06f15fa	-3.7357163
119	0xbd63f1c0	-0.055650473
120	0x3fc6c972	1.5530226
121	0x40115685	2.2709057
122	0x4001f1d3	2.0303848
123	0xbc911667	-0.017710878
124	0x40083854	2.128438
125	0xc01970c1	-2.397507
126	0x4027a016	2.6191459
127	0xc065c921	-3.590401

fc3.weight f4 [4, 128]
0	0x3fbfb672	1.4977553
1	0x41b28e2d	22.319422
2	0x3fbeaea5	1.4897047
3	0x40a978a6	5.2959776
4	0x3fefdc9d	1.8739201
5	0x40120c0e	2.2819858
6	0x40d2f8f3	6.5928893
7	0x3fe2f410	1.7730732
8	0x3fb58cf2	1.4183638
9	0x3fb206f1	1.3908368
10	0x4110255e	9.009123
11	0x3ff1f627	1.8903245
12	0x3f6e24ae	0.9302472
13	0xbd6eb264	-0.058275595
14	0xbcdee90f	-0.02721074
15	0x3f198b75	0.5997842
16	0x3fc2f4da	1.5230973
17	0xb9d5c0d5	-0.00040770197
18	0x3fcd3aed	1.6033608
19	0x40843d3f	4.1324763
20	0x404ee765	3.2328732
21	0x3d9f3f43	0.07775738
22	0x3fa5d897	1.2956723
23	0x403a7125	2.9131558
24	0x3fbb2014	1.4619164
25	0x3fc90f13	1.5707725
26	0x3fc1c2d1	1.5137578
27	0x40ddd837	6.9326434
28	0x3faa89a1	1.3323251
29	0xbd0ada4f	-0.0338996
30	0x3fb94f5d	1.4477345
31	0xbd43b58b	-0.047780555
32	0x3fb414dd	1.4068867
33	0x40d52469	6.6606946
34	0x3fc75870	1.5573864
35	0x3fcfb612	1.6227438
36	0x3fbe79c4	1.488091
37	0x3ff91040	1.9458084
38	0x3a878a8b	0.0010340972
39	0xbcb0f0b9	-0.02159916
40	0x3fce82c5	1.6133658
41	0x3fb5cd12	1.4203207
42	0x3fb494a4	1.4107862
43	0x40fdb4c8	7.928318
44	0x3dc981e4	0.09839228
45	0x3fcd45ed	1.6036965
46	0x3fc75b97	1.5574826
47	0xbdae6694	-0.08515659
48	0x3fbc0675	1.468947
49	0x3fc59e6f	1.5438975
50	0x403cdb26	2.9508758
51	0xbd1576f9	-0.036490414
52	0x40eee3c6	7.4653044
53	0x3fc9883a	1.5744698
54	0x40f0185e	7.5029745
55	0x3d8fa890	0.070145726
56	0x4056eedf	3.3583295
57	0x40a11192	5.033395
58	0xbd2ee648	-0.042700082
59	0x3fbd8fb7	1.4809483
60	0x3f7eb4ea	0.994948
61	0x40f60c68	7.6890144
62	0xbe6e10a5	-0.23248537
63	0x40c6898b	6.20429
64	0x3fc769f3	1.5579208
65	0x408d3e35	4.4138436
66	0x3faa499a	1.3303711
67	0x40943e64	4.632616
68	0x3fc57964	1.542767
69	0x3fc036d8	1.5016737
70	0x3efc036b	0.49221358
71	0x3fb92519	1.4464446
72	0x3fbd1d8a	1.477464
73	0x3fb62d11	1.4232503
74	0x3c892094	0.016739167
75	0x3d17b838	0.03704092
76	0x3fb0be11	1.3808004
77	0x40b37262	5.6077127
78	0x408e1b19	4.440808
79	0x411956b8	9.583672
80	0x3d64db60	0.055873275
81	0x3fb6fa98	1.4295225
82	0x40e1e4a6	7.059161
83	0x3fd0dc8d	1.6317307
84	0x40c25901	6.0733647
85	0xbcdd1a9b	-0.026990226
86	0x4024d550	2.5755196
87	0x3fc7324b	1.5562223
88	0xbeb85373	-0.36001167
89	0x3fbf00c4	1.4922109
90	0xbb9d535d	-0.0048011974
91	0x3fbf4559	1.4943038
92	0x3fba1a47	1.4539269
93	0x40c948d2	6.290139
94	0x3fc34e7c	1.5258327
95	0x410888db	8.533412
96	0x40309713	2.7592208
97	0x3fc72539	1.5558234
98	0x40f52efd	7.661986
99	0xbd0b1b0d	-0.033961345
100	0x400d6918	2.2095394
101	0x4096a805	4.70801
102	0x3fa810c9	1.3130122
103	0x3fc1f4c4	1.5152822
104	0xbd76a226	-0.06021323
105	0x4100881c	8.03323
106	0x3d8c0151	0.068361886
107	0x3ddee632	0.1088375
108	0x40cd9458	6.4243584
109	0xbeafaa8f	-0.34309813
110	0x40ed5a01	7.417237
111	0x3fff34a1	1.9937936
112	0x3bc36142	0.005962522
113	0x3d665213	0.056230616
114	0x3fc6c0b6	1.5527561
115	0xbd118435	-0.035526473
116	0x3b1b9599	0.002374029
117	0x3be49776	0.0069760634
118	0x408a0652	4.3132715
119	0xbd298c1a	-0.041393377
120	0x3fd15257	1.6353253
121	0x3fc963fb	1.5733637
122	0x3fd0bab8	1.6306982
123	0x3b06cffd	0.0020570748
124	0x3fc24ec1	1.5180284
125	0x3ffa88d9	1.9573013
126	0x3fb1d8ef	1.3894328
127	0x3fb876df	1.4411277
128	0x3fbb0348	1.4610376
129	0x41bb4626	23.409252
130	0x3fb092dc	1.3794818
131	0x409b0135	4.8438973
132	0x3fe53b53	1.7908729
133	0x3fe67356	1.8003948
134	0x40bc28d0	5.879982
135	0x3ea2ae9b	0.31773838
136	0x3fb9cf37	1.4516362
137	0x3fdcdb00	1.7254333
138	0x41084dce	8.518995
139	0x3f51cf76	0.81957185
140	0x3ef0aa62	0.47004992
141	0xbc213ab3	-0.009840655
142	0xbdd346a0	-0.10316205
143	0x4045f7c8	3.0932484
144	0x3fd3dfde	1.6552694
145	0x3d957a99	0.07298774
146	0x3fa23243	1.2671589
147	0x40aad774	5.3388004
148	0x40454125	3.082101
149	0x3d851b3f	0.064993374
150	0x3facd91c	1.3503757
151	0x3f92dc05	1.1473395
152	0x3fb26190	1.3936024
153	0x3fd6b8ce	1.6775148
154	0x3fa74c81	1.3070222
155	0x40b4c82e	5.649436
156	0x3f8c4f48	1.0961695
157	0x3d8f9f40	0.070127964
158	0x3fda80b9	1.7070533
159	0xbd7d42fa	-0.061831452
160	0x3fd8316b	1.6890081
161	0x40a0788f	5.0147166
162	0x3fd3aab3	1.6536468
163	0x3fabefec	1.3432593
164	0x3fd19d88	1.63762
165	0x3f5ca3bc	0.8618734
166	0xbd62fda1	-0.05541766
167	0x3c95a192	0.01826552
168	0x3fa874ff	1.3160704
169	0x3fa23b32	1.2674315
170	0x3f9b0304	1.2110295
171	0x408ab7e4	4.3349476
172	0xbd7ecfe3	-0.062209975
173	0x3e280542	0.16408256
174	0x3fcfb261	1.6226312
175	0x3d7be8fa	0.06150148
176	0x3fd5f22b	1.6714529
177	0x3fa71c19	1.305545
178	0xbfa09b9c	-1.2547488
179	0x3d4554ff	0.04817676
180	0x41230b53	10.190265
181	0x3fda2f04	1.7045598
182	0x4102ecae	8.182783
183	0xbd44c785	-0.04804184
184	0x400ac49f	2.1682508
185	0xbfa3077b	-1.2736658
186	0x3dba81f1	0.091068156
187	0x3feb4e64	1.8383298
188	0x3fb03ee7	1.3769196
189	0x40f5c032	7.6797113
190	0xbe06d146	-0.13165769
191	0x40e5eaa9	7.184895
192	0x3fc108f7	1.5080861
193	0x40d2d4b1	6.5884633
194	0x408aa6d8	4.3328667
195	0x4093e3ec	4.6215725
196	0x3fa321c3	1.2744678
197	0x3fb0cd12	1.3812582
198	0x401c9cf1	2.447079
199	0x3f223fcf	0.63378614
200	0x3fc1921b	1.5122713
201	0x3fcc28a1	1.5949899
202	0x3da8a727	0.08235007
203	0xbd04666f	-0.03232425
204	0x3fba51f9	1.4556266
205	0x40fa3a18	7.8195915
206	0xc05ee11f	-3.4824903
207	0x4124d0a7	10.3009405
208	0x3c391014	0.011295337
209	0x3faa2bb8	1.3294592
210	0x40b6b12a	5.7091265
211	0x3f92f24b	1.1480192
212	0x41034166	8.203466
213	0xbdaf776a	-0.08567698
214	0xc0452696	-3.08048
215	0x3fc7b99d	1.560352
216	0xbe733fcf	-0.2375481
217	0x3fbbf467	1.4683961
218	0xbd6c680f	-0.057716426
219	0x400a77eb	2.1635692
220	0x3faf09c2	1.3674853
221	0x40b7710f	5.732551
222	0x3fb8fa7c	1.4451442
223	0x40f5ec0b	7.685064
224	0x3fea02a5	1.8282057
225	0x3fd298fe	1.645294
226	0x41082ae4	8.510471
227	0x3c38d3a2	0.011280926
228	0x3f1cb455	0.61212665
229	0x408a169e	4.315261
230	0x3f64da4b	0.8939559
231	0x3fc0f8cc	1.5075927
232	0xba6889c6	-0.00088706275
233	0x40b21350	5.5648575
234	0x3cd82af4	0.02638767
235	0x3e1e2acc	0.15446013
236	0x40ebd097	7.3692126
237	0xbeaecc8a	-0.34140426
238	0x40e40366	7.125415
239	0x3fbc0608	1.468934
240	0x3d233c91	0.039852683
241	0xbd27a39e	-0.040927522
242	0x3fb7e8c0	1.4367905
243	0xbd07cf47	-0.03315666
244	0xbc424c87	-0.011859066
245	0xbd32e56e	-0.043675832
246	0x40909d66	4.5192137
247	0xbd2aea36	-0.041727267
248	0x3fc73917	1.5564297
249	0x3fd22914	1.6418786
250	0x3fb8e3e7	1.444455
251	0x3ce24589	0.027621048
252	0x3fcb1433	1.5865539
253	0x3f946a64	1.1594968
254	0x3fb589b8	1.4182653
255	0x40533a25	3.3004239

fc3.bias f4 [4]
0	0x3f3bf832	0.7342559
1	0x3fe672fe	1.8003843
2	0x40c4d138	6.1505394
3	0x3f977258	1.183177
